data/citylearn_challenge_2022_phase_1/models/params0.npy (npy, 1600 bytes, 1 tensors)

array f8 [184]
00000000: 7488 0f36 7fa4 9ebf c8c2 526d f1a3 9bbf
00000010: 0caf b126 abd4 a33f c8da 7cf0 e7f6 9e3f
00000020: 0b76 2d87 6889 933f 2d57 3645 ddd7 c43f
00000030: 64f4 5ed6 0b54 b23f 5ccd 3ba4 1c19 ca3f
00000040: 610d c4f0 a656 b23f 70a0 0559 88da b53f
00000050: ee9a 44c4 2663 a03f f83f ce69 eb3f c8bf
00000060: fde3 d6d5 ec43 c53f 3af7 3832 d74f 91bf
00000070: c0b5 1b38 17ee a3bf 694d 2e5e 55fd aa3f
00000080: faad 921f 39ee 70bf e1d5 901b 88cf b1bf
00000090: ce8a 05ec 8a0d b1bf bdf3 e155 8d40 c3bf
000000a0: a348 a82b 417c 9fbf 01d5 69ab 529a 65bf
000000b0: 7c4a fbad a4ae c6bf 8dd0 f09d c00c b63f
000000c0: 3bac 3259 6d19 93bf 8dd4 e59a 9b7e c23f
000000d0: 789d ee94 7d11 c8bf b353 aadd 4052 c03f
000000e0: 6f4d d0b1 e7fc b8bf e8d7 f0d2 e7a9 c03f
000000f0: f82c d96a 908d 28bf 93e3 d4b4 6a8b b7bf
00000100: 338b 70d7 b206 9dbf 5b91 cf8f a08c a7bf
00000110: f96b d32f aabe 6ebf 9c3c ede8 21bb 46bf
00000120: c1bf 38a3 bf3f b03f e7a8 799d 92d3 b6bf
00000130: 1932 30dd 8439 aebf 2968 8798 10a2 733f
00000140: 39ef 90ff 53bb ad3f f28a dcc7 dad6 a93f
00000150: 8bc5 694b 3a70 a9bf 0c0c 4937 e5e4 a73f
00000160: f642 9095 82fb a33f 702b 1271 4a6c 923f
00000170: 25e1 3659 528c 8abf 51f7 b414 9acd ad3f
00000180: 52df 1f11 0b63 c73f 7d47 334f d109 bd3f
00000190: 0259 cf6b 187c 983f 06f2 a6b5 df62 72bf
000001a0: aa80 e8db 337d 52bf 435a b650 dd69 a23f
000001b0: d3c7 b6a0 753b a6bf 21c9 db0d cc48 81bf
000001c0: c92f 081f 065d 7ebf 9708 146a a6c8 ac3f
000001d0: cae5 5da8 dea4 81bf cc4d 8c91 c3d9 80bf
000001e0: 013d 61f4 3167 c13f 1f4c 59b9 c51b afbf
000001f0: 0e17 ac8c a7d3 acbf 517d 5f4f 91a0 94bf
00000200: 4e04 1502 8d4a 03bf 002d 75dc a53b 76bf
00000210: 5be0 1373 a408 943f f55e 51df cd4a ac3f
00000220: cfab 8536 65d9 933f 9d47 66a2 4d3b 9d3f
00000230: 9c24 852f a505 513f 6c9a 4412 c5a8 81bf
00000240: 48c5 ed9d b5c3 93bf 892b 5938 5564 a1bf
00000250: 029e 98db ebac a83f 90f3 9303 12d1 ae3f
00000260: 6dcd 3761 9edd 7d3f 32dd 1859 f825 91bf
00000270: b2ef 1e04 3c76 cabf 7cda f42f e57d acbf
00000280: c5ac 3d25 5b8e 69bf f052 4917 fb03 9b3f
00000290: 1cc3 d3cb 2f7a a03f d595 1fe7 8521 9b3f
000002a0: b6c9 51cd 0f78 c7bf c233 9efb 6e0b ce3f
000002b0: c79f f28b fc17 713f 5586 a195 6549 463f
000002c0: 3d94 66c0 fbcd 81bf ad71 184d 611b 9c3f
000002d0: 9121 a4fb 7bc5 9abf afe0 6de2 ea0c 8ebf
000002e0: 6362 99fa b7b6 a23f 0e8c 0569 0caa 933f
000002f0: bf17 bf3a 12ee 5b3f b56a 663c 68b6 97bf
00000300: 02d7 a933 719d b13f 2d78 b556 8c2a 9e3f
00000310: 12d9 b8a4 589c 663f dc2c bd90 1468 53bf
00000320: 110a e00b bbe6 96bf 90ed 00f6 af91 a03f
00000330: 93b4 9c19 a424 c33f 11ed ef5f 5499 c9bf
00000340: a5c0 0ba1 dea1 86bf 57c3 068c 98cc 96bf
00000350: 6914 1624 18ca 883f e59a 8a1c a811 9f3f
00000360: 2d1c c3c2 c1a0 74bf 323d 2b0b c642 c9bf
00000370: d892 0939 8bab c3bf 08ed 0008 6697 8cbf
00000380: 436c 88f0 9cc6 a7bf 6eab 551c c694 8dbf
00000390: 618d a09a 89d7 9ebf e70b a58f 4da1 81bf
000003a0: ca1f 4ba5 a410 66bf f7b1 bffc d58c 8e3f
000003b0: 5347 fa48 ca46 a43f 909b ef77 12df cc3f
000003c0: 3f01 c0c9 f0e6 d1bf 5b0e b633 c052 ce3f
000003d0: 3c52 b32d 92b1 d4bf 9de3 7ffe baef d63f
000003e0: c7ad 0bbb 97e9 313f 041b 8beb 4767 963f
000003f0: 163a 21d1 a7c6 87bf 03ee 2348 8359 94bf
00000400: 1cc5 0615 8a11 743f eead d83c 87ea 933f
00000410: a365 96b1 8d32 8bbf 48ac 38b8 e252 a83f
00000420: 362f d06a 5394 ad3f 1d2f fca5 6a4d 9ebf
00000430: a407 7bb5 0859 7cbf 903f 2adb 70b1 93bf
00000440: bba4 0e7b f667 713f c128 eddd c04c 863f
00000450: b59e 9de3 7ab0 aa3f f8f9 1c5a c18b 803f
00000460: 1e5b 8d09 5114 82bf 3299 0b01 e1cd 1f3f
00000470: bd50 68f4 6152 a83f c107 60df c09f 323f
00000480: 6ca9 7aa0 da56 8c3f 673f 1bdd 8ac9 92bf
00000490: 64bd a2f8 d01a 88bf 880a 815c 3d19 87bf
000004a0: 95fc 1611 b654 a83f fd04 8da5 bcbc 9ebf
000004b0: 846f 0ee7 33ac b73f 7468 00eb 7974 ac3f
000004c0: 105f 588c eb3c a43f e4bc 8608 118a a23f
000004d0: 7b9d 633c ac58 91bf f8df 438c e0fe 963f
000004e0: 1e10 a8ce 3b48 953f 5d34 0a22 7c6e 53bf
000004f0: d21d 78f3 2497 5f3f 0b13 02ef bac6 84bf
00000500: 861c 67a3 ae20 9a3f fc4c eabc f0da 943f
00000510: ec6f 0b20 778f 4f3f 0b38 0591 832f 6c3f
00000520: 09cd 4ac7 1f24 75bf c008 fc59 c7f7 7dbf
00000530: 3026 2f02 c887 843f e80d cd7f a8da 8e3f
00000540: 8272 9190 b98a 95bf 367a 0488 c99f 78bf
00000550: 6dd4 07bf 5bc6 813f 77af 6871 811c 6f3f
00000560: d9a7 f359 fb16 853f ab4e b336 7db1 843f
00000570: 2c9a 2498 3944 933f 6538 524e 7839 8c3f
00000580: 7779 036a ab05 9c3f f0f6 b08f 80bd 413f
00000590: 80e6 f09f c21a 51bf dcb9 541d d86f a1bf
000005a0: b485 399b 1939 a1bf 28e7 3d03 fd89 9d3f
000005b0: c577 70c5 ffba 613f 8fe7 7af3 b36c a0bf
-0.029924380945779608 -0.026992580697597274 0.03873190734233675 0.0302387466938068 0.019078858614525667 0.1628376567793394 0.07159494384446102 0.20389135379046308
0.07163470628807068 0.0853657929743592 0.03200646539544559 -0.18945067087452094 0.16613541070344687 -0.016906130256976605 -0.03892586288371147 0.05271403097790534
-0.004133437288298842 -0.06957293198578142 -0.06661289465186401 -0.15040747350204056 -0.03074743107760781 -0.002637063468962198 -0.17720468993373462 0.08613208633397758
-0.01865168435021423 0.14448876441352745 -0.18803376934122773 0.12751017402174866 -0.09760902491716704 0.13018510627597313 -0.00018732440860200878 -0.09197108187517093
-0.028345865630522837 -0.04599477534773896 -0.003753025432712939 -0.0006936946464096874 0.06347272620109747 -0.08916584343538468 -0.059032585144539414 0.004793228938490692
0.05806982512191756 0.050467335602908295 -0.049684354501447 0.04666820812101244 0.03902824474073967 0.017991221572212834 -0.012962954852682682 0.05820924284715424
0.1827100595107774 0.11343105491257961 0.023910886364171276 -0.004488824716130773 -0.00112848343236042 0.03596393213517903 -0.04342238985863358 -0.008439630673340805
-0.007412933264742302 0.05621833844090068 -0.008615245354792207 -0.008227851752542835 0.13596176560029252 -0.060758761287296396 -0.05630229561033505 -0.020143766850990123
-3.679507086441128e-05 -0.005427978415649237 0.019564218066961164 0.05525821066902196 0.01938398499752819 0.02854653648098059 0.0010389435902473992 -0.008622684116358324
-0.019301259769638507 -0.033968604210335825 0.048194284969493864 0.06018883031536071 0.007291430159500717 -0.01674640697293945 -0.20673322869504102 -0.05564800463109962
-0.003119638460636761 0.026382373138704673 0.03218221057057333 0.02649506781735574 -0.18335149312367854 0.2347239235499768 0.004173265943940358 0.0006801363008543485
-0.008693663415053727 0.0274481967263555 -0.026143967851596953 -0.014673075709410758 0.03655028280326602 0.019203370962156234 0.0017047098181008772 -0.023156765638854455
0.06880862723650341 0.0294591834948436 0.0027600985829635627 -0.0011844826539853448 -0.022364542579461914 0.03236150625204026 0.14955569506256391 -0.19999174770769249
-0.01105092934582814 -0.02226484636929923 0.012104214288010522 0.030340792409925838 -0.00503612220581488 -0.19735026879650658 -0.15367260251073023 -0.01396064483571148
-0.04643717228119517 -0.014443919887261205 -0.03011908537167807 -0.008608442255200145 -0.0026934829460038877 0.014917060638219388 0.03960258618202652 0.2255576215386239
-0.2797204942908315 0.23690035366972748 -0.3233380743306815 0.35838198522065473 0.0002733226238393585 0.02187836051123339 -0.011609374112734588 -0.01987271430787808
0.004899539359415141 0.01944934185864427 -0.013280016881980944 0.04750736712261322 0.057772261418078605 -0.029592195874143735 -0.006920846957372637 -0.019231570603153225
0.004249537291721224 0.01088858296647677 0.05212768581878661 0.008079062044655125 -0.008827813247689383 0.00012132345024049444 0.04750352962960978 0.00028418024828635527
0.01383753587954991 -0.01834694838072384 -0.011769898021468612 -0.011278609643459406 0.04752129515281315 -0.030016849140570113 0.09247135535264134 0.055576143204420086
0.039527283555967796 0.03620961407738735 -0.01693982237420986 0.02245665413008166 0.020783361900626678 -0.001186009620286719 0.0019281254625428301 -0.010144672793339212
0.02551529762584128 0.02036644127890684 0.0009631473222628784 0.0034406251581122808 -0.005161403784472948 -0.0073163783233686774 0.010024607245116973 0.015065494918991854
-0.02103700585245117 -0.006011759978973566 0.008679119841852956 0.003797772234312487 0.010297740633593054 0.010104158622574152 0.018814945136137393 0.013781490221188084
0.027365377755694333 0.0005413892498677669 -0.0010439777977481468 -0.034056428509177755 -0.03363876361687393 0.028846696207870753 0.0021643634349990137 -0.03207933756989611
