data/citylearn_challenge_2022_phase_1/models/params21.npy (npy, 1600 bytes, 1 tensors)

array f8 [184]
000000 e0 1f 1e 5d 29 db bc bf f2 c3 3d 3a b1 b7 9b 3f
       -0.11271914027577123 0.027067917995228848
000010 85 d2 90 05 4a bc 8d 3f 65 e8 3b 9c 77 6f d3 bf
       0.014519289297916469 -0.303678419658928
000020 16 14 bf 5b 2b ab c8 bf cc 18 50 f0 e2 50 a1 3f
       -0.19272367458157252 0.033820239863460694
000030 ad b8 2d fb 32 a7 6a bf 4e 6d 3c ad 71 b6 a9 bf
       -0.0032535548902422246 -0.05022006263444699
000040 2b e0 48 43 87 b1 b0 3f bc 1b b4 db 4d fc cb bf
       0.06520886795704033 -0.2186372111102325
000050 e6 63 b3 3e cb cf c6 bf 51 e5 da e7 0e 92 c3 3f
       -0.17821636735496255 0.15289484330223016
000060 22 f4 9f f0 72 b0 c1 bf 7a a0 b3 53 63 de bd 3f
       -0.13819729565867173 0.11667462152002087
000070 9d 7e 65 55 80 13 c0 bf 6a f5 1c 4c a3 02 b4 bf
       -0.1255951325392645 -0.07816525085669004
000080 da 68 d0 00 85 a8 98 3f 78 15 b9 9f 53 9b 94 bf
       0.024080351042450633 -0.020123774169652248
000090 ca 89 bb 95 8c 03 a6 bf 41 17 d5 dd be 11 c2 bf
       -0.0429958279398935 -0.14116655189189412
0000a0 08 c3 54 7c 89 15 c7 bf 4c e3 40 30 93 97 c7 bf
       -0.18034475870947397 -0.18431320053221112
0000b0 ce 74 5e c1 fd a1 bc 3f d2 4c 73 af 34 35 6a bf
       0.11184679003641237 -0.0031991986285021335
0000c0 d9 e4 21 32 20 60 be 3f ce 51 e9 74 31 63 b8 bf
       0.11865426277099135 -0.09526356796533905
0000d0 64 09 5a bc e1 2e ad bf d3 93 f8 37 fe 0e c2 bf
       -0.05699830459799918 -0.14108255131682643
0000e0 1b 38 dc 37 f5 c3 c1 bf ed 8b 65 2c ab 27 73 bf
       -0.13879266002226207 -0.004676502844037406
0000f0 2a 12 23 26 54 56 96 bf c4 1d 0c 6e c5 8d bd bf
       -0.02181369288224936 -0.11544450699522374
000100 26 9b 47 e6 15 32 8d 3f 62 03 bf ba 62 a9 52 3f
       0.01425568684585483 0.0011390175013589955
000110 fb 62 ba 43 3e 89 77 3f b0 64 d1 b5 01 5d 81 3f
       0.005746119709919335 0.008478177415030735
000120 c4 5a d8 c6 73 7c 8b bf d0 1d bb 88 f2 a1 b3 bf
       -0.013420967584392492 -0.0766898711982471
000130 21 22 d2 08 a4 c1 a4 bf 9d f7 3a d4 a5 5a a0 3f
       -0.040539861752282975 0.03194158759786989
000140 12 88 5d c8 97 d0 a6 3f 44 35 9a 5b a3 f8 b0 3f
       0.04456018753877812 0.06629391657243838
000150 be 36 a4 1b 27 c7 cc bf 4c 96 94 ce 3d 7b 61 bf
       -0.22482766008072547 -0.0021339614073834553
000160 8c 88 a1 f7 47 57 87 3f b1 2f e2 eb 83 e8 a3 3f
       0.011396944279287412 0.038883326095941036
000170 ad 2b 17 0c 1a 99 91 3f ac 7c d2 a3 be f5 9c 3f
       0.017185599315591982 0.028281191586412888
000180 a6 eb 5e 29 83 df c0 3f fa b4 ba 12 21 25 bc 3f
       0.13182105560357832 0.10994154650935065
000190 76 b8 d6 63 4d c8 b3 3f ea 4c d4 ee d0 94 6a 3f
       0.07727512061566863 0.0032447891923169563
0001a0 f2 d1 b1 9d 74 c8 8a bf de f2 c7 27 9a 29 83 bf
       -0.01307765108342893 -0.009356693591138162
0001b0 78 bd 71 bd 0d d7 aa bf 02 31 1a 40 20 b3 99 3f
       -0.05242197930862863 0.02509737387895062
0001c0 e3 f9 15 60 83 84 b1 3f 54 5c 73 a1 2b 5c a7 3f
       0.06842824073644453 0.04562507959206444
0001d0 f5 01 a8 12 8a b3 ba bf 6a 9b d4 91 06 f4 97 bf
       -0.10430205302692015 -0.02339182152823175
0001e0 88 b7 3e 1e 26 70 c5 3f cb 2c b1 07 fd 5c 91 bf
       0.16748501278692296 -0.016956285089958095
0001f0 1a 2d 4d 42 cf 50 ad bf 49 65 9d e8 08 1e a0 bf
       -0.057257153361741156 -0.03147914733444652
000200 6e 5e c3 ac 22 35 8d bf f2 4a 84 74 eb c8 c0 3f
       -0.014261504075349065 0.13113158406539288
000210 20 34 12 87 85 2b 96 bf 3e fa 69 ac 41 dd b6 bf
       -0.021650396699033903 -0.08931360682797959
000220 1c 92 f6 42 2d 3a a2 bf 18 38 ff b6 6e 57 b0 bf
       -0.03560010378285858 -0.06383411376666037
000230 00 68 05 f3 52 35 77 bf 02 61 b2 59 b9 41 88 3f
       -0.005666088123996715 0.011844108629063491
000240 3b df 2b f9 5a 03 b0 3f 29 9e 5f 07 9b 7e ae bf
       0.0625511987999489 -0.05955967392929679
000250 8d ce 51 20 fd 0a ae bf 91 e7 49 41 da b8 aa bf
       -0.05867758769536833 -0.05219156310063434
000260 c1 8f 4c 11 73 ae 9c 3f 0d 0e 82 aa 0b 1d b9 3f
       0.028009221964694356 0.09809945023339868
000270 5f c3 30 e5 bc 3f a8 bf af d2 c5 90 94 d9 aa 3f
       -0.04736128137336126 0.05244125621076045
000280 a0 b1 89 77 cc 0a 9b 3f 6b 9d 00 bf 1a 2e 90 3f
       0.0264083812675594 0.01580087462221284
000290 49 ef f9 b0 82 51 67 bf 4b b9 b9 40 27 c5 40 3f
       -0.002846484428855965 0.0005117837585666777
0002a0 d6 95 69 43 9f 0e ca bf 3d 72 52 50 00 d3 cc 3f
       -0.20357123176215336 0.22518924638724683
0002b0 f1 79 34 de b3 19 98 bf 66 e4 61 cb 80 2b 8a bf
       -0.023535547673526783 -0.012778288084733979
0002c0 dd da 6f 41 aa b3 4e 3f e0 e5 54 62 98 4b 86 3f
       0.0009369450880275205 0.010886373997538834
0002d0 ab 15 58 72 db 30 84 3f eb 17 7a f6 56 18 a9 bf
       0.009858812739376463 -0.049013822162166175
0002e0 b5 82 aa 4d c0 61 a7 bf 6b 6e 35 95 17 c4 86 bf
       -0.0456676573569487 -0.011116203537930155
0002f0 ac a1 51 53 60 dd ac 3f 7a 31 e3 c7 44 fe 63 3f
       0.0563764669139489 0.0024405806899265277
000300 7f ca c8 ac ce c6 a6 3f 3f ec a8 1f 88 d9 aa 3f
       0.044485529510343895 0.052440885414818166
000310 76 fc 97 2d 00 16 8e 3f 36 2d ff 83 ed 5b 78 bf
       0.014690400496873073 -0.00594704417739971
000320 b0 c5 21 59 93 71 94 bf 52 c1 0f cf 78 f1 84 bf
       -0.019964506449871855 -0.010226196116463502
000330 8d 30 32 f4 c9 e2 c2 3f ee cc cd 50 80 17 c4 bf
       0.14754604743609825 -0.15696720071318943
000340 63 84 1f ef 0c e2 81 bf 0f 10 b2 d1 c0 a9 96 bf
       -0.00873193840738135 -0.022131932066727752
000350 52 c1 89 98 6f f8 92 3f 48 eb e3 62 7b ce 7a 3f
       0.018525832829653872 0.00654457280892979
000360 03 6e b8 91 aa 0a 83 3f 16 be 04 e8 78 52 bb bf
       0.009297688076052251 -0.10672717728152067
000370 df 3a a3 f0 a2 fb b6 bf db 26 89 78 77 13 b5 bf
       -0.08977716803495238 -0.08232828800933183
000380 22 43 51 38 36 80 c0 bf 03 ba 92 70 3c 5f bc bf
       -0.12891271352648298 -0.11082818745010319
000390 67 5e 96 9f ff 64 80 bf cc fe 1b 9c 9a 25 83 bf
       -0.008005139405937457 -0.009349067582206237
0003a0 f5 7c 69 68 a7 03 73 3f b1 1e c4 6c ef 94 7a 3f
       0.004642156540824551 0.006489691975964427
0003b0 59 4a c3 ad 10 42 a3 3f 4b a9 e3 cf 98 21 d1 3f
       0.03761341210487918 0.26767559339227337
0003c0 8a 2a 53 f9 09 c1 d2 bf b8 c7 db da 99 f0 cf 3f
       -0.29303216312533975 0.24953005968523967
0003d0 c5 9c 6f c8 a0 ac d4 bf 17 f6 8b 4f bd 49 d4 3f
       -0.32303638051821465 0.3170007016013598
0003e0 a3 cd d0 7f 96 12 9b 3f 38 cf e3 d7 52 17 88 bf
       0.02643809466480963 -0.01176323624938612
0003f0 76 6a f5 52 a8 60 70 3f e1 47 13 8d cf 36 b1 3f
       0.003998429790352467 0.06724259561750003
000400 ce f1 40 e4 11 7c 99 bf 9c 3d 87 dc d3 d5 3e 3f
       -0.024887351566791165 0.0004705087890472749
000410 d6 af f0 33 ca 5f 7e 3f 90 97 67 7d a7 30 98 3f
       0.007415571074528024 0.02362310126218109
000420 2c 12 d4 76 d5 0d 85 3f a3 40 ef 20 5d 1f 8d bf
       0.01028029221425538 -0.014219977920135135
000430 9d 16 83 a8 9b 6c 96 bf d0 72 dd f2 e8 68 8f bf
       -0.021898681793365616 -0.015336818610813735
000440 b9 42 f2 d3 02 9c a8 3f aa 73 c7 b5 f9 d0 97 bf
       0.04806526982532006 -0.023258115501323985
000450 70 87 47 0c bc c0 99 3f cc 5a 38 56 ec 8c 87 3f
       0.025149286508060198 0.011499258404950828
000460 b8 72 de bb a6 73 91 bf 96 4a de 7b 37 1b 9d 3f
       -0.01704273721371649 0.02842413610012303
000470 a3 f6 c7 3f 56 1c a7 3f 4e 0a b5 23 70 f0 99 3f
       0.045138068471698455 0.02533126085223563
000480 25 d6 ad c2 89 5f 87 bf e9 a7 80 da d2 d4 97 3f
       -0.011412693265564997 0.023272795282686252
000490 ea d8 f6 83 54 7d 85 bf 19 82 ce 9d 92 e7 95 bf
       -0.010492954518536785 -0.021391192323450967
0004a0 7c 0f 0b 55 39 7d 5b bf 22 17 e9 b7 02 36 b8 3f
       -0.001677804935909826 0.09457413663866679
0004b0 58 7e 57 41 de e2 92 3f 45 e2 87 73 11 07 ae 3f
       0.01844355844320797 0.05864767585075418
0004c0 b5 5f 90 1f 10 0a ab 3f fa b4 ec 6a 16 4b a0 bf
       0.05281114945699931 -0.03182287268860225
0004d0 0a 65 a0 1d 44 fb 6b 3f de 4f 71 53 63 d7 6e bf
       0.003415711439640594 -0.003764814373008448
0004e0 4a e7 06 cf 1a 6a 68 bf dc ab 22 8c 98 e5 64 3f
       -0.002980282173862846 0.002550886100910683
0004f0 d0 70 df 02 0b 98 88 bf 03 4c a9 2a a4 36 a1 bf
       -0.01200874903218399 -0.033620004851989925
000500 9d c7 02 82 e5 d6 a4 3f 1e 50 0c 98 42 54 a8 3f
       0.0407020302967702 0.04751785379463079
000510 79 e7 68 1f 39 7b 8a bf dd c2 95 a4 cf b2 9c 3f
       -0.012930341979074932 0.028025860233756517
000520 e4 4f bb 77 fb 47 6a bf e2 f4 c8 fe d2 24 96 3f
       -0.0032081519583275642 0.021624848175851315
000530 f0 34 97 37 37 13 71 3f 81 80 c6 d1 70 b2 8d 3f
       0.0041687161369285824 0.014500504876935107
000540 7e e5 89 c9 40 47 9a 3f 73 a7 f7 68 92 fe 84 bf
       0.02566243391126965 -0.010251182392454905
000550 ba 8d 13 22 bf 68 84 3f 67 7b 5e e3 77 cb 97 3f
       0.009965413310459737 0.0232371075177257
000560 e4 af 4f a3 66 7e 67 bf 7d 3b ed ba 12 73 50 bf
       -0.0028678898474847492 -0.0010039980804383557
000570 64 be da 9b 79 73 71 bf 07 ed 9d 20 3f f6 8e 3f
       -0.0042605161994938336 0.01511811559952615
000580 65 c2 8a 90 fa 09 82 bf e2 88 42 f7 67 2f 7c 3f
       -0.008808095489571241 0.0068811474958769565
000590 f6 62 f9 11 50 1e 53 3f b7 d9 f2 92 dc 80 6a 3f
       0.001166895097318652 0.0032352741323748674
0005a0 be 17 8a ea 6f f0 b0 bf 2b 96 e8 f2 14 e2 9f bf
       -0.0661687800985353 -0.031135871244393137
0005b0 fa 0e 86 22 bc a0 6f bf ef 44 71 fe e3 65 90 3f
       -0.003860824061293286 0.01601368179791945
