data/citylearn_challenge_2022_phase_1/models/params7.npy (npy, 1600 bytes, 1 tensors)

array f8 [184]
00000000: 7746 a47e f776 f03f 9725 3314 8e9b c73f
00000010: ea3f ee54 8976 cfbf 125a b188 50f3 bf3f
00000020: be2e 51dd b25a bf3f 5ce1 3253 20c9 c5bf
00000030: 1635 4928 1442 b9bf 72da 5a1e 5ce9 c2bf
00000040: 5dd0 935a 6299 53bf a057 5fad cd9f d2bf
00000050: 90ce 4f3b ac59 c73f a89a 87ea bd2d d73f
00000060: b092 1303 c550 de3f 8eaf a53f 875b de3f
00000070: e496 6361 9f25 e13f 111c 3629 7ccd e03f
00000080: 8b63 0364 1979 e13f 666b b06a ef9d d03f
00000090: 17aa 5e26 7f9f b83f 6b97 29f9 952b c23f
000000a0: 5d56 ee4a a8a7 c93f 5492 9eb5 a1cf b93f
000000b0: 2468 5b34 4a23 c5bf 93a3 bd4e 093b b33f
000000c0: 412e 7ff5 60e1 c63f 8671 0570 f14b babf
000000d0: 7010 fb60 553b b2bf 98f2 bf99 906a bbbf
000000e0: 4cd1 0d53 82bc c3bf 10b6 f068 5c6a b03f
000000f0: fdde 8a81 45a0 933f a299 f77c 09c6 c0bf
00000100: 4a24 7699 14fc a33f 2ae3 cf5d 9892 a5bf
00000110: 746d aed2 56db 83bf 6f0c 8a73 c728 80bf
00000120: c11e 9ba3 b4b3 9a3f d364 a36c b673 b6bf
00000130: 23cf 7a50 e118 b2bf e7f6 a44e 8837 a33f
00000140: c784 f3dc e592 b83f bae3 c140 09fb 98bf
00000150: db9a 23b9 313e c5bf 9057 6a2c 9d48 a63f
00000160: b091 ca74 0fa0 a33f feae b571 c0c8 9d3f
00000170: 4d2e 05be 558b a33f 43c4 c38b e415 82bf
00000180: 7817 5de0 50fe 6a3f 1f2f 488d 3b06 ae3f
00000190: 4f11 b838 4cfb a73f 2ef2 bbe1 ef26 973f
000001a0: ea5d 5df5 f688 84bf ea9c 834b dc68 903f
000001b0: 18a2 3661 3691 aabf 7d45 e12a c3df 603f
000001c0: e590 7e62 1fd4 8c3f a15d b07c cb81 92bf
000001d0: 81de 3b3b 8581 7d3f 39d0 33ca 5fcd a13f
000001e0: b0f5 ee4f 71fc bd3f 718a 8546 ab7f 9abf
000001f0: fe03 2d01 e0f8 6ebf e9dd cf62 2723 a03f
00000200: 37cf 7469 44cd b33f 0a85 f995 ef26 74bf
00000210: b201 e777 fabf a1bf 4b62 9b74 0174 b63f
00000220: 58dd 10ea 5181 7ebf d1ee b38b 19de 8a3f
00000230: 2c69 af92 30f9 873f 369d b69f 9c94 a03f
00000240: b52a 80a6 18e5 a6bf 8150 48fb 3782 b0bf
00000250: e4ac 78a1 dadb 82bf 288b f2da 3831 ab3f
00000260: d744 7e36 2f99 9c3f d1a3 0097 2c02 84bf
00000270: 65e4 87b2 f268 b23f d63f 19b1 fd5e a23f
00000280: be42 9b0e c7ae 81bf 59ad 7afb 9469 a0bf
00000290: e3f4 fbc1 efa5 a6bf 928f 786f 1612 af3f
000002a0: 421e 4c3b adfb b03f 6810 0213 33b8 c33f
000002b0: 8f2a 32e0 98b1 9d3f 66f1 d575 96d0 99bf
000002c0: f521 c2df a9cf 5abf 554b 4de6 610e 70bf
000002d0: 04a8 e8d2 375a 763f 3831 ed6c 8cdf 733f
000002e0: 2a83 8328 dfe3 aa3f fe91 0d77 3057 ab3f
000002f0: 4c84 54ab 6800 b2bf 3357 7522 29f3 aabf
00000300: 317c 93d6 6c4c c03f 12d3 01e2 198d 933f
00000310: 947d 3711 a033 9fbf 40ee 903a 5275 a7bf
00000320: 24d1 aa92 1199 aabf d8bf 2bc7 aba2 9bbf
00000330: b6ac 0eb4 1f15 c0bf db50 41d0 af3a b03f
00000340: eb14 d737 2aa5 8e3f a843 2301 0666 923f
00000350: 3c54 84dd 0c38 7ebf 26d2 4a6a b5d6 a2bf
00000360: bb87 ee35 ba78 7ebf f215 f941 4048 8cbf
00000370: a9bb e2ec 6fe8 94bf 2b62 1a47 3b56 94bf
00000380: ea38 d695 6a53 a33f 10af b28f d2c5 7a3f
00000390: 975a c7c8 51ac 97bf 5d17 cef6 3573 a73f
000003a0: 0469 e512 4755 953f 4b23 37ae 10ea 8a3f
000003b0: 7d0f 88aa 85b7 a8bf 370f 8c82 fc2d d53f
000003c0: bcf7 4a2a 0ed7 c8bf 568a 62b8 bd99 c5bf
000003d0: 2518 3409 edd5 d0bf 631d 2706 fd57 c6bf
000003e0: 6a61 37bc 15b4 773f ee58 11b2 c248 7ebf
000003f0: 74c4 83d4 bf6e 8c3f fa5f bafe 34b4 9cbf
00000400: ccc3 b168 743d 91bf 9125 7952 8417 873f
00000410: 00d1 8e0c b733 973f 3112 d325 ffc1 78bf
00000420: 6e7d 6341 2d7b 7f3f 55b6 5a41 c938 87bf
00000430: f6bf 57f7 d46d 973f 9393 2f31 8fb9 99bf
00000440: ada9 9d73 0d9f a03f e634 3973 1b24 7c3f
00000450: a985 58c3 95fd b23f 3c38 1727 951a 643f
00000460: 0260 f67a 9ed9 5c3f 5c8f dc4a 18a8 8bbf
00000470: cc5c f368 cc69 683f c2bf 812f 2f7f 50bf
00000480: 3e45 31d6 6185 45bf f9ff c136 46d7 7ebf
00000490: a643 7e8e 1aa0 943f 06b1 5ece b9d1 883f
000004a0: 7a95 6d5c 1aeb 713f 91e6 01a3 f0e3 77bf
000004b0: dc27 4743 b480 97bf 53f7 310a 87ed b53f
000004c0: 3f5b 87ab 6e65 62bf e88b 0b3c 5ac6 9f3f
000004d0: 31bf 4550 8625 73bf 6174 29a5 481a a13f
000004e0: 749d a501 6c7d 843f 4d08 d900 36b4 77bf
000004f0: 21b8 23d1 dd17 823f b3c1 8556 eb9a 8abf
00000500: 8e9d 3355 ee79 593f 9855 11df 5e0c 883f
00000510: 6aa1 a39e 33c5 68bf 903b a60a 5c77 733f
00000520: 5fc6 76e2 999a 903f f75a 476d 8406 b53f
00000530: 899a 0464 941e a83f aa6e cec7 2d8a 84bf
00000540: d64e 8eed de96 8f3f a7af 39df 1fc3 8f3f
00000550: 37db 6e27 71e9 873f 23bc 3e50 519e 80bf
00000560: 1365 f6d9 3384 6f3f 6271 544c dacb 953f
00000570: 4b5c 6294 0735 88bf 2aa9 4a1f 76f5 67bf
00000580: b08c 05d3 e865 a53f e2a1 4342 5435 a73f
00000590: 7aed 5a01 99ad 893f f681 f06e 2e9a a7bf
000005a0: 98ba 687d d2ff 84bf bf6e 8ee3 fa0a b2bf
000005b0: 36a2 e0ee ca44 92bf 76c5 0f65 0314 a3bf
1.0290446230832495 0.1844346617347525 -0.2458049454403402 0.12480643594003762 0.1224777021718024 -0.17020038664282822 -0.09866453155082797 -0.14774657709286348
-0.0011962376104835061 -0.29100362711812444 0.18242409607011156 0.3621668615655076 0.4736797838252569 0.4743364450030122 0.5358426000718421 0.5250836186322677
0.546032615030627 0.2596396009336587 0.09618372618448522 0.14195513406883306 0.20042899759998792 0.10082445797031286 -0.1651394611024567 0.07511957332975631
0.17875301348827757 -0.10272129998106125 -0.07121785752957677 -0.10709480050713649 -0.15419034057016245 0.06412293970125682 0.019166074782986254 -0.1310436115447376
0.03903259633359164 -0.042134057475726586 -0.009695699982151786 -0.007890279973486096 0.02607614754268073 -0.08770313408185197 -0.0706921407207202 0.03753305397047573
0.0959914841109991 -0.0243951268934983 -0.16596051731104108 0.04352275054149779 0.038330538756130905 0.02908611959484996 0.038172416158513835 -0.008830819621353686
0.0032950954072558623 0.058641301151594265 0.046839124606807496 0.02260947051307676 -0.010026864397942387 0.016025011166587534 -0.051889132849570696 0.002059823214076216
0.014076466744719027 -0.018073253140838855 0.007203598437392268 0.03477000563899008 0.11713321877956306 -0.025877643756198446 -0.0037807822313031805 0.0315182026023953
0.07735087942711237 -0.004919944650823691 -0.03466780389453862 0.08770760628557032 -0.007447547891437388 0.013118934226887731 0.011705760456540114 0.03238381814599693
-0.0447166159866205 -0.06448697933984883 -0.00920840077659197 0.05310990975092117 0.02792810220814065 -0.009769771917563038 0.07191387995398342 0.03588097369049563
-0.008634143002752889 -0.03205552644552751 -0.04423474543544061 0.060684872729580466 0.06634028146447071 0.1540588229000861 0.028997791942439618 -0.025209761564370402
-0.0016364249159171982 -0.003919966144922811 0.005457132398570156 0.004851864373290042 0.052519773192903976 0.05339957669528771 -0.07031873877396427 -0.052636418777792925
0.12733231046056084 0.01909294549882918 -0.030470372248485214 -0.04581696476858754 -0.051949071077077386 -0.02698772814886738 -0.12564464847432583 0.06339548906663899
0.014963464573961768 0.017967313594286743 -0.007377672438697632 -0.03679434702408839 -0.007439353356774643 -0.013809682858787451 -0.02041792758307862 -0.019860197272097018
0.03774579123556683 0.006536314492375586 -0.023118284110604206 0.04580086362606892 0.02083312084992263 0.013141756359702625 -0.048275162760574176 0.33093178509465154
-0.19406296792106825 -0.16875430586977086 -0.26305700205591825 -0.17456019211224846 0.005786976721957474 -0.007393608598326147 0.013883112595495663 -0.0280311851953172
-0.01683599366191739 0.011275323645480369 0.02265821470400997 -0.006044384642511378 0.007685829905511239 -0.011338779742199248 0.02287991294537047 -0.025121915223184365
0.03246347462011854 0.006870372034950755 0.07418190020736994 0.002454081834662806 0.0017608688029664425 -0.013504209313005049 0.002980136144838141 -0.0010068856045357543
-0.0006567695348939429 -0.007529520295179276 0.020141997286888057 0.012118770227822494 0.004374602291908553 -0.005832614886566071 -0.022951904875107107 0.08565563200860753
-0.002245632316980744 0.031030092158186223 -0.004674458181724892 0.03340365425240389 0.010004848289738112 -0.005787096929966107 0.008834584183627982 -0.01299079759402919
0.0015549495190557458 0.01174234503029474 -0.0030237205693205886 0.004752502000328188 0.016214756438506558 0.0821306959909228 0.04710830422327656 -0.01002918020258588
0.015424481987600751 0.015508889198109289 0.011675724044705056 -0.008114466916451296 0.0038472187731711876 0.021285448941044456 -0.011819895950152445 -0.0029246623110640484
0.04179313255260675 0.04532874401940369 0.012538142541748998 -0.046098185579697956 -0.010253567173177644 -0.07048004203391665 -0.01784054835312273 -0.03726206406271164
