data/citylearn_challenge_2022_phase_1/models/params1.npy (npy, 1600 bytes, 1 tensors)

array f8 [184]
000000 34 6e 43 f3 a3 6f a1 bf dc 7c 77 25 f2 ee 9d bf
       -0.03405487389110498 -0.02923181871107948
000010 1a ad d5 ac ff d4 a4 3f aa 3f 3a 95 2f 46 a1 3f
       0.04068755135343789 0.03373860069871111
000020 a5 ac 60 58 5c fa 91 3f 2f 23 c5 f0 ab a2 c4 3f
       0.017556612867491456 0.16121434456206304
000030 04 33 4e ca 38 0a b2 3f 46 2e 5b fe 46 fa c9 3f
       0.07046847285364427 0.20295035762534236
000040 39 6c 4c 40 3b 57 b2 3f 1b 07 c7 66 f2 8f b6 3f
       0.07164354629314652 0.08813395508971349
000050 b9 60 6e 3f cf 88 a0 3f 97 33 ae ff 8f 2a c8 bf
       0.03229377412134355 -0.18879890427015475
000060 1a 13 bd 65 46 6d c5 3f 45 49 25 b0 71 d8 95 bf
       0.1673973080416083 -0.021333481193616128
000070 90 60 2b b3 4c fe a2 bf f5 6e fa c2 ff ec aa 3f
       -0.03709640204550724 0.052589409400040234
000080 44 50 d5 ac 84 2d 60 bf b5 67 97 73 26 6e b1 bf
       -0.001974829798806284 -0.06808700868660263
000090 2e 66 a4 d6 c4 29 b1 bf 3f bb 65 5c a9 a6 c3 bf
       -0.06704359283721636 -0.1535236073645709
0000a0 96 25 cc 7a 4a 07 9f bf 18 7a 34 db 19 b0 2c bf
       -0.030301250214539964 -0.00021887126568116764
0000b0 dd 40 9a 65 38 5c c6 bf dc d9 33 08 6b e9 b5 3f
       -0.1746893402200901 0.08559292745835684
0000c0 eb c3 f9 75 65 f3 91 bf da 26 da 4b 09 51 c2 3f
       -0.017530045819913836 0.14309803203314325
0000d0 e9 ee 8a d9 19 06 c8 bf e6 77 88 36 e9 3e c0 3f
       -0.1876861870022062 0.12691989100215934
0000e0 40 56 1c d2 3d a4 b8 bf 11 4a 3f 5a dc c8 c0 3f
       -0.09625612620978874 0.13112978369333964
0000f0 53 23 a2 9c 50 b3 4c bf a9 ca 77 e1 a0 a1 b7 bf
       -0.0008758681881469811 -0.09231000427807125
000100 f6 a1 86 be 73 a5 9e bf d6 e4 f0 84 5e f6 a7 bf
       -0.029928024772432914 -0.04680152294936028
000110 ec 31 21 89 05 60 65 bf 35 9c 7d de a9 7a 51 bf
       -0.002609263240662898 -0.0010668429258318239
000120 89 ba fb c8 9c 85 af 3f f8 37 a9 6f 21 9f b6 bf
       0.061566257032486034 -0.08836564041231998
000130 f3 33 63 03 1c f2 ae bf 10 8c d8 4f 9d ef 69 3f
       -0.06044089833594759 0.003166014909554267
000140 55 fc 22 30 e6 2f b0 3f b3 67 76 ed 00 43 a8 3f
       0.06323088336192602 0.04738619707786942
000150 c3 43 77 02 c0 8f a8 bf 7e 79 53 33 f9 bb a8 3f
       -0.047971725750933135 0.04830912353075954
000160 5d 4a 4d 0e b1 9b a3 3f 29 fe 13 23 fc b5 91 3f
       0.03829720782836852 0.017295779839512946
000170 5a b0 23 33 d7 c5 88 bf dc f0 e8 99 f9 dc ad 3f
       -0.01209610104384511 0.05832653049262301
000180 bb 4e 30 fb 95 66 c7 3f 35 9a 3f 5c 27 94 bd 3f
       0.18281817212174709 0.11554189684066148
000190 55 4d e4 d2 7f 73 98 3f e2 3d ee e5 d8 d4 60 bf
       0.023878094908537168 -0.0020546184818568273
0001a0 ed cc 3e 00 f2 59 49 bf 30 b4 ed 99 c9 9b a2 3f
       -0.0007736617703727723 0.036344814338783116
0001b0 dd af 02 f0 32 30 a5 bf 65 58 bc 65 b1 e9 80 bf
       -0.041383353994518514 -0.008258233945110225
0001c0 31 22 a4 55 f6 73 72 bf a2 cf e0 bb ff a8 ab 3f
       -0.0045051214640428475 0.05402373474535628
0001d0 60 c3 35 b1 00 2b 7c bf c7 20 2d 56 9f e1 82 bf
       -0.006876948074350547 -0.009219403092757606
0001e0 f4 1f 35 64 f0 b6 c1 3f 93 2b a8 e3 57 36 af bf
       0.1383953561110044 -0.06096148160948824
0001f0 81 bf 82 12 c9 9a ae bf ba 97 0e f9 e8 b5 97 bf
       -0.059774669179545555 -0.023154869271500657
000200 e4 4b 4b 63 dd 73 31 3f 95 56 d6 70 02 54 65 bf
       0.0002663054940913996 -0.002603535430078472
000210 ff 3a b3 67 da 37 93 3f cb ca 94 ce ac 2f ad 3f
       0.018767750338890995 0.05700435659163857
000220 00 49 d2 1b b5 d7 90 3f e5 03 d8 1e 19 22 a0 3f
       0.016447858641705615 0.03151014806281419
000230 1f 94 cd 32 7d 65 63 3f d2 01 9c a9 1a fc 7f bf
       0.0023677296907629454 -0.007808784628423786
000240 09 d2 be 1a c1 3c 93 bf 7e 47 a7 7f 2c 5e a2 bf
       -0.018786446816834643 -0.035874739248938234
000250 7c fd 01 e9 0d 0d a9 3f 35 9a aa 72 2f 4e ad 3f
       0.0489277216847723 0.057237131831517386
000260 f3 9b 0d 52 2b 8c 7a 3f 7f 96 5d 42 d6 a2 93 bf
       0.00648133203581035 -0.019175861168511773
000270 9e 5a 1f 22 e9 19 ca bf a4 1a 29 02 7f 6b ac bf
       -0.20391573110710665 -0.055507630361309596
000280 fe c3 03 6d 65 ee 6e bf 4e 5d fd 5a e4 16 9a 3f
       -0.0037757855389988207 0.02547795110089384
000290 67 8e b3 b8 83 c6 a0 3f d6 f4 a0 b4 fc 12 9b 3f
       0.03276454572349224 0.02643961765737831
0002a0 a4 e4 b4 5f cc bc c7 bf e2 db 0c a5 11 cc cd 3f
       -0.18544916794943334 0.232790189352925
0002b0 3d 81 0c f8 d8 74 78 3f a5 fe ad e2 1e 89 45 3f
       0.005970809492993387 0.0006572151954599882
0002c0 10 37 bd 8f 1e aa 82 bf 64 c3 28 a6 b6 fd 9d 3f
       -0.009113539468355053 0.029288152591280606
0002d0 93 47 e2 97 18 49 9c bf 57 48 45 10 96 c9 8d bf
       -0.027622589369066097 -0.014544651385822656
0002e0 26 d4 10 c7 a2 f1 a1 3f 9f a4 12 b7 48 e3 93 3f
       0.03504666023255991 0.019421707319143718
0002f0 da a6 aa 2c c8 c9 54 3f c2 84 4f 92 25 0f 97 bf
       0.001268811686410512 -0.022518717818347474
000300 c0 9e 32 87 be f5 b0 3f 0a d4 d0 88 6b 65 a1 3f
       0.06624975968099545 0.03397689862359961
000310 cc 38 20 e8 59 8c 6d 3f e0 46 00 6d 0f 92 53 bf
       0.003606963729004686 -0.0011944914476810717
000320 ed c0 78 4b db c6 99 bf 73 ea 70 ba 07 a8 a0 3f
       -0.025172640305925965 0.03253196860210474
000330 ea 1f c4 03 42 5d c3 3f 90 d4 e7 6a e6 b9 c9 bf
       0.1512835043324679 -0.20098571987151503
000340 a5 77 1b 45 82 e7 83 bf 84 ab 6e d9 cf 3a 96 bf
       -0.009718911870944267 -0.021708724637999235
000350 52 c9 db 38 f7 47 8b 3f 2b fe 18 06 d3 34 a0 3f
       0.013320857451138455 0.031653017515506164
000360 9a 43 49 47 ec d3 7c bf 09 18 90 81 68 94 c9 bf
       -0.007038042986622717 -0.1998415596610246
000370 4b 9c e9 09 79 b2 c3 bf b1 d2 f2 49 99 bc 8d bf
       -0.1538840578461723 -0.014519879883985483
000380 9b 00 9d 6d 74 81 a8 bf 96 9f fc cb 4e 6a 89 bf
       -0.04786266172459471 -0.012409797287162221
000390 9e b5 6e 98 93 0f 9e bf f3 d5 e2 03 28 26 7c bf
       -0.029356294802416742 -0.006872326192185241
0003a0 26 28 81 35 39 19 60 bf ce b6 b2 69 ed ac 8f 3f
       -0.0019651524890251957 0.015466551578664858
0003b0 af 23 17 01 4a 94 a2 3f b9 68 17 5c 83 3b cd 3f
       0.03628760588941959 0.22837869640972544
0003c0 2c 15 c6 35 af 10 d2 bf 93 d3 e7 26 77 cc ce 3f
       -0.2822683358320599 0.24061478995977534
0003d0 7c 5c e8 dc 58 a8 d4 bf d6 67 cd 76 a8 14 d7 3f
       -0.3227750928212527 0.3606358680896141
0003e0 ab 40 67 ed 4f 7c 5b bf f8 a2 f8 86 3a 02 99 3f
       -0.0016775875607102735 0.024422564018240472
0003f0 c2 e5 66 32 32 ca 88 bf aa dd ec 69 df b4 95 bf
       -0.012104408419747584 -0.02119778713242019
000400 d7 11 57 fd ef cd 78 3f a3 d8 a6 6d ef ba 91 3f
       0.006055772265828505 0.01731466395150306
000410 5e 04 7a fd c7 a8 8c bf b5 cf 0d 6c 23 4b a9 3f
       -0.013993799612992127 0.049401385250262754
000420 5f 16 a9 cd a1 73 ae 3f b1 16 7e 8e 81 d1 9f bf
       0.059475952487031185 -0.031072639772466718
000430 34 e0 b7 c5 91 8a 82 bf 9c ab 97 ff 65 5b 95 bf
       -0.009053362699873536 -0.02085646984589183
000440 2c 27 bf 1a d3 00 7f 3f 36 a4 91 3b 61 e2 82 3f
       0.007569145800468562 0.00922084773101704
000450 db ea 06 b0 d1 60 aa 3f 54 83 e5 2b 3e 00 85 3f
       0.05151992105262134 0.010254369463554326
000460 c7 5f 19 40 5c a4 80 bf 86 5b 9f dd 98 d4 4f 3f
       -0.00812599249472602 0.0009713884749043978
000470 e8 32 83 ff 75 c2 a7 3f a4 0c e4 a4 f9 45 61 bf
       0.04640549415635126 -0.002108562074796776
000480 8b 4e 89 9e c8 ae 8b 3f ab bd a8 06 0c 96 8f bf
       0.013516967142243949 -0.015422910645695639
000490 6d 0d 35 51 f7 c9 84 bf 5d ac af 74 ac 6f 8d bf
       -0.010150844732044384 -0.014373156844120933
0004a0 22 f6 30 11 1a 2b a7 3f b0 40 23 9b 86 91 9e bf
       0.045250715826551394 -0.029852011889318575
0004b0 32 8e 01 c3 5f 3a b7 3f 28 d0 44 02 b1 14 ae 3f
       0.09073446761026885 0.058751613165810845
0004c0 ca f8 8f fb 0c 8b a3 3f 3b a9 74 f8 ea c0 a1 3f
       0.03817024775342899 0.03467497141748984
0004d0 ef a0 ec 76 82 8c 90 bf a2 f2 1a ad 22 17 96 3f
       -0.016161001690449813 0.02157262975264252
0004e0 1f de f3 2e 93 16 95 3f 6c c2 d4 16 4b 12 32 3f
       0.020593929043540734 0.00027574856979398796
0004f0 a0 df a9 bc 9f 54 6d 3f 5b 74 15 03 21 61 82 bf
       0.003580390917075918 -0.008974321276293098
000500 7b 6b 4c 2d e2 fd 99 3f a9 75 e7 f3 05 36 94 3f
       0.025382551207353537 0.019737332355239143
000510 2b 3f 24 90 6a ce 69 3f 91 91 7e e8 1d d4 5f 3f
       0.0031501847562437533 0.0019426624366839266
000520 94 19 64 c6 da 0e 68 bf 5a b9 b5 d7 f2 1f 76 bf
       -0.0029367707203419944 -0.005401562313052411
000530 df 46 33 70 2b 47 71 3f 94 d6 d0 fa 6a 9a 8e 3f
       0.004218263321676934 0.014942966250696167
000540 66 7d e8 dd 47 29 94 bf e0 2f 9b 80 8a 8b 7c bf
       -0.01968872348709052 -0.006969014191508166
000550 9a 5f 5d e2 02 28 82 3f 93 a1 aa 2a e5 04 6b 3f
       0.008865377934554709 0.003298232642311835
000560 d9 21 47 95 3f d7 86 3f d6 8a 7c 7f 65 b2 89 3f
       0.011152741187189829 0.012547295525626206
000570 3e a6 50 f0 4e c4 94 3f c2 e6 8c 7e 94 68 93 3f
       0.020280106942811786 0.018953628753684233
000580 b5 2d 64 d4 c7 c5 99 3f c8 12 61 27 66 a4 23 3f
       0.025168535555207778 0.000149857969235742
000590 ef ed 44 26 13 d2 39 3f e1 6a 4e 92 39 c6 9e bf
       0.00039399116055324664 -0.030053042940930367
0005a0 9f 10 25 66 12 81 a0 bf 7a 47 1e e9 9a 53 9e 3f
       -0.03223474022755223 0.029615803221140415
0005b0 c0 a8 a3 91 82 82 15 bf e6 6a 78 44 34 75 a0 bf
       -8.205339364378544e-05 -0.032144196851921866
