data/citylearn_challenge_2022_phase_1/models/params5.npy (npy, 1600 bytes, 1 tensors)

array f8 [184]
00000000: 5da1 5fe5 4714 a8bf 5112 9b60 8a95 abbf
00000010: 8688 4af7 ee04 af3f 2bdd 8322 157f a33f
00000020: c17b 6f80 c0a5 963f 0640 0d93 fe68 c43f
00000030: 8f0a 0342 7ae2 b03f 9dda 2fb8 d8f6 ca3f
00000040: 6c7f 3851 0540 b33f d9cc 3b45 aeb4 b73f
00000050: 1e74 b077 6d4b a03f 3df3 4e1b 4c06 c9bf
00000060: 6914 ce68 d85c c73f 8141 eb04 acf2 a3bf
00000070: 2677 05ce c711 95bf e935 4b5b 872d aa3f
00000080: 0657 f2fd 74fa 6dbf 764b 8d0f 3665 b3bf
00000090: cb1b 7bcf 52ba b0bf fe06 90c2 a002 c4bf
000000a0: b869 ac9d 8a0c 9bbf 6f8e 7763 4877 7f3f
000000b0: e993 dbee 0b0f c7bf f0e3 4c4e 9621 b73f
000000c0: f0ef 3380 7b14 90bf 9847 123c 026c c13f
000000d0: 29c7 e565 1baa c7bf adf8 ce3d c71b c03f
000000e0: 5d00 e6b5 cb32 b9bf 1e83 423d df60 c13f
000000f0: 1019 cc23 b6bc 7abf 452f 7014 9159 b8bf
00000100: 69fb 3d64 f804 a1bf 6355 192d 32d6 a7bf
00000110: 5046 efbb 04a6 23bf 5a41 e3e0 4733 613f
00000120: aa02 7bb5 c173 ac3f e64b 65fb 9a29 b5bf
00000130: a2d1 71fa bef2 aebf 18b4 b2ca 4037 6a3f
00000140: ba39 311f 0c9e b13f e6c1 09fc ed54 a33f
00000150: d5ea bd31 8141 a4bf ca27 652e 777a a83f
00000160: aa64 d1c8 bf08 a23f c4ce 8c23 de97 8b3f
00000170: f716 000a 6295 81bf b70e 5d64 2c80 ae3f
00000180: 0f50 3f9e 173d c73f 9ffa c064 89ec bc3f
00000190: ae4c 6822 a6a3 9d3f feab c985 deac 3fbf
000001a0: dc62 e45a ed5f 56bf 6b8a eed4 4b5c 9b3f
000001b0: dc91 f50d 6efd a3bf 471e 6d50 e544 87bf
000001c0: d81b 04c1 c292 79bf e0fd 7231 0647 ae3f
000001d0: 93b1 b489 94fc 82bf f19d 127e 0ae5 84bf
000001e0: 3b3d 55aa ccc3 c13f fdad d6d6 1748 b0bf
000001f0: 90a5 7f2a 2fa1 b0bf e39f e355 f7e5 95bf
00000200: 07cf 62d8 6b92 6c3f eb53 63bf cd72 793f
00000210: 92ce af12 893b 943f 99d8 9033 016c af3f
00000220: 4e0b ac89 25a7 913f 8cb1 749a f9f5 9d3f
00000230: ec32 75cf c0ab 4e3f 8667 c87c ffdc 81bf
00000240: 8537 4810 0611 94bf e718 4e11 f656 a5bf
00000250: 0590 eac8 3112 ab3f 34f6 170f 5661 ab3f
00000260: 18d6 eac0 2ed8 873f 171e 0273 0e7a 97bf
00000270: bcbc 42f0 b933 cabf 6469 39c5 015d adbf
00000280: a158 08e8 8c51 82bf 13ba 9d5f 0607 a03f
00000290: 46e8 ca09 5bcc a03f 7244 5457 6116 a13f
000002a0: 6382 1d65 fb68 c7bf 2efe 91dd 8b0c ce3f
000002b0: 38c9 0ad8 c632 5d3f ba45 6e92 26f7 6c3f
000002c0: a012 3153 0fe7 8cbf ec82 8d86 e0a7 9e3f
000002d0: 2160 58eb 1c15 9abf cc48 cf08 6a17 8ebf
000002e0: 1d54 21a4 d604 a13f e42f 5424 b55f 903f
000002f0: 4652 4671 09e5 773f 56a8 b5e2 39d7 97bf
00000300: 2404 fcee 8e4f b13f 7c64 b64d 7ec0 a13f
00000310: 300f 3f3a cc26 41bf c04b 1138 3e77 c33e
00000320: 7aba 3b92 58b6 9abf 3ab9 9c8d 2273 9e3f
00000330: 11c9 e489 584f c33f 4ecc 66af 5a2d cabf
00000340: ff11 ece9 8759 86bf cea3 31dc 681b 91bf
00000350: 2b86 b44b 3b52 773f 237d de42 6c3b a13f
00000360: ee92 7389 3967 68bf 9055 2d71 9ff9 c9bf
00000370: ca63 9090 9798 c2bf 5031 34d7 bff0 85bf
00000380: 3d80 9e05 6582 a9bf d50e a5d1 4c63 81bf
00000390: 1c96 a224 3d2c 9cbf 708b c101 d10a 7ebf
000003a0: 25da adab 6621 55bf be73 9bf8 7606 8f3f
000003b0: 1da1 05f1 cff8 a13f e950 c5e3 3cb0 cd3f
000003c0: 5c78 850d 685d d2bf 9346 d9cc 2325 cf3f
000003d0: d06a cc01 98e4 d4bf 1671 0e3e f0b0 d73f
000003e0: ca92 d08b 961e 84bf 27d3 e125 60a7 973f
000003f0: d69e f9a8 8e6f 88bf 4845 5d46 0384 90bf
00000400: 44be 29e8 e4d6 843f d17b ed6f 12bc 883f
00000410: 58b5 2927 ff18 8dbf 3f03 fa49 ff67 a63f
00000420: bd1b bb80 6534 ad3f 3bf9 ae6c 8531 a1bf
00000430: 491e c5c0 a439 78bf 5bcb 9f32 9a72 98bf
00000440: b3f6 8864 1885 8c3f 2640 36dd c492 903f
00000450: a7b3 5bca d1de ad3f d8bd 4365 cbf0 873f
00000460: 91e3 da85 d5a7 7cbf 702f 4f2a b27e 603f
00000470: 3b61 4af8 4aae a93f 8c13 bcfe 0c05 69bf
00000480: 4569 e637 4327 903f ee24 69cd fd6b 82bf
00000490: 9af4 6eb3 a477 87bf 3651 5301 f4dc 90bf
000004a0: 41fc 7bc8 1bda a73f c1d1 5f91 b40d a2bf
000004b0: aa7e 4628 1601 b73f a257 6a63 af28 b03f
000004c0: 7869 4eaf 5941 a43f d990 aea6 be2e 9f3f
000004d0: 0afe 520a a461 89bf 5474 2364 706e 993f
000004e0: f940 78eb babb 953f e686 65e8 ea3c 7abf
000004f0: f6b4 3afd 8d45 873f bbce b394 2800 82bf
00000500: b5e7 9096 32ab 993f 7bc5 459b 9bcb 933f
00000510: a807 e068 939a 553f b69c 453d 0753 53bf
00000520: e84b edec c263 35bf 00e1 2cb9 b486 673f
00000530: 5420 e175 cfbe 6cbf e163 9b5f 45ef 8c3f
00000540: d0ce a06f bdbf 90bf 219d 0120 aebd 71bf
00000550: 9e1e 0173 d2c4 783f aece e935 c83e 4dbf
00000560: 4ab8 ed1b fc6b 8c3f 5b20 7881 47ae 913f
00000570: 37e0 3b29 7127 863f 9b80 e8bc e227 903f
00000580: 0337 a279 29b8 953f 7e54 2a36 e431 7abf
00000590: 5a37 8c81 7bc2 5e3f 1f96 fde4 1d0e a1bf
000005a0: 845e 37cb 5a93 a0bf 0e7d 62f3 9daa 9f3f
000005b0: d0d8 233f e041 71bf eb59 cbfa de20 a2bf
-0.04702973055811086 -0.05387527875203502 0.06058451431933158 0.03807893797232461 0.022116668547706334 0.1594541757608569 0.06595577346437607 0.21065815919401568
0.07519562943389041 0.09260071935914328 0.031825466976649106 -0.1955046780912201 0.1825209151976737 -0.03896081504865646 -0.020575639676614042 0.05112860669542469
-0.0036594662665930837 -0.07576310996709687 -0.06534307065440641 -0.15633019924285202 -0.026415029405237184 0.007682116286989434 -0.18014668620085608 0.09035624896650041
-0.015703134250529105 0.13610866482900685 -0.18487875438182158 0.1258477260398129 -0.09843133154754598 0.1357687996978933 -0.0065276255452373505 -0.09511667965869915
-0.033241045223795514 -0.04655606079601673 -0.00014990623273418652 0.002099647891647444 0.05557065334642648 -0.08266609799947808 -0.06044575507340545 0.0032001748528132194
0.06881786119013258 0.03775733663212914 -0.03956226093483443 0.0478093380102816 0.03522300077811143 0.01347325845708925 -0.008585706644236064 0.059571635486034884
0.18155188776893325 0.11298426351366196 0.028944583749830492 -0.000483326269921036 -0.0013656442566284876 0.026719269629789027 -0.03904289169694028 -0.011361876980699693
-0.006243477590266409 0.059135621582296016 -0.009270821049164357 -0.010202486011919172 0.13878782574691137 -0.06360005374033757 -0.064959476352348 -0.021385063760050015
0.003487787852543781 0.006213000966643438 0.019758359685467193 0.061370885414747174 0.017239176299891405 0.029258632709728213 0.0009360019165939016 -0.008722301478929283
-0.01959619020822558 -0.04167908631556987 0.05287318780509057 0.05347699102638295 0.011642804396028203 -0.02292654587702544 -0.2047035620830452 -0.05735021145365485
-0.008944607573578902 0.03130359570683452 0.03280910963572174 0.033373872671412466 -0.1828912967421444 0.23475788420545157 0.0017821256480315528 0.0035358193740157836
-0.014112586714085495 0.02993727513546933 -0.02547116457398613 -0.014693096536494109 0.033240039382384824 0.01599009546502818 0.005833660969433446 -0.02328195997453294
0.06762021383839617 0.034671732889543144 -0.0005234238819799893 2.320503370381474e-06 -0.026086219716427973 0.029736080067942462 0.15085894330111008 -0.20450910152939844
-0.01091295416473148 -0.016706121863908234 0.0056936565627281705 0.03365648571274906 -0.0029789088981594302 -0.20293038393235152 -0.14528173979559106 -0.010713099246026175
-0.049822956977778145 -0.008490181110239284 -0.027512507782963977 -0.0073345341043900975 -0.0012897017138279257 0.015149049245730125 0.035101411983136745 0.23194085237140108
-0.2869510776562316 0.24332091810588405 -0.3264522569240116 0.37017446575352275 -0.009823967115218397 0.023099424659864056 -0.011931528598509027 -0.01612858883828963
0.010175503096632295 0.012077468910943441 -0.014207833655030797 0.04376218584093871 0.05704037853643438 -0.03358094169333233 -0.005914348188816706 -0.02387467321382118
0.0139257341080524 0.01618487930460346 0.05834060282891267 0.011689747836924377 -0.006995996545520537 0.0020135383406109583 0.05015787392511802 -0.003054166203471492
0.015774774824970157 -0.008995039778840721 -0.011458670354722412 -0.016467869358920605 0.04658591100996335 -0.035260813470731296 0.08986032946858794 0.06312080552228719
0.03956108345956272 0.030451754497008963 -0.01239326626307415 0.02483535395809995 0.021223946210796794 -0.006405751808729687 0.011363133707471534 -0.008789364851032535
0.02506712955457831 0.019331389762958544 0.0013185920283835615 -0.0011794634529794074 -0.0003263808147739287 0.002871849990153774 -0.003508954235289999 0.014128248195833084
-0.016356429994813848 -0.004331283737065734 0.006047079150512195 -0.0008924939719023495 0.013877839662850406 0.01726638534276535 0.010817417212351283 0.015777151851694354
0.021210334824494314 -0.0063952364459015625 0.0018774229158142392 -0.03331082744879787 -0.03237422686259797 0.030924289684318977 -0.004213214839401583 -0.035407035936873964
