data/citylearn_challenge_2022_phase_1/models/params24.npy (npy, 1600 bytes, 1 tensors)

array f8 [184]
0	0x3fd2af2cfaec8b15	0.2919418764524136
1	0x3fc22e750a2962e6	0.1420427608125216
2	0xbfbd27a41ea0509b	-0.1138861250659055
3	0xbfe73015a58de0f9	-0.724619696949076
4	0x3fcd50a27b4d8a4d	0.22902327557229044
5	0x3f8edea5e7ad8c38	0.015073104984997795
6	0xbf5d027bf0bf0203	-0.0017706117969141795
7	0x3f89c8d7e5c4f3f9	0.012590109538558979
8	0x3f634e443a99bf8b	0.00235665632208532
9	0x3fc545e406d233c6	0.16619539578496595
10	0x3fc091e34786a562	0.12945214264372412
11	0xbfcc4dcb7626eb63	-0.22112410802022983
12	0xbfd4ec14f73e8069	-0.32690929551063747
13	0xbfd4b47a6eb0c1d1	-0.32351551828017217
14	0xbfd7d5d7607026b1	-0.37242683809072746
15	0xbfd763bf5e6fc603	-0.36546310636831
16	0xbfd0e2e1b38d467a	-0.26384775671349525
17	0xbfb9d669ce6e4fa1	-0.10092793741051632
18	0x3f75fb898209a473	0.0053668376354859436
19	0x3fa39c71a93a47d4	0.03830294790999714
20	0xbfa187cad4d21715	-0.03423913810642724
21	0x3fc6de9d182beb03	0.17866862945796677
22	0x3fd2133a9318d27d	0.28242363324105907
23	0xbf8e7089aeb5016c	-0.014863086361061227
24	0xbfc767b4919ae464	-0.18285233602162798
25	0x3fc0a4cf20464753	0.13002957416443425
26	0x3fc2a3150ac7af69	0.1456018736492937
27	0x3fba03586122a563	0.10161354419201056
28	0x3fa54c602ec666b9	0.04159832545265147
29	0x3fa7d21ecb0e280d	0.04652496555998207
30	0x3fbba58d14a2011b	0.10799485925418077
31	0x3fb29914ac123e55	0.07264832688292107
32	0xbfa01c29e52f0cd7	-0.03146487162259753
33	0xbf726ed0efc46dd3	-0.004500213774260203
34	0x3f8d0f6b7772bc4f	0.014189567168015808
35	0x3fa4e058a5fc7225	0.04077412630269731
36	0xbf72d49215bb5918	-0.004597254413701422
37	0xbfa50d5495828059	-0.041117327929214915
38	0x3f83c537fd950eb4	0.009653508592811867
39	0x3fa0ad204dd3ca1d	0.03257084798851315
40	0xbf5362e906905e85	-0.0011832500115413213
41	0xbf90850636c0845d	-0.016132447330282285
42	0x3fbe8b438bb2c86c	0.11931249771694902
43	0xbfac1c2c951aa5de	-0.05490245170706108
44	0xbfb2d6003d690a99	-0.07357789515757886
45	0xbfa323fd79eb70cb	-0.037383957989477766
46	0xbf9024c05efe3862	-0.015765195653834836
47	0xbf8c7b1215df070e	-0.01390661362882242
48	0xbfbeff7687994c57	-0.12108555613058179
49	0x3fca6ffb6e3da320	0.20654242403841128
50	0x3f8863933add8236	0.011908674463200968
51	0xbf54e684e9fe84cd	-0.0012756631840391997
52	0xbf970e538a348210	-0.022515588102693995
53	0x3f8c923cbed9acf6	0.013950800489701081
54	0xbf8db496739b11b1	-0.014504599955565608
55	0x3f6b80b368994174	0.0033572677682870925
56	0xbf953ba3caded480	-0.02073532033655967
57	0x3f6f331263bc2c57	0.0038085326358490534
58	0x3fa3f14dd45c84d9	0.03895037858297607
59	0x3f803e76eabd248b	0.00793164161554418
60	0x3fab23bf91435634	0.053007112963012665
61	0x3fa00a7ae1843ad1	0.03132995608222234
62	0x3f7061ca338864cc	0.003999509667232459
63	0xbf927b4917faa25f	-0.01804842194420286
64	0xbfaa3c1e70184185	-0.051239920791093
65	0xbfb6f7771ae3aa34	-0.08971352011182249
66	0x3fa509c5699c8477	0.04109017290307631
67	0xbfa44ddb7a9f5f4f	-0.03965650436265255
68	0x3face15b6f7238a9	0.0564068387549111
69	0x3f94b3d14c462de5	0.02021719959297554
70	0xbf74397f31d13974	-0.004937645772839939
71	0xbf88bb6ff5f4161b	-0.012076258366970063
72	0xbf99b87353a80c22	-0.025117685299857702
73	0x3f889bbda197adda	0.012015801900779378
74	0x3faf41a9c29e0733	0.061047844893450075
75	0x3fb3896a1f86eaa8	0.0763155295343646
76	0xbfa36a04dc880e53	-0.03791823570284394
77	0xbf9fde65fde1c52b	-0.031121820088121737
78	0xbfc2084eb977b18e	-0.14087852531464445
79	0xbf919d509a0a6fd4	-0.017201671029951474
80	0x3f80bb617ae9d323	0.008169900477903952
81	0x3f89c88abccb426e	0.01258953465131293
82	0x3f747f0cca10e7d6	0.005003976782115024
83	0x3fc129e673b8daa1	0.13409119272701722
84	0x3f8437107b712c01	0.009870651976731539
85	0xbfb591f746c34638	-0.08425851323706801
86	0xbfa30fa5e63fdfdd	-0.037228760105733484
87	0xbfa4207d8fea15c9	-0.03931038266913906
88	0xbf6af1ae0a4d71e2	-0.0032890700553436106
89	0x3fa642fb78969904	0.043479784460304344
90	0x3f9a8ffb60f81d04	0.02593987254479392
91	0xbfc4d82126b62544	-0.16284574880800495
92	0xbfb368c8c1af7242	-0.0758176300873368
93	0xbf3c5664fa13c97a	-0.00043239560370902203
94	0x3fb0e39ff1112455	0.0659732783834824
95	0x3fa201d801d14525	0.035170316907747336
96	0xbfbfe7cbfbbb710c	-0.1246306886272956
97	0x3f7dbbdc4dae1a1a	0.0072592359164276535
98	0x3f8d5873ee5eefbb	0.01432886668396082
99	0x3f905dd4cb974e3c	0.015982937742434297
100	0x3fa2b83a0fb32cff	0.03656178895615802
101	0x3f911b8e8edc122e	0.016706683606587606
102	0x3f9bae5c230991ce	0.02703231777049258
103	0x3fa9dfaed61f2870	0.05053469051161208
104	0x3fb40972469d4782	0.07826914047225667
105	0x3fa4051570274810	0.03910128587780559
106	0xbf81696276f62fca	-0.00850178647558399
107	0x3f544e9c99ceeb77	0.0012394456200428264
108	0xbfaf36040c235cf6	-0.0609589829270422
109	0x3faf953615e12d3b	0.06168526665768544
110	0x3fb15974102cb7bd	0.06777120013131728
111	0x3f8688a4cb821b80	0.01100281473214948
112	0xbfb2ccee964b6d20	-0.07343951386740288
113	0xbf708171959e6a80	-0.004029697121860409
114	0x3fbaaff1378660b0	0.10424716573322956
115	0x3f735bc33e6dc021	0.004726183577858507
116	0xbf826133f0f347f6	-0.008974462309570424
117	0x3f74de32e131cf7a	0.0050947177397694336
118	0x3fae0d5b2d46a2c7	0.05869564941105448
119	0xbfcf28421b15eccc	-0.24341608355084643
120	0xbfd03405713bd189	-0.25317512567496486
121	0x3fcd7d2d5fc96879	0.23038260628783627
122	0x3fd53d11ff7cb8f9	0.33185243558808925
123	0xbfcaad1d32835bba	-0.2084080216070257
124	0x3f94eed0b4da591f	0.02044225791777265
125	0xbf9bf7f5dfd9cf02	-0.0273130815389342
126	0xbf708cc4a9a50d3b	-0.004040497029851149
127	0xbf6d23ded3b927e3	-0.00355714341074974
128	0x3fb5196d8b6b677c	0.08241924909398607
129	0xbf7b3af07e39b3b8	-0.006648005891844493
130	0x3f956cf4b4269fea	0.020923446174179995
131	0xbf75e2ed38c7ddc9	-0.005343367240576887
132	0xbf9820c14f518c38	-0.023562450853557432
133	0x3f7a50320f4a0a07	0.006424136682314791
134	0xbf8b0c6246d1bf3d	-0.013207214151605856
135	0xbf72d8f0c6455b6b	-0.004601421857237091
136	0x3f910a65bd46f472	0.01664122550731801
137	0x3f9722bd3ec7c9cd	0.02259345718079846
138	0xbf7acc8378ef7f11	-0.006542695583419592
139	0xbfa1b7dfd16ed659	-0.034605974498316434
140	0xbf7d111b185f21a1	-0.007096391525870522
141	0x3f90575acc36a474	0.01595823165340389
142	0xbf4724b6a7ed6dfa	-0.0007062808871113873
143	0x3f88970f411a3254	0.012006873296990829
144	0x3f7f4cf00a775176	0.007641732845020113
145	0xbf702070aa0f68bf	-0.003937187285339926
146	0xbf63a9583c0a3388	-0.0024000857668568555
147	0x3f82f4c2207362c2	0.009255901923482471
148	0x3f84b27aaf47271d	0.010106047128732915
149	0x3faf131d79e25c39	0.060692711952633656
150	0xbfa4bde579134626	-0.04051129439325178
151	0x3f952c2bc3007019	0.020676311280212276
152	0xbf77f551f7ae9343	-0.005849189935280222
153	0x3f92378572b0b118	0.01778992187989656
154	0x3f927322a7bf441e	0.01801733158919571
155	0xbf9680f8d489875a	-0.021976364109270598
156	0xbf9341fdeb650e26	-0.01880642651782529
157	0xbf93562ce04e27be	-0.01888342017222277
158	0x3f887b82e1ee6a78	0.01195432903278014
159	0xbf6461d67a876067	-0.002488058951922101
160	0xbf985585770a71ea	-0.023763738051103468
161	0x3f7699284fbd12ac	0.00551715609237095
162	0xbf9d5cb100b5717f	-0.02867390219522425
163	0x3f97357470f56a82	0.022664851564835782
164	0x3f8c9ec873c75473	0.013974729569705446
165	0xbf72af913a47ec84	-0.004561965270563854
166	0xbf8761b52293e998	-0.011416831128816793
167	0xbf9179b118b7b437	-0.017065779813425243
168	0x3f691511e94f384f	0.003061804755339493
169	0x3f862dc61a391e0c	0.010829494166627839
170	0x3faef07a709cb1b2	0.06042845368060358
171	0x3fa834b5dd6e4b13	0.047277148513918864
172	0x3f57ebd299c6c213	0.0014600330970148164
173	0x3f6e27113a904c41	0.0036807381152441925
174	0xbf86d12746beadda	-0.01114111599584693
175	0x3f97b4aa51ab7585	0.023150120959021265
176	0x3f872baff62fa924	0.011313795757776086
177	0x3f97d554eb2f66f0	0.023274733404696712
178	0x3f6838fc046e7a8e	0.002956859799680806
179	0x3faa95f8045c5eb7	0.05192542126877469
180	0x3f916975943b7dc3	0.017003857777010866
181	0x3f83305cbf25671c	0.009369587500873737
182	0xbfb17391bef65a71	-0.06816969787755923
183	0xbfa0db3aa458e930	-0.03292258506958701
