data/citylearn_challenge_2022_phase_1/models/params26.npy (npy, 1600 bytes, 1 tensors)

array f8 [184]
0	0x3fd44ff54054fd39	0.3173802498094634
1	0x3fc35b2285f16177	0.15121871509723991
2	0xbfc188ad6217e180	-0.13698355951033747
3	0xbfe87395b3de4659	-0.764109469704816
4	0x3fcda6225cd1e614	0.23163251430723675
5	0xbf64d262171dbac3	-0.0025417247606392703
6	0xbf87688f46a42367	-0.011429900496766355
7	0x3f7decdfe7889d70	0.007305979372666513
8	0xbf768ba4657185b0	-0.0055042669037858455
9	0x3fc4582d06ed7483	0.15894091451892586
10	0x3fbd824ca1a1140b	0.11526946016336141
11	0xbfcde8de832b12cd	-0.23366910366725904
12	0xbfd592568504cbd5	-0.3370567606936537
13	0xbfd5323e06971b52	-0.3311915459020628
14	0xbfd851046e8f53c9	-0.37994490429747124
15	0xbfd7ad62f1f83f5c	-0.36995767240386157
16	0xbfd25221b5775c27	-0.2862629196292254
17	0xbfbedb6289e50fbe	-0.12053504816600388
18	0xbf81466ad6840fb2	-0.0084350916590735
19	0x3fab6d9538070389	0.05357042607238955
20	0xbfa9cc7e960bf4eb	-0.050388294044731406
21	0x3fc7cdb9ac7a8dd2	0.1859657375508577
22	0x3fd2ef27f6417a52	0.2958469300118952
23	0xbf91892c03ec213d	-0.017124831904795846
24	0xbfc6c82d970a7786	-0.17798395037692333
25	0x3fc32fd6fc9feaa7	0.1498974545973699
26	0x3fc3b3705c55a133	0.1539135409214026
27	0x3fba832cd61c89bc	0.10356407382327054
28	0x3f9bb0164966e85f	0.027038906316854013
29	0x3fa76973765cce4f	0.045726402472067045
30	0x3fbc42c381e74505	0.11039373322934772
31	0x3fb2c507a0e6f132	0.07331893614076959
32	0xbf98edf098a6e080	-0.024345168416147533
33	0xbf66336b37960416	-0.002710065277540706
34	0x3f91454f119ae1ea	0.016865954827808873
35	0x3fa1453538cfdf20	0.03373113935952987
36	0xbf765142ab090579	-0.005448589727678915
37	0xbfa59e08e81bce1f	-0.04222133477551559
38	0x3f849b38598e05de	0.010061683876986412
39	0x3f9c5ebf9913d11e	0.027705186575034728
40	0xbf7c3ee18676378c	-0.006895905454610839
41	0xbf859849977787da	-0.010544371542838538
42	0x3fbea6f9d7f23b6f	0.11973535081982133
43	0xbfac4d9362dadefa	-0.05527935582852979
44	0xbfb25054e578c599	-0.0715382633432199
45	0xbfa305e33276feef	-0.03715429297471739
46	0xbf918c79216e5658	-0.01713742510363256
47	0xbf9029926fbc1f45	-0.015783584661249312
48	0xbfc04a59e97e5c21	-0.12726901913694724
49	0x3fca7d6c8e9e5b02	0.20695263828084626
50	0x3f812f6a6f9ac5d3	0.008391219645406267
51	0x3f8317c24b562384	0.009322660373770615
52	0xbf970e2fdf823e67	-0.022515056626217247
53	0x3f8e419f0e962764	0.014773600227971868
54	0xbf93be4e2c385041	-0.019280644844983156
55	0x3f405bd765b0ae98	0.0004992295974992232
56	0xbf974bed23e2c8e1	-0.022750573458957816
57	0x3f7b6163b60abf71	0.006684674736490468
58	0x3fa697926855e4b5	0.044125151859540614
59	0x3f75950b948d143c	0.005269093738040683
60	0x3fab7bdeb10f3761	0.053679427255345365
61	0x3f9912131d68c11f	0.024483011884684488
62	0x3f682f55c262708c	0.0029522585856068314
63	0xbf8b5384a87c8de1	-0.013342892066765923
64	0xbfaa5271b289869e	-0.05141024879845911
65	0xbfb72144f53e7dba	-0.09035140025525026
66	0x3fa2901db852f722	0.03625576853799674
67	0xbfa5fee8a02d5015	-0.04296042399678882
68	0x3fadc92a51f66025	0.058175394540001236
69	0x3f92eaaf43ad5891	0.018473375802692763
70	0xbf7874c0f60aff17	-0.005970720056836651
71	0xbf800f8df29d614c	-0.007842167822375366
72	0xbf9c85a1c4b51efe	-0.027853515273164035
73	0x3f7603d60fdc38c0	0.005374752215869971
74	0x3fb153ddc68106ab	0.06768594833649881
75	0x3fb1dcfef4fd0981	0.06977838021433592
76	0xbfa07fbaeaf7ccba	-0.03222450369130443
77	0xbf9df3dcd6be04b0	-0.02925057469065412
78	0xbfc3ce9e125e9f9d	-0.15474296471552132
79	0xbf912b20759871ae	-0.01676607816453817
80	0x3f8c3445159ef475	0.013771571848218958
81	0x3f8be8e5bd44f858	0.013627810324234144
82	0x3f7336efb781991c	0.004691063302834555
83	0x3fc2095fe2c907e5	0.14091108869075622
84	0x3f8b2a96c940db06	0.013264825836910809
85	0xbfb46e57bb24ede0	-0.07980869597388773
86	0xbfa30385bb773dea	-0.03713624871636141
87	0xbfa29a47f8f664d2	-0.03633332170574878
88	0xbf7b5092f457cfbc	-0.006668638268354895
89	0x3fa660c07d64d359	0.04370690851866383
90	0x3f9b4dd8351005f3	0.026664140928920287
91	0xbfc3723ec2bbd1dd	-0.15192398556213407
92	0xbfb22307478c020d	-0.07084699150801317
93	0x3f6388898d47378c	0.0023844420013352016
94	0x3fb19ccba5a130b3	0.06879875940029727
95	0x3fa08b72fa7be1f2	0.03231391246476169
96	0xbfbe550f3f384e5c	-0.11848540585952477
97	0x3f7fdee58568534e	0.007780930106055474
98	0x3f8e3d822059ea3b	0.014765755283623885
99	0x3f8a2c46123dd0aa	0.012779757911382045
100	0x3fa6c284bbfe5619	0.044452808330941625
101	0x3f925e2e97291182	0.017937400795078336
102	0x3fa6317533817389	0.04334608319979966
103	0x3fa5c2c2e2cac2bb	0.04250153559167332
104	0x3fb407b77aa69497	0.07824274773027394
105	0x3f9b173e09e190be	0.026455849984259976
106	0xbf9009ee094c012c	-0.01566287929290515
107	0x3f383731c1847560	0.0003695007776672501
108	0xbfaa443e00c550d5	-0.05130189666184185
109	0x3fb1e4894d568f89	0.06989343774927027
110	0x3fb1fab920011259	0.07023198157646372
111	0xbf76af0a6c3abaf1	-0.005538025583219351
112	0xbfb166beb3fcb1cc	-0.06797401327339186
113	0x3f6a111854b27616	0.0031819796764256487
114	0x3fba4e80306128bd	0.10276032620564286
115	0x3f88d0500e9f37d2	0.012116074987627377
116	0xbf82c74b5dd7bd27	-0.00916918640265736
117	0x3f7da65ebb80ab16	0.007238740967333587
118	0x3faf5802d3f2acb5	0.06121834599738333
119	0xbfced4885c979143	-0.24086098214241689
120	0xbfd030d6f70902fc	-0.2529809391453879
121	0x3fce203514fc6843	0.2353578903646981
122	0x3fd45e7bf1a9458d	0.31826685523727677
123	0xbfcac6facb5e10dd	-0.20919737749148384
124	0x3f880b370410e688	0.011740140735230456
125	0xbfa003859dd7ba2e	-0.03127687026777824
126	0xbf77a55595bb5038	-0.005772909465765301
127	0xbf9a2d6a93d6611e	-0.02556387450531005
128	0x3fb74d54622cf565	0.0910237064062663
129	0xbf9004fab0ab1b00	-0.015643994362814162
130	0x3f96db3c60ec7c30	0.02232069341254944
131	0xbf82d61935f2e1ba	-0.00919742294205227
132	0xbf950ca6967ce029	-0.020556071219488246
133	0x3f81552bd22c104e	0.008463232375568588
134	0xbf8778b52563dd55	-0.011460700229220558
135	0xbf7264bac622d02e	-0.0044905944688942556
136	0x3f9325b74ba8b3b4	0.018698562615259554
137	0x3fa4d7c5c7c28e3a	0.0407087141368518
138	0xbf7391ba4d01f8a6	-0.004777648675483947
139	0xbf95c7956d2ea0e5	-0.02126916388411439
140	0xbf911cab21f1b828	-0.016710924097815077
141	0x3f954f1c8935f895	0.020809598803218938
142	0x3f60d2162b2b1916	0.0020533020955070353
143	0x3f90b9edd88d9dae	0.01633426317439806
144	0x3f71e78f534c22db	0.004371223320739327
145	0xbf68d015f9ee1cb2	-0.0030289105629353824
146	0xbf619b2667b6df2c	-0.0021491766071583176
147	0x3f886f272333d2b5	0.011930757295411135
148	0x3f8cb03f31cdf866	0.014008039195456411
149	0x3fb1ae0bcf1184ff	0.06906198315984467
150	0xbfa455be9d5cd06e	-0.03971667929582244
151	0x3f9fb7b54c905dcf	0.03097422866639282
152	0xbf936fd6876613e5	-0.018981315626223867
153	0x3f9487f08d61e383	0.020049818639083405
154	0x3f82d1d0d49ca902	0.00918925427284423
155	0xbf92518b92b0a84c	-0.017889195278407308
156	0xbf95354d039fcc8e	-0.02071113905544713
157	0xbf8c60d8424225ff	-0.01385659172253195
158	0x3f8d5fc9518b7aa7	0.014342854310084375
159	0xbf388d6b05e2c156	-0.0003746401106452709
160	0xbf96ad3320b5c1ec	-0.022145079490146033
161	0x3f848d0c8a03e16a	0.010034654580963493
162	0xbfa21f43c46c2262	-0.035394780852645594
163	0x3f99471beb6baae1	0.024685322040492678
164	0x3f7895ac6968c814	0.0060021147569831075
165	0x3f5d60d1b54eae81	0.0017931030208541423
166	0xbf9215b897b7eac7	-0.017660984287412498
167	0xbf8cc4989e0754bc	-0.014046852419520632
168	0x3f3b4546ae565b08	0.0004161164818809325
169	0x3f9a9711e73a1195	0.02596691106602263
170	0x3fadb44438638a69	0.05801594913807124
171	0x3fad28f5d1930e8b	0.05695312674791094
172	0x3f85f63be08ede52	0.010723560133427377
173	0x3f615f12d4455ca3	0.00212052991461638
174	0xbf8a977ca3291eea	-0.01298425076414796
175	0x3f83a02b4d778f58	0.009582842160803004
176	0x3f8cac47078b3a89	0.01400046817562141
177	0x3f92e06352621474	0.018434097197787172
178	0x3f75868ed99a77b9	0.005255277641166894
179	0x3faa102d39f0816f	0.050904668162050075
180	0x3f990d1a9c32f71c	0.02446405008662743
181	0x3f907d640996bc8d	0.016103327832464976
182	0xbfb498f3bcc5c803	-0.08045886381822247
183	0xbfa08724e1c6473f	-0.03228106742893865
