data/citylearn_challenge_2022_phase_1/models/params23.npy (npy, 1600 bytes, 1 tensors)

array f8 [184]
-0.11539247941913497 0.03523436658772061 0.03230267944161882 -0.31528845312170545 -0.1989243221412214 0.020739344671635115 0.015355675624954525 -0.04479074177967728
0.07566339982526686 -0.23601868617405733 -0.196737184808233 0.15552958039129972 -0.15089387588423686 0.10187426461511476 -0.13013481149797057 -0.07812374341316732
0.019181763764351427 -0.008442915103312368 -0.034281181798247094 -0.14153139422851052 -0.19024892116182895 -0.19608848239406113 0.12438922028622224 0.0031097876224458424
0.11729115688766266 -0.08512440959524536 -0.06679061918611177 -0.15224882317004235 -0.12137057933260233 -0.010757993104057157 -0.017344780785672895 -0.1095715664345408
0.014485873867232723 0.0025043385172931467 0.015665473715512045 -0.0004998513697159505 -0.012387640441368315 -0.07646462057927463 -0.04364181878445363 0.03940394878620394
0.0407859632174608 0.06483499003242083 -0.21883553747398382 -0.0004109570299285042 0.006753344095224414 0.03919198751698603 0.019647899097666326 0.034038970244471216
0.13343741432436676 0.12710597367582047 0.08068311583334434 -0.006631082913138198 -0.012748225762418738 -0.006822070680133378 -0.04654893004198424 0.023586449798015784
0.07192091955686471 0.042217445962097894 -0.10878900645537015 -0.02275052113100373 0.16557789081691593 -0.019489038349193348 -0.05090170570924581 -0.03415244977718685
-0.020012192786578367 0.14288269886121183 -0.02812553452854647 -0.08653822661607337 -0.03807619112491428 -0.052269670714763454 -0.004220038469914568 0.009634791415484354
0.062131622691412675 -0.0610988931896501 -0.05316231954591699 -0.06121730557137302 0.03612895748088045 0.10409018313971613 -0.05259095251474522 0.0518515041585099
0.024268136564388778 0.018838187666339906 -0.003757970976406322 -0.001956237333377575 -0.20293155671428115 0.22162086234911585 -0.016677504017505937 -0.011081569367219015
0.005344836809076694 0.009537162040546776 0.0002149715364074901 -0.049235670189489926 -0.0497918540252262 -0.008613273233521467 0.06029241889317371 0.004532296157231563
0.05252811024968722 0.04359516324083645 0.008243361623313584 -0.004193895026596598 -0.01541014326815121 -0.010624166827468699 0.15483736546704638 -0.1607032256266948
-0.005425591773295472 -0.020397391765501188 0.011658176391143837 0.004945107396598433 0.010107381494429949 -0.094354631889862 -0.09187146719859554 -0.08279840179600734
-0.14268266636274657 -0.1079053433952541 0.00166480406686671 -0.013347553091521061 0.0006021170597214401 0.0049405844510781085 0.040779363717422405 0.2616774029432762
-0.2910709697431214 0.24612345989183845 -0.32263662502560636 0.31737943913025185 0.033842323643304466 -0.009772654037376746 0.00037659212117852525 0.05882325574503888
-0.018820535253566455 0.011015928153773794 -0.0006118406519555592 0.013018078658236587 0.0059067430366617855 -0.020893304106950977 -0.011028739115202456 -0.012436777030730038
0.04993298965166472 -0.029773402858358156 0.03342250864946292 0.017808935349873302 -0.016083311925595197 0.03172287287647427 0.03934871843801322 0.025204405878532708
-0.002928955401566436 0.02997414881149815 -0.010320417955576625 -0.021300135340045084 0.002485183599135237 0.09269287531276436 0.023690384107389075 0.053464461802826074
0.04352378324997833 -0.031878579705797314 -0.0015894941536832908 0.008952816221554841 -0.006255957251097392 0.004442326050665155 -0.018558024189994766 -0.023726102343695942
0.03882019278855307 0.040433286001743084 -0.013070297353410401 0.028101447626674186 0.002457802839244451 0.018279651146731742 0.010474834920158483 0.007336384252532769
0.020736385599077655 -0.010074211570998321 0.010223847740697999 0.01835738162267886 -0.005258918848158756 -0.008317948747559941 -0.008121966964444907 0.01283740293938546
-0.014860630545537403 -0.0003184941327831652 0.0009532778776764048 0.0019700527427180562 -0.07082851349493306 -0.0364244852823233 0.0003637203746134671 0.021807869038329344
00000000: de3d 4f8d 5c8a bdbf c00a 6128 3d0a a23f
00000010: e3c2 8c0f fa89 a03f b3b4 bd9e af2d d4bf
00000020: aadd fc28 5a76 c9bf 0cab 6bdc b13c 953f
00000030: b4f3 efe4 cb72 8f3f 57ef 36e6 cfee a6bf
00000040: 0bf2 c033 ad5e b33f 3565 2e3d dc35 cebf
00000050: b448 541f af2e c9bf 98ad abae 64e8 c33f
00000060: 1874 0b93 7d50 c3bf a272 d38a 6e14 ba3f
00000070: 703a baeb 41a8 c0bf 892a 00eb eaff b3bf
00000080: 7ea0 3060 62a4 933f 2857 03e2 844a 81bf
00000090: bb26 6295 4d8d a1bf 56cc c862 b31d c2bf
000000a0: 9ea2 3e9f 135a c8bf 1e9c 8069 6d19 c9bf
000000b0: 10b1 1ad1 f8d7 bf3f f460 5984 b279 693f
000000c0: bf48 f112 cb06 be3f 088a 4d9b b6ca b5bf
000000d0: 1b7d 15a5 3019 b1bf 3a56 2fb2 e37c c3bf
000000e0: 111b ee6c 2412 bfbf 178f 6b64 4908 86bf
000000f0: d94a ec88 d4c2 91bf 7868 68d6 e10c bcbf
00000100: a626 1c14 c5aa 8d3f fed5 f480 fa83 643f
00000110: 964c 2325 9c0a 903f 18cb 94a4 0e61 40bf
00000120: 04f1 8ff4 b05e 89bf 7964 b074 2f93 b3bf
00000130: 8399 d570 3858 a6bf 4671 bd1e c12c a43f
00000140: e748 4fd4 e5e1 a43f 4463 d3a1 0699 b03f
00000150: bea0 538a cd02 ccbf c234 ec00 b7ee 3abf
00000160: 6925 7100 65a9 7b3f ed27 4de1 f810 a43f
00000170: cb03 3d30 941e 943f 7fa2 fa4f 8e6d a13f
00000180: a500 4b29 7a14 c13f 692d 0830 0245 c03f
00000190: c2f5 d70f a6a7 b43f 0de0 fbc3 3129 7bbf
000001a0: fe57 dae5 bd1b 8abf de0f 65a7 75f1 7bbf
000001b0: f062 63e8 42d5 a7bf 337e 0bda 0b27 983f
000001c0: 751d 65cd 6869 b23f c4a9 746b 869d a53f
000001d0: b8e0 e3a8 98d9 bbbf 4002 e6a0 e94b 97bf
000001e0: 7ae9 ff04 a831 c53f 1e71 5c39 eff4 93bf
000001f0: 43e5 a9d2 c90f aabf 091b be0d 6e7c a1bf
00000200: 378d 2886 137e 94bf a3f5 62f3 fa49 c23f
00000210: 7a35 eeab f0cc 9cbf b97c 2b85 5e27 b6bf
00000220: 7887 46f7 b87e a3bf 67cf 951c 17c3 aabf
00000230: 6854 75f3 0749 71bf e52b 44d0 67bb 833f
00000240: 4c99 034f b7cf af3f 3e87 24a8 5a48 afbf
00000250: e08e a86f 1738 abbf aaae c1ea df57 afbf
00000260: 364e a3a5 7e7f a23f 8473 6b7c a7a5 ba3f
00000270: 418e 3b8a 33ed aabf 1dea 37c5 478c aa3f
00000280: 6701 8413 bfd9 983f f877 c55f 514a 933f
00000290: 4de9 2c4e 09c9 6ebf 009f d7eb 8606 60bf
000002a0: ba04 b547 a9f9 c9bf 714c f389 125e cc3f
000002b0: 6c1d 5659 e813 91bf ee1b 2a10 efb1 86bf
000002c0: e951 c2b4 77e4 753f 4085 7c38 3888 833f
000002d0: 2281 d76f 3f2d 2c3f 6f60 85f2 6a35 a9bf
000002e0: db85 4a61 517e a9bf c6bf cbf6 d5a3 81bf
000002f0: 5f92 afde a5de ae3f cc68 56fc 7490 723f
00000300: f642 49e7 f6e4 aa3f 5f2f c4f0 1a52 a63f
00000310: a75d a644 e5e1 803f 6aa3 b61f 9e2d 71bf
00000320: e035 e86a 5a8f 8fbf 02df 9188 1fc2 85bf
00000330: 1b9c 70f6 b5d1 c33f 9cd4 365d ec91 c4bf
00000340: ebdd a433 2539 76bf 4be2 39ca 0de3 94bf
00000350: 73cf a5f2 3de0 873f c993 b228 5241 743f
00000360: 15f3 bbc7 2db3 843f 6d6d 310a a027 b8bf
00000370: 7ab2 0d73 e384 b7bf b4fa dfab 4632 b5bf
00000380: 32f6 ddf4 6c43 c2bf 7c3e f240 af9f bbbf
00000390: 3547 5fc1 b146 5b3f 15e1 1340 f655 8bbf
000003a0: 2c17 398a ecba 433f d683 3f0a 943c 743f
000003b0: af39 0963 08e1 a43f e796 ef93 52bf d03f
000003c0: 4a26 f721 e8a0 d2bf a7c4 8139 f980 cf3f
000003d0: cd83 3e16 14a6 d4bf 2d2f dfd9 f14f d43f
000003e0: 378b 89f2 c753 a13f 589f e26b af03 84bf
000003f0: 5624 2ad8 2aae 383f 909f 56ef 141e ae3f
00000400: cb0e a1bd b045 93bf e88d 3ed9 848f 863f
00000410: 6ce9 95cb 7d0c 44bf 0d45 c0f0 38a9 8a3f
00000420: 4a83 b142 ab31 783f b802 61e7 0d65 95bf
00000430: 19fc 864e 3c96 86bf dfc2 eaf4 7378 89bf
00000440: 823f 171b d190 a93f 5de5 443e eb7c 9ebf
00000450: 8c0e 334b c11c a13f aafc 9d6b 813c 923f
00000460: 7f5c edca 2478 90bf 6449 14fb fa3d a03f
00000470: dd5b a9e5 8325 a43f a987 da0b 2fcf 993f
00000480: ce4e 28f5 76fe 67bf b7b8 7b13 8bb1 9e3f
00000490: 5551 cd0c df22 85bf 0b54 bee2 b3cf 95bf
000004a0: 7109 0dc9 ce5b 643f 1760 0a64 b8ba b73f
000004b0: 5737 e2c3 4a42 983f 74fc e1a5 b15f ab3f
000004c0: 954e 50d3 bf48 a63f 2e04 8fa2 6352 a0bf
000004d0: 9a6e 105a d20a 5abf 7587 07a7 da55 823f
000004e0: f837 c7bc d89f 79bf d741 b1d1 1d32 723f
000004f0: 45ca e5eb df00 93bf d3c9 82c6 a74b 98bf
00000500: 4e0a e784 3de0 a33f db37 18f2 abb3 a43f
00000510: 5584 749d 99c4 8abf 5877 1b3a a0c6 9c3f
00000520: eaf6 10da 6222 643f ef14 6e9f e6b7 923f
00000530: 9afc 4d8b d473 853f 5ae1 f7a6 c10c 7e3f
00000540: 43ee f047 eb3b 953f cae7 d7c9 c9a1 84bf
00000550: 1912 7c9d 3df0 843f a0a0 d606 47cc 923f
00000560: 744b 7147 608a 75bf eb7e b92e 0009 81bf
00000570: c88e eef3 3fa2 80bf a266 520e 7f4a 8a3f
00000580: 6e36 8711 406f 8ebf 3c9f 5fe2 71df 34bf
00000590: f4df 80a7 ac3c 4f3f 866a 3e03 8023 603f
000005a0: abc4 1545 d121 b2bf 2b57 1fea 3aa6 a2bf
000005b0: 4884 251d 37d6 373f 27a3 4251 cd54 963f
