data/citylearn_challenge_2022_phase_1/models/params11.npy (npy, 1600 bytes, 1 tensors)

array f8 [184]
0	0x3ff0d3935450d30c	1.0516541761000466
1	0x3fc7f9f7676f2b0b	0.1873158698129703
2	0xbfd059a9b4a2b53b	-0.2554725898761096
3	0x3fc235ea16823af1	0.14227033709581563
4	0x3fc15d2da3e727ba	0.13565607550691344
5	0xbfc771046edd9251	-0.1831365147910611
6	0xbfbba18522f3be72	-0.10793335059474332
7	0xbfc45aea478f1f70	-0.15902451032729514
8	0x3f83d5376b2d68bf	0.009684021909994176
9	0xbfd1908cd6cd9cad	-0.27444764115211734
10	0x3fc76b8408503ebc	0.1829686203568509
11	0x3fd6e8d6ba2ed184	0.35796135122225103
12	0x3fdea81d05ee2020	0.4790108259117023
13	0x3fdeabd13d5d64b1	0.4792368983522222
14	0x3fe13a8429f9d576	0.5383930988161143
15	0x3fe136b6dc3d8515	0.5379289914673416
16	0x3fe1f221fc02ae68	0.5608072206573071
17	0x3fd22e36ad7bb048	0.2840706533595534
18	0x3fbcb3b1768e8826	0.11211690086796064
19	0x3fc20fe43697a638	0.14110996881145055
20	0x3fc8c96de609b555	0.19364713413544146
21	0x3fbb40195bf8a761	0.10644682402985729
22	0xbfc623b7749b72ae	-0.17296498483383033
23	0x3fb21ab1c788a196	0.07071982499531368
24	0x3fc579b09cf6e3b3	0.16777618088033605
25	0xbfb798b8ee99c310	-0.09217410874567755
26	0xbfb5580cf4543ed4	-0.08337479558053512
27	0xbfbcd775a189e25c	-0.11266265100301481
28	0xbfc504ac2ef0fbf2	-0.1642050961690696
29	0x3faf9215d64d2842	0.06166141739829857
30	0x3f95cb46e7c390c5	0.021283252616641563
31	0xbfc1ba4a289528b7	-0.13849760991644697
32	0x3fa477eeb2b04c01	0.03997751170404485
33	0xbfa431d1b3340a03	-0.03944258987941753
34	0xbf8e1923acc18ab3	-0.014696387014003198
35	0xbf7a839b0b61f384	-0.006473165171084431
36	0x3f98c35c63473f3a	0.024182742652384827
37	0xbfb58c19642f99fa	-0.08416899391122704
38	0xbfb22c9a5d700ace	-0.07099308758919706
39	0x3fa45c6a9123a50a	0.039767580239479086
40	0x3fb72b985b1d7e64	0.09050895905010631
41	0xbf9792a0831a5f29	-0.02302027511777208
42	0xbfc59deba78f0575	-0.16888185197425867
43	0x3fa789145d40b153	0.045967708953272755
44	0x3fa697f20692ff73	0.044128001501575385
45	0x3f9f222689bf3c06	0.030403711469087845
46	0x3fa119b1edf727c5	0.033399162577168386
47	0xbf7f08ff19dcf3b2	-0.007576939094914902
48	0x3f8cf7ebbbece718	0.01414474646809398
49	0x3fb20e4d80603895	0.0705307424943576
50	0x3fa57c983e5c882e	0.04196620713470654
51	0x3f9eae2c2d7856c6	0.029961290622017932
52	0xbf952b7a7a75def8	-0.020673669552222912
53	0x3f8dfe3888549a76	0.014645044002987034
54	0xbfab28d37fe497a3	-0.05304585395997143
55	0x3f730fe01e94b839	0.004653811899784138
56	0x3f87f26f7de31b8f	0.011692877797384841
57	0xbf95d61619b65aad	-0.021324487037044083
58	0x3f5416946be584c9	0.0012260865620066666
59	0x3f99f5e30f2aeace	0.025352046776542285
60	0x3fbc9223a2816c0d	0.1116049072019651
61	0xbf990f04d56a1d2f	-0.024471354985988455
62	0xbf798197be998b94	-0.006227104904243403
63	0x3fa79d0e485c6016	0.04612011559783029
64	0x3fb49f3e00851cb9	0.08055484306997841
65	0x3f63cdba6b3c3ffd	0.002417434787169269
66	0xbf9564db1ce08246	-0.020892547261725868
67	0x3fb9ab56b6e6dc95	0.10027067151428277
68	0xbf864f70d9d4447a	-0.010893708846682271
69	0x3f864e2c06126258	0.010891288695618659
70	0x3f83970bb7dc40a0	0.00956544070098203
71	0x3fa27cbf766676c9	0.03610800094905426
72	0xbfa2a804a1c26d29	-0.03643812632182126
73	0xbfabada6216d86c9	-0.054059211330935115
74	0xbf86e15571f6a13c	-0.011171977558504957
75	0x3fabec4122d8ab00	0.05453685331698033
76	0x3f93f4a2e7fb775c	0.01948790112407238
77	0xbf9245ec681d7b0f	-0.017844861845669743
78	0x3fb09d84c053e6f3	0.06490354247571499
79	0x3fa290e6fca821d8	0.036261766759767944
80	0xbf8be9e863814678	-0.01362973741211991
81	0xbfa0029835ed1546	-0.0312697950198904
82	0xbfa6ac33ab24b844	-0.04428254570153503
83	0x3fad6ab2f3dcbd54	0.057454674023001445
84	0x3fb1b9f673a667e6	0.06924381564604651
85	0x3fc1baba8874bfba	0.1385110060014066
86	0x3fa21ddc476060da	0.03538406726164718
87	0xbf96d6821486b7bd	-0.022302658560583433
88	0xbf8182a57e93118c	-0.008549969601866513
89	0xbf74a2da5a928875	-0.0050381211705446865
90	0x3f7e95619e9854e5	0.007466679884165138
91	0x3f8dfc44b4c83282	0.01464132000639862
92	0x3faaf85a0a683b02	0.052676023264316654
93	0x3fa6d3e984eb6101	0.044585511661070505
94	0xbfb0c684be02f2ed	-0.06552915228798968
95	0xbfa82833a8e0608e	-0.04718171535950076
96	0x3fc02b1a0a201799	0.12631536001589153
97	0x3f9a0c0dee3410f3	0.025436608947544802
98	0xbfa26f25404f80ae	-0.03600422296563131
99	0xbfa617cf8450f0c2	-0.043150410558582944
100	0xbfabcd89bbc2448e	-0.05430250565508131
101	0xbf9ad5bd9c7cd6b3	-0.02620598094582389
102	0xbfbeda475cf5682d	-0.12051816958901958
103	0x3fb2c6a3137c94c3	0.07334346032856147
104	0x3f860a8c669941e8	0.010762307053625755
105	0x3f93bd3bb1c70cb7	0.019276554799728198
106	0xbf6d29046dc5e022	-0.0035595976352702655
107	0xbf9fa693c16a3b98	-0.03090887897502234
108	0xbf84597b7486cfc5	-0.009936298841104372
109	0xbf9df620af662efe	-0.029259215074076465
110	0xbf8a437a45d12e7f	-0.012824015861176761
111	0xbf77184b72500dc3	-0.005638403618835
112	0x3fa13bbee4e7414d	0.033658948366453424
113	0x3f918a5c6663e841	0.017129367589383774
114	0xbf77294dc153ead0	-0.0056546246826154195
115	0x3fa746b054929bed	0.04546118767148486
116	0x3f98fd9404ffac4d	0.02440482407102378
117	0x3f47b58bbd391f64	0.0007235462493975051
118	0xbfa50e818c6b7cf3	-0.04112629737005049
119	0x3fd4d48b35306f56	0.32547264284379673
120	0xbfc87cba5b19187c	-0.1913063950361823
121	0xbfc6b6c302f0c3b4	-0.177452446399483
122	0xbfd06a0a97d2edc1	-0.256472252145354
123	0xbfc7b829c2eb14ed	-0.18530771272177252
124	0x3f7d63fe87531aa4	0.007175440075292503
125	0xbf804fa459b6e0ae	-0.007964405048241776
126	0x3f8728b37e88fda9	0.011308100031896045
127	0xbf979faeec2e9151	-0.023070080914878336
128	0xbf8045eb20901132	-0.007945858889805455
129	0x3f7f80e4a4f99409	0.0076912814543890285
130	0x3f97be0e5a81faa4	0.023185943864968764
131	0xbf87a3826c26180c	-0.011542338300170506
132	0x3f70e128346ff857	0.004120976495867699
133	0xbf48c46b4161f0ac	-0.0007558368404399127
134	0x3f9292b4972947eb	0.018137761808539137
135	0xbf9bd5068b7b1549	-0.027179815543396022
136	0x3fa4b884a285b6c9	0.0404702614203934
137	0x3f647b901a3f1a96	0.002500325632328891
138	0x3fb0cd073e30f125	0.0656284834703383
139	0x3f6a8649cf2e8f59	0.003237861784741652
140	0x3f78106acf09add1	0.005875031682630775
141	0xbf5e11f3a43f1ab0	-0.0018353347122556478
142	0xbf73752125e74c34	-0.004750375256167994
143	0xbf832c10c3b34f39	-0.009361391994765366
144	0xbf3897f6819a01a7	-0.0003752686330713802
145	0xbf793d6f74477c97	-0.006162104957609624
146	0x3f89ba23148ff69d	0.012562059464467363
147	0x3f907e50a4c8bfd1	0.01610685354006575
148	0x3f740ea8d554f871	0.004896792893587785
149	0xbf891d9520bd55a4	-0.012263455449707923
150	0xbf9a4ea3abfbbb12	-0.025690610286740308
151	0x3fb54249043707b5	0.08304268219856577
152	0xbf6325443994bc06	-0.002337105991180535
153	0x3f8ad65df2878d89	0.013104185069954937
154	0xbf8374ece99d3ab4	-0.009500361327494523
155	0x3f9849445dcb2e1c	0.02371699163886208
156	0x3f8e17d797f95302	0.01469391281640631
157	0xbf702439d4a6b564	-0.00394079771141995
158	0x3f81fb2b6a769066	0.008779849230286806
159	0x3f582bf2834dae30	0.001475321606643553
160	0x3f85c40493f56bc8	0.010627780690517855
161	0x3f7b48f574d14b5c	0.006661375821823547
162	0x3f6811c7217aa7fa	0.002938164641666849
163	0x3f500a39efc8f928	0.0009790006435107055
164	0x3f68e334951e2929	0.003038027477434775
165	0x3fb2e64116df0675	0.07382590111139982
166	0x3fa3463cf1a8e38d	0.03764524888942509
167	0xbf75724933fc08fb	-0.0052359446997363125
168	0x3f894f9215483b8b	0.012358800196151673
169	0x3f8363cdaf18c474	0.009467703729656864
170	0x3f76a09e6a8112f7	0.005524271786332183
171	0x3f789de5ef7f2502	0.0060099584442892
172	0x3f50bac892291b3f	0.001021095151956877
173	0x3f8baf20b1142b3e	0.01351762333299222
174	0xbf90167f95b63c9f	-0.015710824501692696
175	0x3f75afdac4ce3b7f	0.005294661107554498
176	0x3fa024d06f81b68f	0.03153087006726906
177	0x3f9d64e486e8dbb1	0.028705187544087078
178	0x3f864eb3cd816220	0.010892300328280646
179	0xbfa2c67f57a7fb8f	-0.0366706652166534
180	0xbf6d9e2484f516fe	-0.0036154473561137426
181	0xbfb56be2ce9aa5cb	-0.08367745918317053
182	0xbf945e0374bb2e28	-0.01988988304110087
183	0xbf95df6346f51d5f	-0.021359969335461467
