data/citylearn_challenge_2022_phase_1/models/params9.npy (npy, 1600 bytes, 1 tensors)

array f8 [184]
00000000: 5351 c793 f6b3 f03f e961 efad 2f55 c83f
00000010: f012 b476 7802 d0bf 7850 3c9e 089b c13f
00000020: fb93 7200 d006 c13f 0978 007d 437b c6bf
00000030: d40e 84a7 876b babf ef50 45b6 7b3a c4bf
00000040: c886 954e f1d2 793f 69ed 9465 1028 d2bf
00000050: 3684 ef9e 07d0 c73f 1e02 a4f9 0a41 d73f
00000060: 8295 f5ff 3552 de3f 37ec 5283 e6c7 de3f
00000070: a1a7 c6fc 7f3f e13f 479d a55f 811b e13f
00000080: 608d 3a0e 73db e13f 861c 3470 26fa d03f
00000090: 2d21 53f9 4855 bb3f 51f4 ab73 2845 c23f
000000a0: b442 a4b0 27a7 c93f 8a35 6bdb 7db9 bb3f
000000b0: f6a9 c791 069a c5bf fb0c 19b8 3bce b23f
000000c0: 91c8 6783 6bae c63f 4f8d c8db dae6 b9bf
000000d0: b45c 86c8 4b57 b2bf 6aa1 229d 3086 bcbf
000000e0: c33e bc96 840e c5bf c61a 8b12 7388 af3f
000000f0: 1ab8 58c0 858f 973f ea0e 6239 c9a6 c1bf
00000100: 7f4e 0146 3f36 a43f 838b 83df 4773 a7bf
00000110: 5cf2 4666 54b3 84bf 048e 3e98 76c0 68bf
00000120: 51f7 05b5 e26f 953f a29f 08b1 2a80 b6bf
00000130: 584f 42f7 7455 b1bf 6565 bd75 c19a a33f
00000140: 74bb 3d9e 8d6f b83f 5870 6025 aa5f 9cbf
00000150: d42f e7f7 ada1 c5bf 6cfe d17f 5c1a a73f
00000160: fc72 4790 a6c6 a43f 306f 3b6f 0dd1 a03f
00000170: f4b2 a123 a058 a33f 171a 09db b1ad 86bf
00000180: f822 01a0 1cac 843f 5029 11c4 7dbc af3f
00000190: e11c ee60 4a45 a53f b767 2ceb ac88 9b3f
000001a0: ac9d a62e 55bf 8abf 2ab9 9d18 bab5 743f
000001b0: 1825 953f 7abf abbf 0330 3f2c 1889 7d3f
000001c0: 4721 f06e 0f0c 873f 18d9 60fc 833f 92bf
000001d0: 8dcf 6063 1662 793f 610c 7799 d14d 9b3f
000001e0: 8647 32cb 0cb7 be3f e2bd 9217 2022 9cbf
000001f0: f3cd a4d2 a792 7ebf b4ff 9ff3 74e8 a43f
00000200: 3fe3 1814 0713 b43f 89d9 0a6c 980b 61bf
00000210: 4ca4 f8c8 c48a 99bf b627 f547 effa b83f
00000220: 8694 5994 6803 7cbf 8f6a 9964 6e6d 873f
00000230: c2d0 7af8 d263 8c3f 0e23 f9eb d6c0 a13f
00000240: 1e9d 9cb0 5650 a5bf 94e5 855d 886d b0bf
00000250: b355 9893 fc0d 90bf 829b 82f7 ef22 ac3f
00000260: 5681 942d 7b35 9b3f b02f 0567 8ef3 8ebf
00000270: ee27 9633 de98 b13f c08c 78b1 d358 a33f
00000280: 184f 9c18 be2b 71bf 6c92 f91f e11c a2bf
00000290: b398 4b20 c9cf a4bf e95a cbe6 e43b af3f
000002a0: 342e 43db 4b37 b13f 1325 175d c8bc c33f
000002b0: ab75 5b3b b4ef a03f 1a80 fa60 28a2 98bf
000002c0: d9b8 859b 3eaa 85bf 9c55 fac4 4217 16bf
000002d0: 54e9 67b5 ce81 6e3f 25f0 9241 5ed3 823f
000002e0: b710 e435 a835 ad3f 0948 831f c3f2 a73f
000002f0: bb9d 5bc0 5ea2 b0bf 0c6e 588a fadb a7bf
00000300: 4858 33ab 4920 bf3f bc4f 5e36 b0fc 973f
00000310: cda5 69ea dfeb 9cbf 69c2 3ce1 dd2c a6bf
00000320: 615e 22fd 8e6e aabf 9704 e98a bb75 95bf
00000330: 3e9c 568f 003e bfbf e019 ab9c ece1 b23f
00000340: fe99 809f 6322 913f 4738 a3df 7c27 953f
00000350: f8e7 60d3 e31f 69bf 9caa 21a5 ab39 a1bf
00000360: 7ee1 926e 6c9b 81bf 5b5e e619 026c 99bf
00000370: e1ba 10fc b0c6 93bf 9097 bb67 5c4e 7dbf
00000380: 5fdd 191f 32c9 a03f a204 90b3 742e 883f
00000390: 82cf 3afc cb8b 97bf 1b2d 18fd 21d9 a43f
000003a0: 086c b53b f7ba 933f 9bf2 7813 0861 663f
000003b0: ee82 ba16 a3f9 a4bf ee66 6ff4 25f9 d43f
000003c0: d5e0 0197 35bd c8bf 0f2f 265a 6865 c6bf
000003d0: b75f 2462 635b d0bf af6b 7497 d34f c7bf
000003e0: 9dd6 e094 ea8d 653f b4d8 0ec2 ac22 6dbf
000003f0: 390b 52a8 a6bc 873f 54ad f21e 1f0a 99bf
00000400: 32c2 3824 d8e3 80bf 3ae8 4ef5 82a6 8c3f
00000410: 48ca 9086 29c2 953f 9717 32ca 51fe 81bf
00000420: d895 07a5 c33f 813f 3a33 45f1 6deb 5a3f
00000430: 7c80 7fb3 917f 943f 32c2 b915 5c52 9dbf
00000440: 13e1 0bec f64e a53f 392f 4db6 8983 613f
00000450: 6f76 8887 99dc b13f 3376 1ce7 f98a 703f
00000460: 1495 6df4 9ee6 653f cbbe 3db9 5ff1 7cbf
00000470: bd35 4047 234b 463f a306 4e78 2c7c 67bf
00000480: 93ee c635 34eb 633f c356 6baa 4829 7dbf
00000490: cb11 8765 cd43 913f 8f61 6b4b 3e57 813f
000004a0: 2600 51a0 36e1 8e3f a65d fbd2 882a 89bf
000004b0: a4af c075 e0b1 93bf 75aa 1b71 16ab b33f
000004c0: 00d5 2c0d d209 66bf 5e8c 7a36 f572 913f
000004d0: 8589 a984 fe4f 7cbf 03f4 5996 87be 983f
000004e0: cc6a a6e7 5aa7 883f 78c4 36c4 5e67 73bf
000004f0: 9b3a b4bb 02f6 933f 338f 6a8b 618f 8abf
00000500: 7429 1d4a 5a3e 6a3f 2843 6b19 b72e 7e3f
00000510: b404 2a14 d48a 51bf 3576 fbdc 4dfc 703f
00000520: 2960 efc0 6cf1 843f 000e 7988 d822 b33f
00000530: 7b2d bdb8 cca1 a63f 70ae 20ce 6bad 6cbf
00000540: fcbd 27bd 8410 8f3f 4397 383c 4305 813f
00000550: f4da 4687 bb3c 723f 918c c8a4 60b0 61bf
00000560: 0c70 ec82 d6ff 6f3f 33dc f248 5762 843f
00000570: 7a73 a883 524d 86bf 78a7 9062 70cc 793f
00000580: 8757 0a04 3094 a03f ee13 d0cf aba6 a43f
00000590: 3948 0ca8 87c3 833f 15ef f6a4 5e3b a4bf
000005a0: 3a7f e12d 1683 83bf b7cc 0302 e805 b5bf
000005b0: 87dc 18e8 5244 90bf 2f03 6e25 9f91 a1bf
1.0439363262749637 0.19009967797207075 -0.2501507910931613 0.13754375196788593 0.13302040120939282 -0.17563670734028872 -0.10320327605955565 -0.15803476715030437
0.0063046861699562265 -0.2836953155526403 0.18603606472518813 0.3633449018380207 0.47376775737787835 0.4809509546718717 0.5390014588385733 0.5346075885872005
0.5580382612137491 0.26526795346621446 0.10677009665517252 0.14273553512603823 0.20041366696434226 0.10829912764457653 -0.1687629901710605 0.07345937008453866
0.1771978751781416 -0.10117881646924796 -0.07164453168512602 -0.11142257534323155 -0.16450555191157976 0.06158790208205782 0.02300843225946645 -0.13790240575701002
0.03947637300066464 -0.04580139735641977 -0.010107669230699994 -0.0030214611342260795 0.02093462209585734 -0.08789316961394758 -0.06771021877858396 0.03829006731275334
0.09545216668423767 -0.027708681613248437 -0.16899656872408164 0.04512299595171218 0.040578084099001516 0.032844943836350615 0.0377855342384005 -0.011073483941015856
0.010093902237842553 0.06198494928738063 0.041544269878665004 0.026888563016747215 -0.013060250745936162 0.005056120813476542 -0.05419523264078857 0.0072108215571908855
0.011253471921023673 -0.01782041767020201 0.00619705911053704 0.02666404246498322 0.1199806209645243 -0.02747392791633086 -0.007464080388945404 0.040836004962329225
0.07841533890394901 -0.002080724429414708 -0.024943423048317023 0.0975789595296693 -0.006839188111915756 0.011439192242666677 0.013862274368286246 0.034674373917885956
-0.041628560122541666 -0.06417133601453023 -0.015678354748237044 0.05495405098309104 0.026571201951015887 -0.01511298419850235 0.06873883017956903 0.03778707066910547
-0.004192106783893278 -0.035376582291779396 -0.040647778694436275 0.061003831074847366 0.0672500047978069 0.15419868989401006 0.03307879662109355 -0.024056082648371648
-0.010578621979871293 -8.42699530444108e-05 0.0037240063932106136 0.009192215324553452 0.05704999597404153 0.04677400359800294 -0.06497757145154186 -0.046600179088468335
0.12158642224980654 0.02342486697996525 -0.028243540460982253 -0.043311055893700275 -0.051624744796922035 -0.020956926682860724 -0.12203982829542867 0.07375983071242542
0.01673274670624813 0.02065844645476769 -0.0030669641228344667 -0.03364311590924737 -0.008597228168910172 -0.02482608111458116 -0.019312634835098378 -0.0071548089578977875
0.03278500203753753 0.011807357530417232 -0.022994220037346753 0.040719091553990526 0.01926790525372371 0.0027318151221876314 -0.04096707966278311 0.32770680304166333
-0.1932742106762421 -0.1749697151357101 -0.2555778940600208 -0.1821236123585925 0.0026311475440035773 -0.003556573312802314 0.01159029198811866 -0.024452673210061462
-0.008247078519247972 0.01398947058793364 0.02124848254988823 -0.008785857184431296 0.008422401880077965 0.0016430448204857854 0.02001788766926936 -0.028634489847208573
0.04161807662416286 0.002137917489028054 0.06977233466064957 0.0040387880160586585 0.0026734451852684724 -0.0070661296084463905 0.0006803438432158509 -0.0028668278268362975
0.0024314899185052335 -0.007119449472801245 0.016860207864526616 0.008467184712046797 0.01507799793955662 -0.012288159311920687 -0.01923323363023112 0.07682934056689723
-0.0026902296607668186 0.01704009194385169 -0.0069122259252217865 0.02416431288883204 0.012037954515837689 -0.004737253362166453 0.019493143755478042 -0.01296879011835692
0.0032035602061217198 0.007368769866574344 -0.0010706969339085272 0.004146865990802652 0.010226106298361586 0.07475045520646262 0.044203183699745595 -0.003500662381176238
0.015168225309905907 0.00831081893472752 0.0044524503068064 -0.002159298665235073 0.0039061727214981853 0.009953195489613353 -0.01088966812408797 0.006298483852370633
0.03238058137246385 0.040334099881910265 0.009650287452618854 -0.039515454900053516 -0.009527371668979979 -0.08212137269201746 -0.015885634819110563 -0.034314130133685665
