data/citylearn_challenge_2022_phase_1/models/params28.npy (npy, 1600 bytes, 1 tensors)

array f8 [184]
000000 7b 63 fb c5 b7 00 d5 3f cc 6a 57 a8 d8 26 c2 3f
       0.32816881498506917 0.14181049556540015
000010 9d 7b 37 89 34 29 c4 bf 59 e3 5f 73 75 04 e9 bf
       -0.15750748348270074 -0.7817942860993795
000020 63 df 7e 93 ba 1e cd 3f 44 2d 64 d3 df 0a 8c bf
       0.2275002689545956 -0.013692616118098251
000030 84 03 09 80 0b 69 99 bf 60 f3 dd 80 66 19 49 bf
       -0.02481477707829384 -0.000765967417222773
000040 45 4b db 31 c5 2b 83 bf 83 07 51 9b f7 72 c4 3f
       -0.009360828956607068 0.1597585209256601
000050 48 6c a8 20 94 aa bc 3f 3d 01 a5 50 c3 ea ce bf
       0.11197782323181216 -0.24153939664575744
000060 9e 07 d3 69 84 d7 d5 bf c4 c5 f2 6e f2 72 d5 bf
       -0.3412791284027835 -0.3351408084373271
000070 89 1c 16 07 f9 8b d8 bf 51 9a 42 ad f0 f2 d7 bf
       -0.38354325954464535 -0.37420288963258935
000080 c0 ef aa 7b 35 77 d3 bf a7 f6 95 d4 61 7e c0 bf
       -0.3041509349529825 -0.12885687713781133
000090 53 e5 ef 69 34 70 85 bf 51 ee 79 09 ce 0e aa 3f
       -0.010467919810241233 0.050894201905035026
0000a0 a5 95 66 e6 4c 67 ae bf 39 2e 73 0c c1 1f c8 3f
       -0.05938186943539429 0.18846905811220596
0000b0 da 4b 4c a6 c5 51 d3 3f 7f c0 95 25 7e 51 93 bf
       0.3018659709934447 -0.018865557712559152
0000c0 ef 3a 72 01 8f 8b c6 bf 4a cd 9c dd 3d b8 c4 3f
       -0.1761339909612256 0.1618726093380281
0000d0 1f e3 fd c2 80 99 c3 3f 4a df 67 db 82 2c bc 3f
       0.15312203904229535 0.110054186406953
0000e0 37 ee 09 4f 1e d7 92 3f 82 b4 71 0d 17 0e ab 3f
       0.018398736547608343 0.0528418735419587
0000f0 1f 10 59 45 7f 4e bc 3f 1e d6 7f c0 68 72 b3 3f
       0.11057277148307819 0.07596449565593175
000100 73 44 c1 78 85 1b 99 bf 59 56 b0 d8 bd ea 62 bf
       -0.02451904820947388 -0.002309199136571388
000110 f6 4f 36 d4 1c cb 91 3f 30 e0 f1 79 57 db a2 3f
       0.017376375629808614 0.03682969440063777
000120 16 db bc 98 d3 34 82 bf 70 ca 30 89 31 03 a3 bf
       -0.00888982114666485 -0.03713373946847731
000130 9c 89 63 fa 63 1d 81 3f 9f ff 69 49 fc 85 98 3f
       0.00835683925510438 0.023948614102209494
000140 7d 66 56 46 6d 81 45 3f 8f 6c 29 d0 5f 71 7a bf
       0.000656298024000537 -0.006455778379485313
000150 74 df 17 ec 13 90 bd 3f c7 57 86 87 ff 75 aa bf
       0.11547970308299488 -0.05168150452952563
000160 8d 33 cc 26 0c 03 b4 bf c3 40 7b de 97 6b a4 bf
       -0.07817150065620933 -0.0398833712657747
000170 09 55 91 59 54 a6 90 bf f2 db 45 a8 c2 a0 86 bf
       -0.016259496657160564 -0.011048813591271387
000180 a5 78 70 3d 71 f6 c0 bf 04 5f 45 dc 43 ef c9 3f
       -0.1325208234783918 0.2026142907659435
000190 ca 16 11 25 ff 95 71 3f 8c 01 76 28 29 02 82 3f
       0.004293438586562901 0.008793183848639051
0001a0 82 18 c2 0c ee f6 98 bf 8d b9 23 0d 32 e3 88 3f
       -0.024379462746332077 0.01215209105108952
0001b0 ce 55 b6 81 84 5f 83 bf 68 c9 ca f8 a9 71 5a bf
       -0.00945952912187922 -0.0016140136605541037
0001c0 2a 1d 65 56 92 75 96 bf 9c 61 a5 3f db 7f 7b 3f
       -0.02193287517846191 0.006713730277930454
0001d0 77 be 6b a6 15 81 a5 3f 32 1e b0 75 53 3b 70 3f
       0.042000462117241115 0.003962827696347969
0001e0 43 45 aa f4 3e a3 ab 3f ca cb 35 1a f9 5f 93 3f
       0.053979842535350396 0.018920795655002633
0001f0 37 e5 43 e4 a0 94 5a bf 5d 6f c2 2a 28 c9 8d bf
       -0.001622349854242989 -0.01454383259288477
000200 0a 41 ef d1 19 66 a8 bf c4 47 a1 94 1b 57 b6 bf
       -0.047653967739849604 -0.0872666585794653
000210 08 bc 30 1c f7 23 a4 3f e6 6e 5f 2b 7d 49 a5 bf
       0.039336893264014405 -0.041576301140336544
000220 56 a1 70 f7 eb 59 af 3f e7 66 a7 8d 4a 21 92 3f
       0.06123292346484514 0.017705120941036958
000230 39 99 2d a7 2d b6 83 bf 38 ed 81 08 49 0e 7c bf
       -0.009624821342822375 -0.006849561010422271
000240 23 d9 02 7d 1f e1 9d bf 38 d2 3e c4 3a 8b 1d 3f
       -0.029179088597367852 0.0001127009027744396
000250 9b f3 d8 dc 31 f9 b0 3f e8 a6 e7 02 8b 1b b0 3f
       0.06630241052421441 0.06292027302665881
000260 9e ad 41 2d 0b d7 93 bf c7 3d a8 76 12 a2 98 bf
       -0.01937501395916074 -0.024055756084690374
000270 3a bc 14 3c 4d 32 c4 bf a0 35 33 6b 11 b6 96 bf
       -0.15778508599893987 -0.02217890946194745
000280 c1 3b f8 92 4a 47 92 3f 8d d5 b4 94 2b c8 86 3f
       0.017850079746547957 0.011123981929453542
000290 10 7c f7 6e 37 f3 77 3f c8 c2 b2 20 99 a4 c3 3f
       0.005847183739631681 0.15346063706012658
0002a0 87 4b 03 a8 4a 49 82 3f ac b8 b5 7d d1 e7 b3 bf
       0.008928855182977603 -0.07775601691330064
0002b0 03 5c 06 b6 5c 5f a4 bf 5a 02 a7 7b a7 b5 a2 bf
       -0.03979005548460892 -0.036542161793026565
0002c0 9d d8 1e 6e ab 49 84 bf 1b 8e f6 9a 23 78 a7 3f
       -0.009906138704405537 0.04583846346511341
0002d0 c6 c3 68 d7 d3 5a a0 3f d1 fb f8 d1 b6 4c c2 bf
       0.031942958874771984 -0.14296612980430592
0002e0 13 8c f1 d2 a3 cc b2 bf 48 33 56 cd 0f 16 70 3f
       -0.07343505763996942 0.003927289702357957
0002f0 c1 7f 01 61 8b 78 b2 3f 65 e7 62 11 b7 68 a1 3f
       0.07215186231905958 0.0340020378802837
000300 a6 db 65 59 6b 40 bd bf bb 0e a2 6e 67 d4 88 3f
       -0.11426421101155756 0.012123878539802893
000310 fc e1 45 8d f5 1b 81 3f a1 b2 97 6b 2c ca 89 3f
       0.008354109166917027 0.012592646630730288
000320 4a f2 6e 51 39 0d a5 3f 1f 26 f9 3d d2 a2 96 3f
       0.04111651534137602 0.022105488808199177
000330 26 71 99 48 37 98 a4 3f 1c 31 eb e3 9d c6 a3 3f
       0.04022381554816183 0.038624700615033286
000340 d2 ec e1 b2 d2 76 b5 3f 9b 36 37 02 2a 35 96 3f
       0.08384434573411007 0.02168717993281764
000350 5a b3 43 b7 2d 57 8e bf 89 a4 b2 2b e9 4f 4b bf
       -0.014814717440879189 -0.0008335007218153316
000360 37 67 72 74 8b ec a8 bf aa bf 31 7e 07 10 b2 3f
       -0.048679693188388766 0.0705570872394207
000370 92 0e d0 5e ed 85 b1 3f ed 30 d8 e7 5d 1b 93 bf
       0.06844981732143143 -0.018659083629288743
000380 29 92 f9 08 cc 29 b0 bf 83 76 a8 77 65 7e 91 3f
       -0.06313777178872527 0.017083726337765014
000390 19 f4 03 7a b7 8d ba 3f 41 47 87 9b a6 d3 8f 3f
       0.10372492531674062 0.015540410634375614
0003a0 92 8f ad e7 b6 6f 62 3f fb b7 91 d3 46 f5 81 3f
       0.002250535236656811 0.008768609363155369
0003b0 ac 87 04 e1 e9 88 b0 3f 61 c1 34 c9 6c 06 cf bf
       0.06458913558574747 -0.24238357376590172
0003c0 9e 86 1a ef 9c 5f d0 bf 44 b6 d0 c7 48 24 ce 3f
       -0.25583575582468565 0.2354823089275887
0003d0 04 7d d3 48 51 9d d3 3f 75 93 89 68 4b e3 c9 bf
       0.3064768992607727 -0.20224897961011448
0003e0 0d 35 0e 19 af 6e 89 3f d7 6f 1e c8 c8 22 9f bf
       0.012418144180424773 -0.030406129087722746
0003f0 56 57 db 2b 9c df 6f bf 86 b0 4b 9e cb 55 9c bf
       -0.003890805265522805 -0.02767103341732071
000400 ba b9 14 f1 28 35 b8 3f 9e 42 01 7c 7f 67 91 bf
       0.09456115613713836 -0.01699637598386749
000410 97 ee b1 4a fc bf 96 3f 71 cc bb 0b 0f ee 8d bf
       0.022216741618179183 -0.014614217324810693
000420 c6 74 d6 b8 c2 13 99 bf ff 2f 4e 3b c5 09 87 3f
       -0.02448944333228977 0.011249104378087791
000430 82 14 f1 97 36 0d 85 bf f8 13 5f e5 f4 29 76 bf
       -0.01027910853566483 -0.005411106705598627
000440 44 3b b3 d1 70 a5 97 3f 49 a9 93 cb a3 61 a6 3f
       0.023092043685035493 0.04371368274753935
000450 a5 8f bd e4 95 03 84 bf c3 e8 8b 39 21 5e 92 bf
       -0.009772463839631327 -0.017937201630936494
000460 7f dc e1 7a b8 0f 90 bf 2f 5c c8 be 0b 2c 92 3f
       -0.01568496942533359 0.017746146697472816
000470 ab 0e e2 f4 de b9 5b bf 77 d7 9d 50 b8 c2 93 3f
       -0.00169226430037465 0.01929748527569283
000480 63 66 23 2a 05 03 43 bf a2 9d 94 1e be 12 63 bf
       -0.0005801940171991756 -0.0023282731314286523
000490 3f 80 b0 e1 1b 27 83 bf 7a ef e8 db ad 6b 81 3f
       -0.009351938080783493 0.00850616290437477
0004a0 8d 75 51 61 76 4c 92 3f 8a b8 53 15 03 1d b3 3f
       0.017869805993873156 0.07466143866233402
0004b0 13 eb 68 ce 0e 29 a5 bf 59 11 27 33 6d bd 9d 3f
       -0.041328871437562274 0.029042917487246942
0004c0 21 bf de 3d 29 0a 86 bf 38 aa 7e 97 69 84 92 3f
       -0.010761568260789613 0.01808323847914492
0004d0 d4 b6 e0 44 f4 7f 81 3f b4 51 06 6d ee ff 8a bf
       0.008544834472640352 -0.01318346281258518
0004e0 be e9 36 56 cc 25 95 bf a5 56 44 a5 8e e2 93 bf
       -0.02065200115405629 -0.019418934666723193
0004f0 5e fe b0 88 9d 6e 8c 3f 03 5b b0 04 14 6e 70 3f
       0.01388285706900588 0.004011228748842968
000500 75 31 6e 29 7b 9e 90 bf 21 86 4b dd 81 95 74 3f
       -0.01622955742236472 0.005025393755859337
000510 6a 11 ae 90 c0 3c a3 bf 60 a6 c9 01 a7 2c 97 3f
       -0.03757287756073675 0.022631272777664413
000520 96 19 ec 53 7e 99 61 3f 82 e1 6e d4 4f e9 63 bf
       0.0021483867016087272 -0.002430587689982556
000530 84 85 7b ce f4 6c 87 bf e5 c1 d1 b7 be c6 87 bf
       -0.011438286353441247 -0.01160954473945792
000540 e8 ee 9f c4 73 97 70 3f f9 c8 80 76 b7 33 95 3f
       0.004050686091428203 0.020705095870831667
000550 fe 70 23 c0 cd 0d aa 3f a1 d0 de 66 86 0e ae 3f
       0.05088656397285439 0.05870456701032479
000560 31 c4 57 f1 91 32 85 3f 88 5c 26 53 b9 bf 33 3f
       0.0103503610398282 0.00030134462863302307
000570 3b 23 19 6b 1f 42 91 bf 9a 87 10 cf 29 d0 78 3f
       -0.01685380068946361 0.0060578950079007935
000580 70 8a 21 ff 9b 44 8a 3f a3 31 bf ad 72 7b 8f 3f
       0.012826174472313684 0.015372177054722885
000590 5b 09 e6 ed 94 47 80 3f 43 d8 9c 94 ca 62 a6 3f
       0.007949031362617978 0.04372246803397719
0005a0 80 3e a7 96 11 0e 91 3f de 29 4a c9 b2 eb 95 3f
       0.016655230350635097 0.02140693048071706
0005b0 68 51 c5 53 93 4d b3 bf 40 37 b1 df 10 4f a4 bf
       -0.07540245814499758 -0.039665725046332145
