data/citylearn_challenge_2022_phase_1/models/params17.npy (npy, 1600 bytes, 1 tensors)

array f8 [184]
000000 bc a0 91 d7 9e e9 cb bf 83 5b ce d3 69 dd b7 bf
       -0.21806703115294634 -0.09322225018546075
000010 04 bb 5b 77 f8 f3 bc 3f ba e8 27 b6 04 ba de 3f
       0.11309769548436682 0.4801036623827134
000020 fa 1a fd df 1e 27 e7 3f 24 88 a6 37 ec 3d a7 bf
       0.7235254645136984 -0.04539430789306234
000030 4e 02 83 d4 7f 4e ac bf 3a e8 81 ff 0a ba b3 bf
       -0.05528640240800496 -0.07705754030203674
000040 52 91 6f e6 d4 d5 7d 3f 94 45 e3 19 b2 2e c4 bf
       0.007284003869220195 -0.1576750399022272
000050 27 46 88 7c 5a e7 c2 3f e0 d4 ab 6f 05 81 d4 3f
       0.14768534737281522 0.3203748312510708
000060 ec e0 47 43 31 35 db 3f 4e 66 24 53 d9 7d db 3f
       0.4251216084517313 0.4295562087951098
000070 fb b9 b1 a5 48 11 df 3f fa e8 67 b0 6d 5b de 3f
       0.4854299181087353 0.4743303511346678
000080 37 59 02 1c ef 55 de 3f de 5c 66 c1 97 84 ce 3f
       0.47399499640723114 0.2384214109740474
000090 7d 24 6f 27 57 cc bc 3f 84 d9 56 b2 81 b8 99 bf
       0.1124929877543241 -0.025117899427379978
0000a0 5b 98 8d 60 41 08 93 bf 66 e1 8b e6 10 de b6 bf
       -0.018586179273733055 -0.08932595852445999
0000b0 7f ae 77 f4 52 e2 81 3f 1d 34 c7 88 08 19 ce 3f
       0.00873246010356543 0.23513895681972566
0000c0 98 db 11 22 9a 64 c0 3f d9 41 08 34 ec ce c0 bf
       0.12807013190805772 -0.13131477871549072
0000d0 da 5f 12 2b 10 d4 b2 bf 96 30 12 62 da 49 cb bf
       -0.07354832698399552 -0.21319131649614026
0000e0 f3 ec 3c ae b5 6b aa bf 67 29 61 90 0f c1 a5 3f
       -0.05160300971916767 0.04248856198735745
0000f0 ef 9f c1 32 4d 6a bc 3f 21 dc 7f 03 58 ee a9 3f
       0.11099703301590556 0.050646543910197524
000100 d3 21 68 43 ae 0e a7 3f 65 fc 84 76 0a 78 83 3f
       0.04503387997471333 0.009506303541114211
000110 aa 13 af 87 aa 2a 90 bf 0c 6c f1 09 cb 02 82 3f
       -0.015787758380401286 0.008794389954507785
000120 e8 f7 5a 70 b5 94 9d bf ea 84 a7 c8 5e 4c 9d bf
       -0.028887591345430425 -0.02861164188096136
000130 aa e4 18 62 32 60 ac 3f e8 84 d0 4e c3 f3 a9 3f
       0.05542142341114105 0.05068788849917799
000140 c1 71 b7 c3 ae e4 b0 bf 56 dc 73 ea 2c 2f a7 bf
       -0.0659894206832581 -0.04528179513902646
000150 48 4d 69 4b 36 44 c0 3f b9 13 88 e3 f8 72 55 3f
       0.1270816677302753 0.001309149795021043
000160 23 e7 e3 92 95 c6 a7 bf 4a 1c 67 47 70 c3 a3 bf
       -0.04643695276349848 -0.03860045310607825
000170 33 75 06 12 c8 47 86 bf ed 0a b1 b4 a6 c2 9d 3f
       -0.010879099893652188 0.029062847879923238
000180 d2 e1 9a b3 43 46 b1 bf 90 f3 ed 42 f1 12 ad 3f
       -0.06747840056312462 0.05678514425287695
000190 9f a1 a1 36 48 29 b0 bf 82 6d 07 56 86 99 8d bf
       -0.06312991460584393 -0.014452981472394159
0001a0 96 30 a3 26 4b 2c a0 3f e5 36 b3 20 af 29 89 3f
       0.03158793303154643 0.01228653734724667
0001b0 ef 1c 30 19 9c 7f 9a 3f f7 62 10 16 70 92 55 bf
       0.025877417600011773 -0.0013166517821955861
0001c0 eb c4 c4 6b 21 d6 92 bf 16 6e 3f dc 74 a7 ab 3f
       -0.018394968226123003 0.05401196659633116
0001d0 da 51 c6 32 0b be 9d 3f bc 15 93 80 da 8e 3a bf
       0.029045271848717615 -0.0004052432492012944
0001e0 3d cf dd a3 c9 ae 81 bf c4 18 7e b2 24 cd 62 bf
       -0.008634162247950545 -0.002295085596361353
0001f0 57 e2 79 d9 3e 89 a3 bf 6e d7 f5 3b 1b a8 b0 bf
       -0.03815647511232061 -0.06506509984850847
000200 70 fd 39 9c 21 92 b5 bf 52 4c 1f 84 67 2d 9b bf
       -0.08426103653072459 -0.026540391387083702
000210 65 bd 25 58 7e 01 ba bf 8b a7 11 ce 6a a5 d0 3f
       -0.10158528949772501 0.2600962650673117
000220 e5 a0 16 05 b3 9e a6 3f 24 e6 24 b2 88 3c 98 3f
       0.044179529544011754 0.023668418763213364
000230 30 3d 75 23 7f fc 15 bf 65 f4 e9 4f 78 64 5e bf
       -8.387113563411842e-05 -0.0018550085948441316
000240 fb 68 ee ea 78 b0 ac bf 02 7a 21 5a bd cf 91 3f
       -0.05603387706578818 0.01739402639975119
000250 0f 3f 45 3e 7e 64 9f 3f 4c 1c e4 37 c7 67 37 3f
       0.030656788397492692 0.00035713781098007237
000260 be 4e bd ec 40 16 93 3f 33 1e b1 c7 43 96 73 bf
       0.018639578294211694 -0.004781975522810056
000270 f2 da c2 73 13 e6 b1 3f e2 58 b8 07 90 1f 88 3f
       0.06991693092536957 0.011778950915907808
000280 f9 e0 bd 34 9c d7 73 3f 26 f0 41 fa c2 2e 75 3f
       0.004844293765806856 0.005171548491599542
000290 8f f9 ac 73 37 40 83 bf e5 05 b8 d6 df d7 bb bf
       -0.009399827211038296 -0.10876273147734812
0002a0 6a 7e 2a 00 aa 05 37 bf 94 a6 1b 98 86 84 96 bf
       -0.00035128975302176643 -0.021989920648513975
0002b0 11 88 a1 ef d6 b4 af 3f 04 69 0b cd e4 e5 79 3f
       0.06192657160933391 0.006322759393436298
0002c0 ce d8 86 38 cf 45 5c 3f f6 ba b3 e1 07 3b 8d bf
       0.001725628246374056 -0.01427274854219494
0002d0 05 51 13 54 18 a3 a5 bf 9a 06 b4 34 36 c3 71 bf
       -0.04225994135200221 -0.004336559049308209
0002e0 e7 64 f7 d9 5a 95 8c 3f 06 df 8e 28 51 04 bc 3f
       0.013956746842199453 0.10944087257564314
0002f0 c9 f2 d8 fc 4f ef 89 3f f3 52 6d 44 ce 3d 85 bf
       0.012663483527938795 -0.010371791327693702
000300 df 4d 71 d5 7a 4b c6 bf 06 f5 b7 91 0f 10 72 bf
       -0.1741784612846535 -0.004409848038901437
000310 1b a9 f1 91 43 1d 71 3f a8 c7 bf 2d 65 d0 97 3f
       0.004178298898390299 0.023255902211481022
000320 34 69 e2 f7 35 33 82 3f b1 b0 44 3a 89 39 c2 3f
       0.008886739375431142 0.14238086075909487
000330 a1 62 76 4f dc bb 98 bf 3c e3 91 1e ee 27 be bf
       -0.024154131269457427 -0.11779678579649738
000340 68 26 37 05 ba 43 96 bf e0 c6 a9 b8 12 90 ac bf
       -0.0217427316363569 -0.05578669075192777
000350 05 fb 28 55 72 90 75 bf cb 1e a5 5c a2 1a 98 3f
       -0.005264708148898793 0.023539101509668463
000360 6d 8e f9 f9 0d 23 aa 3f 9e 2b 9d 96 40 b5 b6 bf
       0.051048695339685014 -0.0887031905851203
000370 03 8d 1e c6 9f 3b 95 3f ad 68 73 e5 60 95 a0 bf
       0.02073526045536501 -0.032389667519696054
000380 4e a2 5f b7 f6 5e b5 3f da 98 ba 61 19 c4 85 bf
       0.08348028160947615 -0.010627935690831359
000390 01 34 80 1e 11 58 bc bf 08 35 d3 f3 23 1d 9f 3f
       -0.11071879381798057 0.03038459945382946
0003a0 2d 0c 2d dd f1 07 a2 3f ba 1f 24 83 ed 39 55 3f
       0.03521686386968557 0.0012955493407975486
0003b0 ae e9 78 9b a9 f5 91 3f 7f 48 3e 92 3f dc ce bf
       0.017538690675999717 -0.2410964454725821
0003c0 b7 6b fb f2 f4 ff c6 bf 85 7f 47 73 32 71 d2 bf
       -0.17968618263588862 -0.2881590009474098
0003d0 77 62 1d a7 6f e2 cd 3f 8f 9d 08 d8 1a c5 d3 3f
       0.23347278270627544 0.30890532586132563
0003e0 03 43 f1 12 38 24 80 3f 65 5c bc f3 20 e9 95 3f
       0.007881582334591913 0.021397127987338744
0003f0 50 02 20 98 b7 a0 60 3f bf 40 7b 09 7d c7 93 bf
       0.002029760916230118 -0.019315675452902022
000400 fa 86 ff 0f 51 aa 44 bf 71 56 bd 6b fb 14 93 3f
       -0.0006306548893883761 0.018634727908042274
000410 03 b9 e6 c8 e8 54 7b bf 9a 13 47 a8 d2 8a 84 3f
       -0.006672772708425481 0.010030408630777466
000420 85 1a 19 c4 d0 5c 96 3f 74 b9 42 1c ff 4b 5d 3f
       0.021838438004375255 0.0017881385147507619
000430 6a 46 24 2d 66 ea 96 3f 20 f6 ac 31 b8 4c 8a bf
       0.022378536706190756 -0.012841643348674714
000440 67 df cb 69 48 e1 54 3f ba af c9 4b fe 2c 8a 3f
       0.0012744147454082035 0.012781130493031746
000450 6b da 0c cb ed 57 97 3f 4e a1 61 f2 d2 0d 7f bf
       0.02279635955638996 -0.007581542979189072
000460 27 9f a7 a9 d0 f1 9d bf 1c c0 87 c0 42 69 6c bf
       -0.0292427638577514 -0.0034681609870332985
000470 11 05 0b ea a8 f9 50 bf 8a c7 bc 62 7f 14 ad 3f
       -0.001036086039832466 0.05679700928011673
000480 5e a7 8d ae 06 9a 7a 3f 8c 85 d1 26 59 78 9c 3f
       0.006494546986553688 0.02780284213475208
000490 68 fb 5b 0b 82 e1 71 3f 39 4b 7a 2b 7b d0 80 bf
       0.004365451799229848 -0.008210146202406331
0004a0 54 ac b9 dc ae 93 76 bf 85 79 ac ad 4d 7c 87 bf
       -0.005511935286999298 -0.011467558729745484
0004b0 fd f6 f8 de 37 aa 98 3f 40 31 b1 1f 9b 38 97 3f
       0.024086831077730676 0.022676872071586418
0004c0 8b 73 f1 41 ba c8 ab 3f 1e 8b e6 df a5 b2 8a bf
       0.05426580481500939 -0.013036056418803062
0004d0 ac 0a 96 b7 65 2c 4f 3f 90 84 8e c9 8d f3 9f 3f
       0.0009513374963464236 0.031202521731419852
0004e0 db a2 2f d9 4d 99 99 3f 17 45 40 bf 25 18 64 bf
       0.024998871212946177 -0.0024529206512019608
0004f0 5e 26 69 f2 c0 56 68 3f 3e 7b 41 90 64 ea 68 bf
       0.002971054887244403 -0.0030414547091334445
000500 40 ac 4f ed 0f f0 7d 3f 23 45 9c 6c 12 77 82 bf
       0.007309019293624763 -0.009016174258734971
000510 47 ef 38 6e 68 4f 88 3f 02 5d d4 4b 44 66 87 3f
       0.011870208610268341 0.011425527156957663
000520 75 44 8f 56 95 aa 8e 3f 9d 29 cd 72 bf 98 95 3f
       0.014973799423304105 0.021090499288484933
000530 da c8 53 90 c2 3c 88 3f df c6 b0 86 fa 9c 95 3f
       0.011834640531081343 0.021106638403756924
000540 83 b9 18 c1 17 fe 75 bf 8e 2d f4 18 ff 91 86 bf
       -0.005369274892969125 -0.011020653676061778
000550 9b d8 79 ef 8d 7a 91 bf 14 48 1f 79 e5 0e 80 3f
       -0.01706907056947014 0.007840912588935857
000560 7e 3a 55 6d 05 ab a3 bf 3c 26 93 20 63 e3 93 3f
       -0.038414163204483195 0.019422100890358104
000570 5e 05 99 8a 81 42 73 bf 8a b2 aa a8 92 16 b2 3f
       -0.0047020969591938504 0.07065693490830874
000580 70 cd 15 17 47 02 9f 3f a6 4c b1 9f 05 be 76 3f
       0.030282126220709527 0.005552312820401506
000590 51 69 9d 76 9b c7 70 bf 1f 70 96 c0 ce a6 8d bf
       -0.004096610335034904 -0.014478316547688106
0005a0 ea 83 97 2c fe 85 43 bf aa a9 9d 53 51 89 64 bf
       -0.0005958071789643447 -0.0025068844233164427
0005b0 5b 5c c6 ac 00 b0 ab 3f 25 31 e8 32 74 f1 b1 bf
       0.054077168551139386 -0.070090544155566
