data/citylearn_challenge_2022_phase_1/models/params16.npy (npy, 1600 bytes, 1 tensors)

array f8 [184]
-0.21204388225114265 -0.09080592200822002 0.10537966307652463 0.48050878067441816 0.7073715847482878 -0.041471313968623975 -0.054926163410571834 -0.07801627972193073
0.006069936355246036 -0.15966586985887876 0.1461850442374545 0.3204989459043167 0.4263766604536084 0.42903282204000653 0.4822145224366274 0.4754352680890739
0.4647627863615416 0.22864677024826288 0.107642971819732 -0.02899069052241712 -0.0120102125148037 -0.08383960848101683 0.008532689127433936 0.2312701605117013
0.1341449674076873 -0.12903908711630394 -0.06684160521882906 -0.20223463708697434 -0.05422729213168136 0.04317236601161583 0.1087571649953749 0.05239148896099935
0.04408279772605722 0.01005962460894522 -0.017999875367137083 0.00890342010217359 -0.025348177389763395 -0.023795965547506046 0.051722761715687425 0.050943911838396486
-0.06660276269228373 -0.04110226181634981 0.13049981977857594 -0.005756205352888106 -0.044070014723693554 -0.03976145833841868 -0.011107326945902688 0.028915027898834766
-0.06841774988952365 0.05310469949914058 -0.06660636613847161 -0.013275507695335344 0.032042953064732226 0.012925004655009563 0.026891372039498897 -0.0046773739381241524
-0.023618675047984698 0.05964217935677903 0.03296501653893817 0.0020968511897846613 -0.008185371966622145 0.0025496538273950594 -0.04221207514262031 -0.06732468227198402
-0.08401755692779177 -0.020770629441293254 -0.10350056311382236 0.2610120900133975 0.04658558850170445 0.022922422644426683 -0.000873656975367362 -0.004067015024584117
-0.05624415265675424 0.016754093336908003 0.032283666504530045 -0.0010761758586563127 0.019432376260763263 -0.002901519804081427 0.06878677404683049 0.007865929153315875
0.0068965739668522055 0.006273265471004981 -0.013265552149809035 -0.10722922157065336 -0.0016400953876948724 -0.02273476480574002 0.058140126103531684 0.007151574567231771
0.005088601269970447 -0.019189540164219095 -0.03844174499202678 -0.005587423408078514 0.015566202974937868 0.1044444628177684 0.013277201240076952 -0.007258126627797554
-0.16916238070233394 -0.0053139799707710555 0.005469118478930613 0.019360666238548145 0.005539981200803789 0.14524081799913058 -0.024675062474738576 -0.11113559828286837
-0.02658592508801132 -0.056648558131619765 -0.006072438042271042 0.025533192915014723 0.05375482118887235 -0.08872250385477168 0.01725175204383568 -0.030459990109518383
0.0824093555894457 -0.008028477552276921 -0.1129644589707265 0.03111535856987606 0.03314975867119929 -0.0018473595447545037 0.02188587497026047 -0.24138718006032264
-0.18376165863323216 -0.28679660831799547 0.23421872630662174 0.3085116601755027 0.010296602195244009 0.021491528294997474 -0.0007652534446659701 -0.013918034547441348
0.0053858586118850325 0.017955178347189037 -0.0022481739052260187 0.0066846199411281 0.019010084841549747 -0.0005262838023663121 0.017659425612608852 -0.005491093120517936
-0.000877909614404134 0.01822173558781492 0.020797786864193306 -0.009075939915930649 -0.02603917899950982 -0.007867353481483711 -0.003528387805776672 0.05602547088287947
0.010945124500750181 0.02541739239848963 0.006764731275731177 -0.01375918700111804 -0.008251608465743234 -0.02300663817723996 0.020510162730240648 0.022547349005795764
0.05705287458390058 -0.010665305690420542 0.003277820571696223 0.029274125941161046 0.024352039619023488 -0.005216772504167558 0.007840096502041483 -0.0055038795090871125
0.004324436909047389 -0.00845033617175168 0.009540040745302784 0.01377129526312247 0.020518011204054203 0.020781767928522092 0.011064804631431474 0.023595942581064375
-0.010830242778666153 -0.014728150635436598 -0.017415277143785258 0.004926501938363766 -0.03977864178011823 0.021756067344306393 -0.00546948920872428 0.07032053655391277
0.030068600120081147 0.00920204047850459 -0.0038993028649701427 -0.00960214917693326 0.002077358530102204 -0.004739225374479294 0.05001806453343044 -0.06823816343640726
00000000: bbf2 ca01 4124 cbbf 60f5 4e91 0e3f b7bf
00000010: 8cc1 935e 29fa ba3f 64ff 9be6 a7c0 de3f
00000020: 84a2 d3bb c9a2 e63f 794d 6f62 ba3b a5bf
00000030: c918 1637 481f acbf 7a16 f6f9 dff8 b3bf
00000040: ad40 2722 cadc 783f 4467 aa64 ee6f c4bf
00000050: dc03 1508 31b6 c23f d6ef c302 0e83 d43f
00000060: ad42 1b55 c149 db3f 77a2 e414 4675 db3f
00000070: 7361 e14c 9adc de3f 24af f30b 886d de3f
00000080: a185 f469 acbe dd3f 41b2 4620 4c44 cd3f
00000090: dd28 9c63 7d8e bb3f c79c ba4e bcaf 9dbf
000000a0: 35b3 c06f cf98 88bf bb10 8938 8376 b5bf
000000b0: e17d fe25 9679 813f 661e f8b7 429a cd3f
000000c0: 3f31 f88b a92b c13f fbfc 8851 5a84 c0bf
000000d0: c650 6d0c 881c b1bf 0918 3418 d3e2 c9bf
000000e0: e62d 83fc adc3 abbf f7be 3838 b01a a63f
000000f0: 1f5e dc72 82d7 bb3f c43b 5aa7 0ed3 aa3f
00000100: 0865 193d 0592 a63f 62c6 a4f5 239a 843f
00000110: 7cbe 2230 8f6e 92bf fb83 4ad1 f43b 823f
00000120: eae4 9b63 dff4 99bf 598f 3637 f85d 98bf
00000130: db2b 0ee4 677b aa3f ba6c 8d06 5215 aa3f
00000140: e92b 96ef e00c b1bf b2f0 950c 5b0b a5bf
00000150: bc9b 0ad5 37b4 c03f eede d59b d193 77bf
00000160: d2eb f14f 5890 a6bf 3cd8 6826 9d5b a4bf
00000170: cf3c d42f 70bf 86bf f0f1 c0ac e69b 9d3f
00000180: 28cd 3d5e d383 b1bf f6b5 3907 8a30 ab3f
00000190: b927 4564 1d0d b1bf 3435 1d7b 3030 8bbf
000001a0: 4be8 f516 ef67 a03f 7fef 59c2 6c78 8a3f
000001b0: 271e d16d 6989 9b3f 67c8 8601 9528 73bf
000001c0: 2eb0 9f73 7e2f 98bf 4b5c 9973 6b89 ae3f
000001d0: 06c8 e467 cae0 a03f 2a4b 1c69 6a2d 613f
000001e0: 33c8 3707 7ec3 80bf 4cc8 c0f9 02e3 643f
000001f0: 07bb 7734 d29c a5bf 045f 92bc 303c b1bf
00000200: 6770 4bb3 2c82 b5bf bdb6 ab58 e544 95bf
00000210: ee02 b14d 037f babf 2df6 9d0d 6cb4 d03f
00000220: eed2 28f6 10da a73f 425f 69be f978 973f
00000230: b050 8d11 c4a0 4cbf 3deb 5d08 93a8 70bf
00000240: f604 8198 08cc acbf 5919 d32b fc27 913f
00000250: 5cf2 a917 7c87 a03f c6f6 8707 cfa1 51bf
00000260: 2d1c 18b2 14e6 933f 75ea 5995 edc4 67bf
00000270: c5b0 ed90 029c b13f 0caa ba23 031c 803f
00000280: a8f0 45fa 943f 7c3f 3bee 97e0 feb1 793f
00000290: edab 2c45 f82a 8bbf 6d4d d2cf 5f73 bbbf
000002a0: c9aa 5b03 0fdf 5abf a8a7 4a3d c847 97bf
000002b0: 5e64 66e8 8ac4 ad3f 5241 192e f84a 7d3f
000002c0: f02b 9700 c9d7 743f 12ef b83d 6ca6 93bf
000002d0: 6e77 15eb a2ae a3bf 95d7 e78c d6e2 76bf
000002e0: d81f 9a65 2ce1 8f3f 56f4 0c50 dfbc ba3f
000002f0: d34a dec8 1331 8b3f f024 f287 b2ba 7dbf
00000300: 493e 6ae6 1ca7 c5bf ce1a faa2 1cc4 75bf
00000310: 014d 1450 c966 763f 7e18 4b51 48d3 933f
00000320: 7f1b 3f61 17b1 763f f4de ac49 4097 c23f
00000330: 174c 6c69 6b44 99bf 32db 0bf0 6173 bcbf
00000340: edcc 253b 5739 9bbf d5eb 1431 0a01 adbf
00000350: 4ad2 c6ac 69df 78bf d339 2192 5f25 9a3f
00000360: a55e 047e c085 ab3f f2b8 799c 84b6 b6bf
00000370: a4d2 4e7b 71aa 913f ff6d 6d55 e730 9fbf
00000380: 661f 248f c718 b53f 5e89 3004 3c71 80bf
00000390: 19bd e320 3deb bcbf 4cfe d75d b4dc 9f3f
000003a0: 60e7 b952 01f9 a03f d9fe 0835 6344 5ebf
000003b0: 9469 f734 4069 963f 1f31 046e c6e5 cebf
000003c0: 4552 0b85 8085 c7bf ba16 5529 e05a d2bf
000003d0: ef81 cc14 e1fa cd3f 5cdc b8b0 a7be d33f
000003e0: 9309 828d 6216 853f 461b ac0c e001 963f
000003f0: 368d 4d42 6913 49bf 4699 a5f9 0e81 8cbf
00000400: 9c33 9569 7b0f 763f d61a 2e9f d762 923f
00000410: f1df c12c c36a 62bf e689 8800 5561 7b3f
00000420: 3d2b c132 6177 933f 6820 1bdc c93e 41bf
00000430: 8ea2 e3fd 4f15 923f 455d f315 d47d 76bf
00000440: 783b 968a 70c4 4cbf bf3f b4f9 b7a8 923f
00000450: febf a4d9 034c 953f 247f f408 6896 82bf
00000460: 84ce deb8 03aa 9abf 02b9 454f c21c 80bf
00000470: d824 78c7 90e7 6cbf 12b4 5eda 5eaf ac3f
00000480: 1a3f 40be 656a 863f e589 6754 0407 9a3f
00000490: 7824 87b9 55b5 7b3f 17ca 83d1 c62d 8cbf
000004a0: 3b84 ff23 38e6 80bf 6ea4 3f5a 0d8f 97bf
000004b0: 01e9 a5b8 9d00 953f 9595 5dfa a616 973f
000004c0: c916 f6cc 0836 ad3f 3139 2319 b1d7 85bf
000004d0: eafc 0a85 16da 6a3f 7724 2556 09fa 9d3f
000004e0: 6fb6 04b7 bdef 983f aab5 bcb4 2e5e 75bf
000004f0: 600b 97f0 770e 803f d4e8 e167 3c8b 76bf
00000500: 0a4d 9131 80b6 713f 25a8 fbeb 684e 81bf
00000510: 7c56 0798 ba89 833f b7b7 3af6 1f34 8c3f
00000520: 8bc8 666c ac02 953f 0e9c 6cd6 d047 953f
00000530: 10a1 3af0 24a9 863f 49dc d0e6 8829 983f
00000540: 723e 5694 2a2e 86bf 6664 7aea ca29 8ebf
00000550: 4d22 2277 4fd5 91bf 15df 57cb cf2d 743f
00000560: 9dc0 0cbb dd5d a4bf 6cf8 eef6 3847 963f
00000570: 9ecd 6fd4 2c67 76bf 6e79 bcd4 8600 b23f
00000580: 7ae7 9b98 4dca 9e3f bf0c 4bf7 84d8 823f
00000590: 7c28 0849 6ef1 6fbf 466c 7da5 4aaa 83bf
000005a0: 6a06 5d5e 8904 613f bf41 de1f 7069 73bf
000005b0: d8b6 c2be f79b a93f ac68 4c68 0e78 b1bf
