data/citylearn_challenge_2022_phase_1/models/params8.npy (npy, 1600 bytes, 1 tensors)

array f8 [184]
00000000: a572 d565 5691 f03f 2166 e99c c321 c83f
00000010: 3ed7 9470 cb4a cfbf be48 25df e179 c03f
00000020: 1ce2 0d17 6be1 c03f 092b ff59 336e c6bf
00000030: 99b0 699d 747a b9bf c04d f817 e8cd c3bf
00000040: ad30 7dab 93a5 793f c84c fad8 355b d2bf
00000050: b6d0 4b3c fea2 c73f 1b17 b442 fa29 d73f
00000060: 6164 f09b 9cc2 de3f a28d 6edb 578a de3f
00000070: da90 4f7a 4c26 e13f d0bc 669f 5ffa e03f
00000080: 0ac3 88d6 59c5 e13f 2880 6ae4 82bf d03f
00000090: 4115 87f1 b12f b93f 78ba 6e7f 526e c23f
000000a0: aab5 60bd 173a ca3f 2c4d d11c 6674 bb3f
000000b0: c241 4d22 adb6 c5bf 37b1 6896 5180 b23f
000000c0: 4e60 18c7 5684 c63f 3190 11c2 7e4c b9bf
000000d0: b96b f81b c148 b1bf 9caa c198 ace2 bbbf
000000e0: b373 3c0c ec85 c4bf d6a2 49a3 3435 b03f
000000f0: 9256 e13d a427 973f f7e2 bd9b d7bf c1bf
00000100: 6a4a 8a8b cc36 a43f 12b9 3264 bd9a a8bf
00000110: 0bfe 7109 36a0 74bf 0d20 4ef0 c2e2 79bf
00000120: bd09 0d0d 4c91 963f 7702 97a1 2dbd b7bf
00000130: 8c08 0dce 5587 b1bf fb83 3ceb 5af7 a13f
00000140: 9a89 5f02 1062 b93f 757c ff56 7a7c 9cbf
00000150: 37b8 e64a 082e c5bf 36e8 390d 00f0 a43f
00000160: ff17 0226 4421 a63f e46d 41b1 8d82 a03f
00000170: ce77 b761 8ecf a13f 8ebd 694f eeec 86bf
00000180: 3173 0376 39a9 843f a6f5 d0c1 aa78 af3f
00000190: 6013 45a9 62b1 a83f f89b 9904 d95d 993f
000001a0: 5fe9 148c 9fe8 88bf f357 7f0d 8ef0 823f
000001b0: 902a 2c89 7b06 abbf a0ab 3b9a c7a3 3abf
000001c0: 8c6b 09c6 cf55 8d3f f919 404a 92bb 90bf
000001d0: 1cd9 c3ea 8951 7b3f 8e71 f83f 6d8f 9f3f
000001e0: 2535 47f4 c9c5 be3f a1b4 ddfe 8e02 99bf
000001f0: bda5 a04a 3219 7fbf 66bc 51dc 7e2b a33f
00000200: 7079 83a6 a066 b43f 6cc1 4587 06bc 64bf
00000210: 1a48 f306 27d7 9ebf 53b1 7416 6242 b83f
00000220: b347 548d 1667 7ebf 2cd8 02d4 02ef 873f
00000230: 207a edc4 dd47 903f df7e 393d f2b7 a23f
00000240: 7fcc 7ac1 4fe1 a5bf 9940 0474 aa8a b0bf
00000250: e2f6 2c13 1ebf 85bf 2ea3 4af7 efff ac3f
00000260: 1b25 c5b7 aba8 9b3f 56e7 c61f b78d 8dbf
00000270: ee26 bc21 afcc b23f acbf 85e0 fa2d a33f
00000280: 1475 2aa3 dc89 7ebf b866 012a 5419 a1bf
00000290: 3e70 ca37 c876 a4bf 450d 886c 7704 ae3f
000002a0: a7a8 0dc6 b10f b23f 6106 722e d8c0 c33f
000002b0: 3301 cbd7 61e1 a03f cd11 c542 841e 9cbf
000002c0: 3e6c ffa8 1e28 80bf b52d 8485 8bcc 4fbf
000002d0: dcae 184d cda6 6d3f 5d66 2f04 9d04 813f
000002e0: 7824 e88c a3d4 ab3f 8cc0 a492 af7c a83f
000002f0: ba68 eb54 81a9 b1bf 4401 d045 c690 aabf
00000300: 30da b719 213c c03f 7879 34b4 2a3b 943f
00000310: 9852 6141 77fd 9bbf 29a1 b175 7f17 a9bf
00000320: 0584 a0c0 c98b aabf b258 e297 d1aa 97bf
00000330: 2bbf cb5c a735 c0bf 657b a4b8 4ce1 b13f
00000340: f54e 4f61 4491 913f 6b10 cae1 c448 933f
00000350: 1cfd f14f 0425 82bf 1f7a 3f47 031c a1bf
00000360: 45b1 5f4d 8389 7dbf 21e8 fb62 24ae 90bf
00000370: 9a5d 9642 eb8a 96bf e7b4 3a9f e4f4 87bf
00000380: 7678 ddee 09ac a13f 36d1 da2e 317e 743f
00000390: 7256 aed0 5da3 99bf 17be 6983 3a90 a43f
000003a0: 73bb e47d 858e 943f e537 fe08 f62d 853f
000003b0: c3be 2e06 d37b a6bf c777 450f 5718 d53f
000003c0: a150 e3ad 35f3 c8bf f01d 26cb ac0b c6bf
000003d0: 961e 6a0c 9778 d0bf ca3b ef74 6769 c6bf
000003e0: c49b 42b2 b1b6 723f 408a 5c45 4e68 71bf
000003f0: c500 79c6 8f64 883f a141 cdaf b759 9dbf
00000400: 0a67 f3d4 301b 88bf 3032 c127 2fff 8f3f
00000410: 48ee 7ca9 bb23 973f 6d63 03e4 9b16 80bf
00000420: 1a2c 2507 92c7 843f 1965 d550 35c3 60bf
00000430: e64e a8a0 a2f8 953f e93c 2639 9a10 9dbf
00000440: 99e7 bda4 1879 a23f 278f 3600 d605 733f
00000450: 03e1 7eb4 2b11 b43f e047 9d92 91b9 69bf
00000460: 433b 38dd f758 703f c2c0 1bec b2bb 85bf
00000470: 2dc8 4e42 991c 753f 905d 6d41 23c1 63bf
00000480: fe67 85df ca36 6b3f 8e94 3b07 9fd4 7dbf
00000490: 8e27 c518 5efe 913f 78f4 ea5c d59d 873f
000004a0: ec76 68cd e373 863f 15ee ce05 2517 7abf
000004b0: a1d0 eeb8 0bc7 94bf 3cd8 d8da 43cb b33f
000004c0: b7b1 8ab4 09b6 62bf 3604 de8c 33fe 993f
000004d0: 0c75 6c8d 8ddd 74bf 5ed7 2b73 2172 9f3f
000004e0: d1f2 da92 c247 813f c461 9c5a 57e8 75bf
000004f0: 8be8 43b8 8c72 8d3f 42ac 846a 66f3 8abf
00000500: fc57 c61d 4926 733f 4040 c0e0 b2d4 823f
00000510: 989e 4cc3 0dda 20bf 0392 fdc9 5e13 553f
00000520: f22b af6d 149a 833f b4c2 aa96 544d b43f
00000530: e413 b550 aa97 a53f 3c3f 74d7 87bc 78bf
00000540: 7526 6183 1725 883f c6f9 18e1 1d31 903f
00000550: 88a1 1f96 6c9c 7e3f 6f91 66f3 a592 6dbf
00000560: 5ddc a13e 59b1 883f a204 d9b9 ba4a 8f3f
00000570: cdf4 50f1 dc9d 8bbf 034e 2c20 2bd0 40bf
00000580: c729 fe21 8c29 a53f decf 28c1 0d69 a73f
00000590: d4e9 0f8a a631 863f 15cf 79c6 41cd a4bf
000005a0: a5e3 afc9 37a5 8bbf 03a0 9cb3 4b08 b3bf
000005b0: a6c8 0be9 a060 92bf 98fd 214c 8091 a2bf
1.0354827859766058 0.18853039895729842 -0.2444700526918328 0.12871955295356047 0.13187922120757 -0.17523805517551974 -0.09952477305495434 -0.1547212712326722
0.006261422000374645 -0.28681703747970433 0.18466165489338032 0.36193710817347985 0.4806281588403803 0.47719379834071607 0.5359251393206492 0.5305631745631221
0.5553406896707156 0.2616889219880272 0.09838401934310516 0.14399176809589043 0.20489784953080675 0.10724485591463367 -0.16963733839885548 0.0722704879960404
0.17591366502233757 -0.09882347333911025 -0.06751639302130642 -0.1089275238934228 -0.1603369769808559 0.06331185328020736 0.02261215808569845 -0.13866705994202963
0.039480583223071644 -0.048055571061342076 -0.005035601693748069 -0.006319772223726272 0.022038639351430456 -0.09273038096490348 -0.0684713008932098 0.03509029504335356
0.09915256555499355 -0.027818595466552815 -0.16546729714667816 0.04089355622723227 0.04322255100218796 0.03224604405178491 0.0347866529734656 -0.011194097326749721
0.010088395036683547 0.06146749130173683 0.04822834316522662 0.024772063165439534 -0.01216244360204105 0.009247884547146845 -0.052783833021824766 -0.00040649054629565175
0.014323828917601998 -0.016340528280148068 0.006669558275680634 0.03082056715912667 0.12020551885435234 -0.02442382269457666 -0.0075923885833985546 0.0374412197060046
0.07969097199700115 -0.002531063795849933 -0.030117616461957743 0.09476292656171852 -0.007422531217587225 0.011686346144738811 0.015899148125180784 0.03655964848871717
-0.042734615676999425 -0.06461587269245896 -0.010618433914369733 0.05664014714904507 0.027010615436016665 -0.014430456788307271 0.07343573163612024 0.03746017447235714
-0.00745569406958892 -0.033396368148442546 -0.03996873551406609 0.058627826689213104 0.07055197797095279 0.1543226458343723 0.03296952971641289 -0.027460161757760383
-0.007889022381212137 -0.0009704285867270709 0.0036195764339675817 0.008309580507489029 0.05435668082288542 0.04782627739985043 -0.06899269412261591 -0.05188579179957967
0.12683500057001273 0.019756953476752298 -0.027334082952011757 -0.0490073996705312 -0.05184774853137956 -0.02311255921866779 -0.1266373828034316 0.06984405048249938
0.017155712546652564 0.018832279473386764 -0.008859666528449987 -0.03341684574819603 -0.007211220645313714 -0.016289299527649462 -0.02201430887143161 -0.011697565182965565
0.03451567688783623 0.005003158684918232 -0.02503725610912117 0.040162876645691785 0.020074926194122832 0.010341570043035328 -0.043913454537116724 0.32961060038894313
-0.1949221705496074 -0.17223129195575337 -0.25736023151737564 -0.17509167871182135 0.0045687619459959285 -0.004249864335891973 0.01191055607262149 -0.028662557702149653
-0.011770612238638307 0.015623443985668478 0.02259724828694079 -0.007855623145972957 0.01014627537064965 -0.002046207554184176 0.021456280761483003 -0.028383645761604823
0.036080141172489984 0.004644237461807233 0.07838700443869943 -0.0031402438370742164 0.003991096705717126 -0.010611913519341324 0.005154226940179679 -0.002411431177659025
0.003322025524693294 -0.0072828495064857345 0.01757189775643258 0.011531512163282395 0.010963229852730426 -0.006369728679540572 -0.02029054943314235 0.07732032864518684
-0.0022840680652136086 0.02538376376424286 -0.0050941018478429904 0.030708811430450005 0.0084376526896163 -0.005348530985223868 0.014378642438249286 -0.013159561277083513
0.0046751838784953 0.00919475315461693 -0.00012856882099153834 0.0012863565134121353 0.009571227643297296 0.079304968627876 0.04217273936459501 -0.006039171820944319
0.011789497086414283 0.015812365402092764 0.007473396459296906 -0.0036099663950201403 0.012057015632519869 0.015279253765699888 -0.013484693636309686 -0.0005130968641843817
0.041332606458201186 0.04572337134268854 0.010836888397524648 -0.04062848613548745 -0.013498721926213106 -0.07434533247999302 -0.01794673368835533 -0.03626633576731847
