data/citylearn_challenge_2022_phase_1/models/params27.npy (npy, 1600 bytes, 1 tensors)

array f8 [184]
00000000: be9a 89a0 3fee d43f 56a9 7d6a e5c7 c33f
00000010: 2aac e342 2f14 c3bf 023f c1d2 f7db e8bf
00000020: f24d d18a 8b60 cd3f 3d50 f09d cfc6 7fbf
00000030: 222e a550 d8b0 94bf a454 0afb b8db 29bf
00000040: d941 a72a d4d1 79bf d6b5 a074 41c9 c43f
00000050: 06c1 15cd c134 be3f fdf8 74f6 1ea8 cebf
00000060: e71a aebb 36d8 d5bf 4df3 3427 bbbf d5bf
00000070: c3ac 7f4e 2f7d d8bf 2512 17a0 86da d7bf
00000080: 4704 5577 06d6 d2bf 139d e6ac 8152 c0bf
00000090: b046 47e0 1a66 85bf 9902 1a0a b5ee a93f
000000a0: dbf8 9118 e0ef acbf e551 9521 15cc c73f
000000b0: 1f55 f221 138e d33f 961e c248 4b2a 8fbf
000000c0: ef19 beb3 39f1 c6bf 67d6 875a 4e6c c43f
000000d0: dba7 ebff 73e7 c33f 5129 9e2d a7fb bb3f
000000e0: 43f3 827c 136d 9e3f a5a8 94c1 8835 a83f
000000f0: 1a24 c355 42ee bb3f 2037 8b6c 95f5 b33f
00000100: 517a e4f8 9e96 9cbf 1d81 d5be f51f 6abf
00000110: e9b9 d411 9e94 903f abaa a486 f8d7 a33f
00000120: 2baa 5ee1 e200 81bf 3da6 d8e3 02a3 a4bf
00000130: 508f 7fdf 2142 813f 96c4 0716 c292 993f
00000140: d663 f64b 55f0 31bf 7e23 be51 f57a 79bf
00000150: 37e9 ab20 7a06 be3f d740 8682 6a04 abbf
00000160: 88c6 c679 b9d1 b2bf d7d6 2fc0 5b5a a3bf
00000170: 7205 e420 d2cf 8fbf a409 7208 ca20 8ebf
00000180: 0c3a 9a30 37cb c0bf bded 78b2 d703 ca3f
00000190: 65e0 9f6c 4eb2 7c3f 0898 7044 1d55 703f
000001a0: c8d2 3d6d 182f 96bf 88d9 847a 7f4e 8d3f
000001b0: ad5b cb7b d9d3 8bbf e6ba b754 2900 5e3f
000001c0: 51e3 9a5e ace5 96bf b5ba 406f 8082 733f
000001d0: 3529 9a8c 8074 a73f 87d0 6506 a8d2 7c3f
000001e0: 0d8d 47e5 4b87 aa3f f725 df8f 0a14 953f
000001f0: 26f5 b38c 402f 613f 0a15 fe77 e565 91bf
00000200: 38be 6912 e450 a8bf 853b 48b3 98f7 b5bf
00000210: d4d3 663a 535b a23f 55b6 832a 298b a4bf
00000220: 709d cb39 954a af3f cde9 db8a ed9f 903f
00000230: 146e 1749 ee57 80bf a76f f3d9 4025 7dbf
00000240: 68f4 8626 5464 a0bf cc75 2517 8157 693f
00000250: 78fa db40 e06e b13f 9e9c 3bf6 8f7b b13f
00000260: edc5 3087 4bf5 99bf 3987 938a 332f 9abf
00000270: 3613 3e7b deee c3bf 8be2 e335 997b 96bf
00000280: 3747 a3af 2656 933f fcf1 ca1b 600f 823f
00000290: 3fc3 0c7c c8de 833f e764 51ef 6cef c23f
000002a0: 0fd5 116a ee5c 863f 9003 b6b9 95c4 b3bf
000002b0: a2d4 c64c 33bd a2bf 2aa2 4c10 9b22 a3bf
000002c0: 5b8b 4f03 5018 84bf 67c8 fbe4 8259 a73f
000002d0: f82f 0719 5054 9d3f 8de6 5c1a db88 c2bf
000002e0: 8f2c 3b17 5909 b2bf 89de a93c 30d7 6a3f
000002f0: d3f8 ae90 bfcd b13f 941a 5e64 486e a23f
00000300: b4e9 f081 f6bf bdbf caa8 06a2 5204 893f
00000310: 839b 7df8 3bdf 873f 6074 b59f c5bb 873f
00000320: 0e5b 4cb3 a4b0 a43f 7539 69e6 76d7 983f
00000330: 9296 4fa7 7281 a53f d8b1 7649 236f a33f
00000340: f93c 5761 7cbe b53f cdd8 4d46 fcc2 993f
00000350: 1373 aa05 d0af 90bf 512a a2e3 b796 503f
00000360: e387 baea cd66 aabf cc4a 78e1 92ef b13f
00000370: 48be 4158 5269 b23f 3157 f0e2 4b6a 88bf
00000380: 1d01 7f58 a574 b1bf b202 01e9 d196 893f
00000390: 0a43 38b2 425a ba3f ac14 8796 48f1 873f
000003a0: 4d36 72f0 911a 70bf ebbc b698 61ad 7e3f
000003b0: e224 794d 86dd ae3f 5cf1 16de 55b7 cebf
000003c0: b96a cb0d 355c d0bf 042a 4643 4e48 ce3f
000003d0: a838 8650 88e2 d33f da0b 55b4 e209 cabf
000003e0: 646a e1ba 4812 8a3f 3677 d6d9 2410 a0bf
000003f0: 8e9b eb22 e5c6 71bf 3e3c 200a 5ccf 97bf
00000400: 7768 c5d3 e69f b73f eab6 ecf9 3db2 8dbf
00000410: c7ad e344 74b3 963f a0d0 cc42 54aa 87bf
00000420: b98a bbb4 50cf 95bf dcad 7071 f814 823f
00000430: 0382 8bb5 1abd 83bf e820 e779 f9dc 80bf
00000440: 3f75 5d93 a6b7 943f c445 e084 6472 a73f
00000450: dc02 40eb 17a1 7abf dafa 5f94 bef7 95bf
00000460: 70d7 1228 f3ac 91bf d712 ac54 74bc 973f
00000470: fe9d b2d2 aeba 563f 3a68 e988 01ad 903f
00000480: 6d98 a373 a5f6 633f e766 5f7a f9ea 6bbf
00000490: b27e 2900 6e89 79bf 6f39 34cb 01a6 7b3f
000004a0: 28d6 4143 5b65 923f 5022 c06d b451 b33f
000004b0: a1e3 0373 94db a5bf 659f 2ac5 1914 9f3f
000004c0: b25d 669e 81e0 87bf f2ba ec8c ae1c 913f
000004d0: 29ab 9b87 3af6 813f f634 939b 1abb 95bf
000004e0: e5c7 615a cb5f 95bf 7d38 e833 1b72 89bf
000004f0: 6213 a9c2 92ed 8b3f 2fa4 1f71 2a3a 683f
00000500: 85fc 6c00 dcb5 92bf 1c09 8538 0928 7d3f
00000510: db59 262b 11e0 a2bf b1d9 e138 7770 9b3f
00000520: bf65 7fff 79d9 763f b523 f621 fc46 51bf
00000530: 8391 7fb6 2126 8fbf b51c b91a ddd4 89bf
00000540: c689 a783 5d6d 703f e525 c067 541c 973f
00000550: e52f 3192 610f ac3f 2011 9f59 bab4 aa3f
00000560: 582f 5590 7a2f 833f 60be d70a be2e 20bf
00000570: 0c94 2ff3 4244 8fbf a840 a5fd 02e6 823f
00000580: 8234 09a7 8694 903f 0900 a218 22e7 933f
00000590: 1726 be00 08e8 703f 72b9 4b79 e904 ab3f
000005a0: 8b32 adea a0c7 953f e0c6 1cf2 dd8d 953f
000005b0: 9a8e 3eb8 9959 b3bf 11a0 af3e 85e9 a1bf
0.32704153707019745 0.15453784656285546 -0.14905348554688774 -0.7768515697771081 0.22950882223322783 -0.007757960323051147 -0.020205860063738375 -0.00019728310646330738
-0.006303623939360092 0.16239183611598546 0.11799250847775875 -0.23950564416913514 -0.34132164314398356 -0.3398273356322548 -0.382640673312107 -0.3727127612476429
-0.29431306508564997 -0.1275178999178271 -0.010448656053003574 0.05064931629477094 -0.05651760387353174 0.18591560497101436 0.3055465537557484 -0.015217388303667517
-0.17923661495679208 0.1595552389186878 0.1555008887874568 0.1093086706515909 0.0297129673715404 0.04728343356176027 0.10910429567151461 0.07796605968470915
-0.02791832346076212 -0.0031890678134659637 0.016191930616679704 0.038757101474705756 -0.00830247164033889 -0.040306177438037306 0.008426918633581387 0.024973900408387616
-0.00027372438850076003 -0.00622077777723795 0.11728633210797033 -0.05276806681934126 -0.0735126421266391 -0.03779875489264633 -0.015533105496163133 -0.014710977919325803
-0.1312016475025789 0.20324226583930552 0.007005983681658366 0.003987421346243643 -0.021664029758045072 0.014309879232865766 -0.013587664690403256 0.0018310931799267404
-0.022360509180291036 0.004763127992233042 0.04581071583113997 0.007036835048314433 0.051813480127544144 0.020584263831358 0.0020977268919738666 -0.016990266274224765
-0.047492148635566556 -0.08580927254682365 0.03585300529395111 -0.04012421268440095 0.06111589746961499 0.016235076523097015 -0.00798021469648006 -0.00711560566488948
-0.032015447333358094 0.003093483094899629 0.06809808333853506 0.06829166184944532 -0.025349788786291617 -0.0255706837969065 -0.15572720544528246 -0.021955865778155597
0.018883327932434937 0.008818388794105118 0.009702268872929685 0.14793168721624925 0.01091943989943414 -0.0772183969875313 -0.03659973442283017 -0.0373733956715266
-0.009811997509989892 0.0456047920723826 0.02864194062003375 -0.14480150973559028 -0.0704551393238708 0.003276437962366267 0.06954571993171337 0.03599764084997506
-0.11621037170781429 0.01221527630771781 0.011656254311402275 0.011588615356851573 0.04041018189143673 0.024259431660817527 0.0420032338368347 0.037957289426546914
0.08493783356174224 0.025157872954388694 -0.01629567179280673 0.0010124965470220857 -0.051565585044286676 0.07006185536037463 0.0719195809813239 -0.01192149435341214
-0.06818612490224436 0.012494697497574012 0.10293976641720462 0.011690680593242263 -0.003931589198271701 0.007489567982175797 0.06028384872167593 -0.23996995300502533
-0.25562788340691217 0.236581595276519 0.3107014452333581 -0.2034266834762935 0.012730186656132854 -0.03137316855575849 -0.0043400717392846466 -0.02325195133022028
0.09228365583604324 -0.014500126065822145 0.022168938355134473 -0.01155534581048584 -0.021298657446900935 0.008829060518187264 -0.009638031640350602 -0.008233975441627142
0.020231821770143595 0.045794621677611086 -0.006501286919956963 -0.02145288258179332 -0.017261313744448115 0.02317983404920451 0.0013872821098547257 0.01628496549742684
0.002436946056252379 -0.0034079430215400055 -0.006234578790639199 0.006750113493821138 0.017964769344379544 0.07546546630340711 -0.04269088653558773 0.03035011545094281
-0.011658680578689882 0.016710975028383986 0.008770425094061078 -0.021221557374521326 -0.020873238936878997 -0.012424671670512527 0.013636728826108505 0.0029574231093545604
-0.01827186348532141 0.007118259447738386 -0.036865746037779444 0.026796210142913505 0.00557849555476636 -0.0010545217736270655 -0.015209449178606565 -0.012613036516212576
0.004010548868310376 0.02256900676005626 0.05480484876224504 0.052160094680888 0.009367902307211004 -0.00012346334317169232 -0.015266917272990475 0.009227774968764216
0.016191581673684848 0.019436390641658394 0.004127532254537345 0.05277185063993074 0.02126933510162358 0.021048992063874006 -0.07558594463494686 -0.03498474493227389
