data/citylearn_challenge_2022_phase_1/models/params4.npy (npy, 1600 bytes, 1 tensors)

array f8 [184]
000000 40 f7 bd d9 bf a9 a7 bf 96 d6 09 58 9d ec a7 bf
       -0.04621696026786859 -0.046727101323012096
000010 9f 4e 06 83 a0 f3 ab 3f f5 92 14 86 22 6a a1 3f
       0.054593101495951084 0.0340128697082828
000020 4a 56 c0 f3 d9 c2 94 3f eb c6 43 66 c6 80 c4 3f
       0.020274549009704303 0.16017990106006805
000030 8e 81 26 5d 00 07 b2 3f ee 2a c8 26 b5 85 ca 3f
       0.07041933321170843 0.20720543283126552
000040 6c 2b 9d ea 24 21 b2 3f 03 d4 61 b1 64 35 b8 3f
       0.07081824043158996 0.09456471758478817
000050 96 23 a2 2b 10 9d a0 3f 0d 45 36 e3 6c 78 c8 bf
       0.032448296858155576 -0.19117508978209977
000060 ca ef 49 34 56 39 c7 3f ea 25 93 69 7d 9a a0 bf
       0.18143727830090334 -0.03242866433863496
000070 8c 0b 91 42 49 c5 98 bf 7b 00 3e cd 36 c0 ab 3f
       -0.024190087020780335 0.0542008519687451
000080 7d 91 f3 0b 3c 85 7d bf 8e 91 c9 bf c2 df b2 bf
       -0.007207140500416262 -0.07372681791600241
000090 4b 51 34 c3 cf 52 b0 bf 7c d8 b4 1c f7 d0 c3 bf
       -0.06376360431415155 -0.1548146143119914
0000a0 1c c1 5a c0 90 f2 99 bf 0e 86 18 97 6f 34 68 3f
       -0.025339376201999206 0.002954690885204731
0000b0 b6 a3 40 5c 71 87 c6 bf 85 15 5d 7d db 7b b6 3f
       -0.17600838665501123 0.08782741366038323
0000c0 5e de 56 ee dd e7 90 bf 41 86 22 b0 35 a3 c1 3f
       -0.01650950209815815 0.13779326534590733
0000d0 9d 2b 91 50 88 d9 c7 bf a2 b5 d4 56 4c 8b c0 3f
       -0.18632606443347025 0.1292510436991679
0000e0 23 7e 07 c1 b9 99 b9 bf 94 2f 91 55 57 68 c1 3f
       -0.10000191652897476 0.13599673917849187
0000f0 1d 83 95 60 ab fa 7c bf 41 8b 23 10 bb 2e b8 bf
       -0.007074994509225244 -0.09446305412306534
000100 7c cc 30 ae 36 ce a2 bf 6a 9b f8 10 0b b1 a6 bf
       -0.036729534877303543 -0.04431948263327608
000110 20 cd 3a 77 38 1d f4 3e 75 d1 55 5f 08 ad 61 3f
       1.9182341431456533e-05 0.0021577037356854075
000120 81 f3 85 d2 4e 6e ae 3f cf 95 32 b9 fd 26 b5 bf
       0.05943533248771527 -0.08262620707917921
000130 0e a3 6a 92 07 a3 ae bf a2 03 ad cc 73 e6 6f 3f
       -0.05983756696998031 0.0038940679272915927
000140 14 59 83 3e 03 63 b1 3f 4b 3e 5e e2 fc f8 a4 3f
       0.06791706348608201 0.04096212638171134
000150 c2 a1 1d a4 0a e8 a4 bf 24 20 3b 6b 97 d8 a8 3f
       -0.04083283666006167 0.048527461852757164
000160 1f 2f 92 ad d8 d4 a2 3f 27 b1 fb 97 4b 1d 91 3f
       0.036780139148588235 0.016713315154377597
000170 61 e1 5d e6 8f 89 8b bf 28 21 6f 59 d1 5a ae 3f
       -0.013445972650274642 0.059286634604691024
000180 1d 60 31 a8 64 c4 c7 3f 03 40 70 aa 82 60 bc 3f
       0.18568094456236475 0.11084763203712104
000190 30 26 04 19 d5 35 9c 3f a3 29 98 48 b6 f3 60 bf
       0.02754910435854735 -0.00206933595905419
0001a0 41 8d 1d 67 a9 1a 71 bf 61 66 39 26 03 2f a0 3f
       -0.004175817231814095 0.0316086753998206
0001b0 98 d1 18 9e a3 c1 a3 bf 28 52 66 dd 68 55 86 bf
       -0.03858672432798754 -0.010905093437750216
0001c0 0f d1 d7 23 74 53 75 bf df c4 5a 46 a1 11 ad 3f
       -0.005206540748521129 0.05677513107128517
0001d0 11 d9 91 3e 62 f9 87 bf c6 64 e2 bd 81 b6 81 bf
       -0.011706130537487288 -0.008648885352430812
0001e0 3e 62 f7 10 a8 e3 c1 3f 94 a5 10 3d cd 76 b0 bf
       0.13976002529558856 -0.06431277027936338
0001f0 f5 66 57 dd dc 63 af bf e2 20 7a 4b ba 4b 97 bf
       -0.061308767337051075 -0.022749815804247293
000200 38 f7 86 1c dc 73 65 3f 4e 0d 77 ba 0d 39 6f 3f
       0.0026187228251889592 0.003811384976616295
000210 a4 f1 98 5f b8 89 95 3f 12 ad 58 d8 9e a4 af 3f
       0.0210331734035535 0.06180282965609697
000220 f9 a7 e6 f8 0b 98 92 3f c2 37 3c 13 31 b5 9c 3f
       0.018158137385093174 0.028034941481614124
000230 94 8a 7d d5 64 2e 37 bf 7b cc 5e 70 d9 d7 7d bf
       -0.0003537174393299172 -0.007285928126225301
000240 49 b9 af 8a 14 d5 95 bf 79 6c b1 39 45 0f a4 bf
       -0.021320649113414167 -0.03917900399456981
000250 16 78 a9 0e fc e8 aa 3f b9 8a 19 ff 69 76 ac 3f
       0.05255878142337182 0.05559092749606038
000260 5e 98 8d 7d 78 1e 85 3f 54 a6 7f ef e8 3a 94 bf
       0.010312024432732322 -0.019755973451458367
000270 21 e2 86 33 7b 3d ca bf 36 99 9e 3c f0 54 ad bf
       -0.20500125900231672 -0.057288653755039595
000280 db 2c 03 1d dc cc 7f bf 85 1f 44 79 2e 21 9b 3f
       -0.007763728921598568 0.026493765021796917
000290 95 77 09 ed e9 64 a0 3f ac 15 db 2e d4 63 9f 3f
       0.03201991098897775 0.030654254302836456
0002a0 11 e4 bb 62 7b a6 c7 bf 0a e6 c1 20 27 d6 cd 3f
       -0.18476812668794243 0.23309792613490316
0002b0 de da 2f 86 45 2a 6a 3f b2 e6 c8 27 9d 24 75 3f
       0.003193984784498268 0.005161870849912086
0002c0 15 0b 1d 29 ea c2 8b bf f0 90 c1 97 f3 cc 9c 3f
       -0.013555364017184194 0.028125578057726253
0002d0 b0 3b c3 b6 eb 09 9b bf e6 b2 49 21 e8 3c 8f bf
       -0.026405032186456345 -0.015252889171472227
0002e0 e4 a1 fa a9 b2 c7 a1 3f 38 02 63 89 4a 6c 91 3f
       0.03472669911326756 0.017014660487577354
0002f0 3d cd c7 ff 16 86 7b 3f d8 9b e4 7f 83 79 98 bf
       0.006719674911880799 -0.02390103786560957
000300 c9 0c de f2 ca 30 b1 3f 91 4f be cf 93 5b a3 3f
       0.06715076856021364 0.037808055028249694
000310 2b d4 8f 08 fe a5 56 3f 74 ca 07 d1 1b 35 63 3f
       0.0013823490901334705 0.002344660119200365
000320 c3 51 33 aa c1 83 9a bf d2 5a fc ca eb 77 9e 3f
       -0.02589323617287832 0.029754337562816265
000330 98 b7 d0 a4 6f 18 c3 3f 51 91 cf 18 c7 e1 c9 bf
       0.14918323085424556 -0.20220268928017984
000340 72 77 f4 4d 21 d6 84 bf 68 48 6c f3 71 88 90 bf
       -0.010174045745369151 -0.016145496828422173
000350 b7 ff 5d a2 7f d7 80 3f 6f 4e 41 99 83 1d 9f 3f
       0.008223530905297467 0.03038602469344059
000360 3f 36 52 fc 84 6c 67 bf 1b b4 c6 8a 67 32 ca bf
       -0.0028593633056235575 -0.204663222085771
000370 d6 4e 03 e0 e9 8d c2 bf 08 4b 09 e3 3c 6e 8b bf
       -0.14495585859423582 -0.013393855742071206
000380 77 62 a9 1a 0f 9b a8 bf 95 60 5c f1 c4 ba 81 bf
       -0.048058006291005144 -0.008657015434025342
000390 de 98 a3 bb 04 55 a0 bf 79 d5 66 d9 db 85 7e bf
       -0.03189863958850635 -0.007451876436268428
0003a0 df 70 63 41 8a 2d 54 bf 0f 8f 72 4d 0a 52 8e 3f
       -0.00123156072145663 0.01480491684771537
0003b0 0b b6 52 81 d9 98 a3 3f 34 cb 67 03 31 2e cd 3f
       0.0382755251278973 0.2279721514347216
0003c0 62 11 0b bf 64 1e d2 bf 75 c4 15 5e 38 96 ce 3f
       -0.2831050744682867 0.23895935625072054
0003d0 6d 14 c3 83 d7 c5 d4 bf fc 0c 22 b8 09 53 d7 3f
       -0.32457530848871025 0.36444323522319144
0003e0 64 9e 9b 03 33 36 81 bf cc 21 82 a3 e2 01 95 3f
       -0.008404158160785609 0.02051500437713276
0003f0 45 c1 e2 8d 03 bd 8b bf 45 eb 7e 2b a9 92 8d bf
       -0.013544109122762502 -0.014439889564405237
000400 59 9d 40 09 51 54 85 3f cf d8 b8 3f b5 03 8a 3f
       0.010414727301464909 0.01270238495554246
000410 ac f9 20 54 53 46 90 bf 25 77 be 1c e8 41 a8 3f
       -0.015893270501914067 0.047377828129567846
000420 0c 6c 93 d4 f1 d5 ad 3f 0b bd b2 b6 c4 bd a1 bf
       0.0582728931419397 -0.03465094309046365
000430 64 20 1b 5a 83 82 77 bf fe b0 41 5d 8c b1 96 bf
       -0.005739701360376246 -0.022161668006831718
000440 8d 3e ce 45 10 6d 88 3f bf a7 ac 78 e1 17 89 3f
       0.011926772241877681 0.01225258016127728
000450 42 87 11 1f 6a 92 ac 3f d3 e8 13 7f 15 9e 88 3f
       0.05580455426458154 0.012020271244626823
000460 1d 17 32 55 fa 5b 77 bf 46 db 66 40 d4 9c 6b 3f
       -0.005702951300127682 0.0033706803835359704
000470 e4 a8 2a 6a b9 31 a9 3f be 4c b2 89 28 9d 5c bf
       0.049207491121096486 -0.0017464538457588187
000480 ff 41 5c 3d 9b 03 8f 3f 10 0b b4 a8 ea 5e 82 bf
       0.015143597421713116 -0.008970101617256115
000490 6d 31 26 2e 3f 46 7f bf f1 aa 59 c3 11 48 90 bf
       -0.007635351941996366 -0.015899922893747257
0004a0 ea ff 37 7b ce 5d a6 3f 4e aa 9f 8d 4f 5d a2 bf
       0.0436844373143684 -0.035868154562042606
0004b0 7b 1f cc 4e 76 90 b6 3f 14 22 fc 86 9b 0b b0 3f
       0.08814181731952246 0.06267711682824767
0004c0 8f 0a 62 17 7d bb a3 3f 27 6a 74 af 32 42 a1 3f
       0.03853979978977861 0.03370817558080246
0004d0 0d fa 81 f3 88 6c 8b bf 1e dc 82 f2 1e 08 9a 3f
       -0.01339060776831238 0.025421603728968838
0004e0 06 94 01 1d 14 b8 96 3f de 18 ca d6 a8 ed 74 bf
       0.02218657900847989 -0.005109462287356174
0004f0 78 86 18 ef b2 f1 81 3f 23 a9 a3 e7 25 84 86 bf
       0.008761785432457744 -0.010994239932604238
000500 69 f5 5b a7 95 b5 98 3f be b2 46 49 77 15 93 3f
       0.024130190219684353 0.018636573645994352
000510 f7 18 f6 04 94 82 41 3f 3b e3 57 6d 84 e9 4c bf
       0.0005343649626617088 -0.0008823296181495807
000520 77 94 52 34 c0 bb 6d bf ac f2 36 ce 37 19 3b bf
       -0.0036295656196494957 -0.0004134904140434086
000530 7f 5f cb bd ca 42 61 bf ea b8 4e 38 64 b3 8f 3f
       -0.002107044200197749 0.015478880852097327
000540 ea 43 db 5a ca 32 8f bf 98 12 8a d3 55 5c 7a bf
       -0.015233593843193522 -0.006435714015087378
000550 b1 e6 e2 14 63 7d 70 3f c0 68 4b 66 a6 2e e8 3e
       0.00402582839722647 1.1530984190090041e-05
000560 97 f2 92 64 b1 00 89 3f 19 42 cb 80 2c a2 92 3f
       0.012208352929854711 0.01819676910491994
000570 23 4b 62 77 88 fe 8c 3f 01 71 28 2c c6 05 93 3f
       0.014157358306226058 0.0185767139865769
000580 a6 f2 f6 6a ce 64 96 3f 10 32 43 b9 33 be 80 bf
       0.02186892059192993 -0.008175281611692703
000590 ed 1d d4 ba 21 28 58 3f 9d 5f 6b 16 b6 a9 a1 bf
       0.0014744119064874453 -0.0344979193084207
0005a0 ea 90 ee f1 64 39 9e bf 0e d1 9b 3d 97 c3 a0 3f
       -0.029515816942549934 0.03274223925646612
0005b0 87 83 22 86 f6 82 70 bf 4d 3d 7f af 86 78 a3 bf
       -0.004031146034464756 -0.038028916285493077
