data/citylearn_challenge_2022_phase_1/models/params14.npy (npy, 1600 bytes, 1 tensors)

array f8 [184]
000000 27 3a f1 71 b6 11 ca bf 5e 7d 47 06 19 9b b8 bf
       -0.20366554797733835 -0.09611660388281026
000010 fd 78 38 f5 d7 16 b9 3f f9 c5 8c 67 e1 b2 de 3f
       0.09800481545287094 0.47966799843115343
000020 49 fd 1c 4f 2c 1c e6 3f 4a 60 66 73 68 b2 a6 bf
       0.6909390969448533 -0.044329895102408104
000030 7a 0b 60 86 e0 3f ad bf 6e f7 30 c7 86 cc b5 bf
       -0.05712796821901285 -0.08515207636898278
000040 17 80 41 c1 a7 35 7d 3f a5 a2 39 bf 2a 26 c5 bf
       0.007131247799492277 -0.16522726380505506
000050 c5 13 ad 9a a0 ee bf 3f 12 8d 44 61 7d 5d d4 3f
       0.124734914553371 0.3182061624413147
000060 f1 cc 21 0f 97 34 db 3f e2 cd 1c 31 92 a2 db 3f
       0.42508484342324865 0.43179755016464416
000070 0b 39 1e 06 84 08 df 3f 7f 8e 00 04 cd 65 de 3f
       0.48489475820032685 0.4749634303172811
000080 1b a9 aa 7d 72 20 dd 3f 15 e1 34 e4 c4 c0 cb 3f
       0.45510542175419894 0.2168203462877122
000090 78 25 c9 67 40 60 b9 3f 38 06 67 10 c9 1d 9f bf
       0.09912493261176347 -0.030387059808850675
0000a0 29 21 3a 8a 5d c0 8b bf d8 f8 88 2f de 22 b3 bf
       -0.01355050161443268 -0.07475079212688074
0000b0 ec 7c 3b ce d7 cc 90 3f a7 80 07 90 18 e1 cc 3f
       0.016406413996148325 0.22561938316994665
0000c0 04 c1 3d 7f 68 1d c1 3f cc 13 1e c9 da b0 be bf
       0.13370996678305158 -0.11988608751387558
0000d0 2f 21 d0 2d 55 b8 ae bf 00 b7 03 e5 0f dd c8 bf
       -0.06000009712448883 -0.19424627954816032
0000e0 dd f3 22 6e 3b d3 aa bf 11 fb 0b b3 4c 92 a3 3f
       -0.05239282340469462 0.038225552421854776
0000f0 68 bb 34 0b 37 f4 bb 3f 27 2a 7f 05 d7 ff ad 3f
       0.10919517539580925 0.058592528744686505
000100 65 cb 43 42 db fd a3 3f 62 ce 4e 0c fc be 87 3f
       0.03904614623924977 0.011594742894749991
000110 b3 cc bc 23 90 9c 93 bf d7 67 d4 d3 f9 63 80 3f
       -0.019151928120845606 0.008003188874273022
000120 09 ef 8a d6 c3 62 93 bf fa 51 95 44 35 9d 97 bf
       -0.01893144604649336 -0.02306063872431883
000130 b1 df 73 42 e2 29 a5 3f 67 55 43 ec 5a 6f ab 3f
       0.04133517323674541 0.05358394750661937
000140 8d 0a 8b 9d 14 52 af bf f6 94 13 27 7f 16 a5 bf
       -0.061173099738444404 -0.041187261123733096
000150 bd 6f 4a 11 6f 79 c0 3f d9 9a ed 42 b9 de 81 bf
       0.12870586723590619 -0.008725592951760163
000160 d6 08 29 a9 5e 53 a8 bf 27 b7 03 e7 9a db a0 bf
       -0.04751106085724792 -0.03292545385362038
000170 ed a7 70 d1 6a f2 81 bf 94 1d 2b 8f ac 94 9b 3f
       -0.008763155476191964 0.02693433402853669
000180 8a c0 c9 7f 89 25 b2 bf 02 90 49 2d 1e 07 ab 3f
       -0.07088527078463094 0.05278868010353223
000190 01 8a 7c b1 27 0d b0 bf 00 23 b4 70 34 b2 89 bf
       -0.0627007301632503 -0.01254693001693985
0001a0 1d 50 a8 64 94 63 9e 3f e3 49 12 d4 0c 43 74 3f
       0.029676741260189588 0.004946756468728416
0001b0 d8 b3 b2 a3 6d 0c a0 3f 5b 48 2e 70 66 df 62 3f
       0.03134482024447721 0.002303791117307203
0001c0 a3 ea aa f8 b4 f4 a0 bf cf 60 4c 11 8c 1e af 3f
       -0.033116965632378446 0.060779931174865014
0001d0 dc 96 8e 3a 07 73 a2 3f 0c 8f 97 cb 38 63 5b bf
       0.036033845804281234 -0.0016716055528087108
0001e0 33 17 48 29 f2 ae 7c bf cd 7a 6d 02 2e 77 6c 3f
       -0.007002778952033317 0.0034747980711665517
0001f0 2b 3c 60 68 ef 78 a5 bf 6b 4c 11 0a f8 b2 b1 bf
       -0.041938287249756755 -0.06913709874906863
000200 bb aa 38 75 5e ea b6 bf b3 ab 8d 1b 3d 1c 95 bf
       -0.08951368676995745 -0.020615534598089357
000210 29 21 42 fa ac 77 ba bf a9 1d 95 4b 00 cd d0 3f
       -0.10338860616514424 0.26251227742292343
000220 c6 b3 08 0d c3 26 aa 3f c9 0b 75 9c 35 0c 8b 3f
       0.051076979962409605 0.013206881367869532
000230 81 4e 1e 2d bb 54 63 3f a0 5c 9c 4d 3a 20 74 bf
       0.0023597389017114283 -0.004913547274347924
000240 20 21 bf a7 87 04 ac bf 66 01 83 e0 41 af 90 3f
       -0.05472206041992167 0.016293553665265213
000250 d5 0c 99 89 17 d4 a2 3f cb ac cb fb c3 0b 59 3f
       0.036774383112538146 0.0015286840345492432
000260 f5 c4 26 5d 43 62 92 3f 85 70 63 c4 b2 9c 6e bf
       0.017952969131958835 -0.0037368289514301844
000270 cc 1d 63 10 04 f3 b2 3f bf 12 0b 65 f6 f9 82 3f
       0.07402062797620274 0.009265828093142912
000280 a6 a1 4e 62 3f 27 86 3f b0 e3 54 2e d2 0c 7d 3f
       0.010817046344372038 0.0070923052019730565
000290 43 12 b4 fb 5b 92 8e bf 04 83 62 a3 05 84 b9 bf
       -0.01492759572875813 -0.09967074622046473
0002a0 cf 69 0d d6 f1 a1 71 bf aa cf 79 b4 9c 2c 94 bf
       -0.004304833099775653 -0.019701431765909362
0002b0 0e 2a 29 13 b3 8e ad 3f c8 16 49 dc 52 f4 5a 3f
       0.05772933586975536 0.0016451653656458943
0002c0 74 3c 16 45 ea 6c 83 3f 4e a4 77 c6 1f 78 98 bf
       0.009485082848895689 -0.02389573716019227
0002d0 25 44 67 8f a7 fc a2 bf b5 9a 69 6d 09 44 75 bf
       -0.03708385110406479 -0.005191838098289982
0002e0 8f 94 87 d5 95 fe 92 3f 08 6b 14 0f fc 50 ba 3f
       0.0185492908075458 0.1027982270065132
0002f0 44 82 4d 07 ca fa 92 3f 87 8c f8 26 0c eb 76 bf
       0.018534809776044506 -0.0055952524849402
000300 76 83 35 e8 d8 54 c5 bf 53 4e 4a da 00 0f 7e bf
       -0.16665183389980215 -0.007338527041287418
000310 a6 0b 49 c0 8a 99 6e 3f 32 ea 35 9f 5e ce 96 3f
       0.003735323904295612 0.02227161261314787
000320 5e 55 01 06 da fd 4f bf d5 cc 1d 14 15 74 c2 3f
       -0.000976306397215392 0.14416755182501242
000330 3d da 8b 4f 7c a9 95 bf 36 d0 a1 ae e8 4a ba bf
       -0.02115434871208265 -0.10270551932791325
000340 82 c2 32 57 eb 17 9e bf 4b 22 a9 4c 8b 2d af bf
       -0.02938811988559787 -0.06089434920119582
000350 c8 70 08 3a d6 7a 81 bf 0d 1f 26 e1 65 64 a1 3f
       -0.008535073896432613 0.033969100698469125
000360 3d 5d 9b 47 b3 38 ac 3f 6a 7f 8a d3 5d 29 b7 bf
       0.05512008904559671 -0.09047495283675536
000370 eb 5f b2 a5 be f8 89 3f a1 cd 0f e8 88 c3 a0 bf
       0.012681474143661794 -0.03274181206497962
000380 fa 59 62 28 01 ed b3 3f c2 69 eb 69 b3 b5 7d bf
       0.07783515201513316 -0.007253361544565741
000390 76 f3 e9 a5 01 d5 bb bf a0 b7 ab 65 8b b3 a2 3f
       -0.10871897030479069 0.036526065979941125
0003a0 3c 4d 02 8d 1b ac 9b 3f e1 66 cb e3 85 66 65 bf
       0.027023725968843268 -0.0026123633418649738
0003b0 06 60 77 d7 92 16 9d 3f fd aa ae 73 fb 59 cf bf
       0.0284064239511679 -0.2449335398535694
0003c0 ea 5b 28 63 20 bf c6 bf 0a f5 53 12 b5 47 d2 bf
       -0.17770771829302073 -0.2856266669258082
0003d0 9c 89 f4 14 ef fe ce 3f b4 19 3b ce 6b b4 d3 3f
       0.24215496562198957 0.30788703098042025
0003e0 01 69 6a f8 08 9b 87 3f 1b 6a 82 c9 9a 19 99 3f
       0.011526174622578102 0.02451173643985714
0003f0 15 0f 07 36 2d ff 74 bf 85 b8 2c b9 c6 34 94 bf
       -0.0051261678749517 -0.01973257546631448
000400 d7 66 c3 94 42 a3 8a 3f 6e 38 4f e9 38 64 8d 3f
       0.013006706395049345 0.014351315135993494
000410 5c e1 64 62 ab c4 79 bf 82 71 53 41 73 b4 84 3f
       -0.006291074247478736 0.010109806471910291
000420 53 42 f4 8b a5 c7 96 3f 10 3c 74 0c fc 28 84 bf
       0.02224596659385931 -0.009843796854083237
000430 ce 8d 24 c1 3e 7e 94 3f 7e bd d1 73 7c a8 73 3f
       0.020012836969852725 0.004799352781545861
000440 36 0e 83 ff aa cf 77 3f b8 5e 97 70 6b 38 96 3f
       0.005813281976034859 0.021699599024798316
000450 aa 9f 90 de 84 dc 98 3f 82 47 16 fd 2f 0e 82 bf
       0.02427871330669943 -0.008816122923949402
000460 9f 50 a4 82 e8 98 94 bf e6 7c cf 37 1d 64 85 bf
       -0.02011454865812878 -0.010444858804417877
000470 df f2 12 16 41 d2 67 bf 9b 2d 0c 8d d2 e2 aa 3f
       -0.0029078742232669787 0.05251176807186227
000480 27 73 d9 a0 7d 9a 93 3f 33 b3 41 5f 2d ff 9a 3f
       0.01914402288672359 0.026364048899654335
000490 fe f1 95 6d 48 6b 7f 3f 85 8a 82 a7 25 97 8f bf
       0.00767067234243912 -0.015425008940217264
0004a0 ed 35 1e cb 80 10 93 bf 73 b6 a0 0f 4a 23 9f bf
       -0.018617641827907084 -0.03040805549988197
0004b0 68 f9 3d 49 2a 52 92 3f 1e e3 9c 1e f6 7b 93 3f
       0.01789156028780195 0.019027562731227403
0004c0 e3 e6 70 2a 14 69 ac 3f 6c 25 64 ef 17 bc 80 bf
       0.05548918741301436 -0.00817125987352326
0004d0 02 08 02 81 e9 a5 7f 3f 04 06 6e 7d 30 46 a0 3f
       0.007726585507159102 0.03178550273061023
0004e0 e0 94 a8 ff 32 18 9c 3f de 22 ef 58 40 fe 8a bf
       0.02743606267371923 -0.013180258478216297
0004f0 fb 96 75 db ef 40 76 3f d8 0f d0 61 74 7c 83 bf
       0.005433022444184972 -0.009514722094543446
000500 55 58 d2 e9 93 5f 44 bf e1 80 46 c2 4a 92 80 bf
       -0.0006217453225356809 -0.008091529897513218
000510 72 21 73 90 a7 ce 7d 3f 98 2d c6 70 08 f6 91 3f
       0.007277159259679743 0.017540103800951806
000520 f4 c6 6a df d5 ee 96 3f ae b8 44 0d e8 ba 9a 3f
       0.02239545990113974 0.026103616533128253
000530 1c a4 2f c5 b2 af 54 3f 8f b7 35 bc 00 ce 99 3f
       0.0012625928691199 0.02519990109197284
000540 4f 1c ff cf 73 89 8b bf ab c5 67 b6 1e 08 95 bf
       -0.013445763382959578 -0.020538787730350155
000550 30 a8 8d 2b 6e d2 8e bf ce 64 ad f4 9c b5 65 bf
       -0.01504980154432553 -0.002650076441039851
000560 d3 3e 8e e5 c4 4e a5 bf 92 1b 54 29 f5 4b 9b 3f
       -0.04161658575241991 0.02665694298505234
000570 ae 7f 65 4d d0 ac 84 bf e1 c7 ba fd 1d 5f b1 3f
       -0.010095240938141927 0.06785762257166496
000580 18 c8 02 d1 25 a0 9c 3f 3c 42 59 f5 de da 7b 3f
       0.02795466507149777 0.006800528460715823
000590 11 f0 7a d7 1e e9 4a 3f 9d f9 dd 61 ba d0 7b bf
       0.0008212471575101983 -0.006790855460961612
0005a0 1a 2a ba 41 95 27 80 3f bf fe de 2f 17 8c 73 bf
       0.007887998646102058 -0.004772272657589559
0005b0 dc bd 47 f5 71 e7 a9 3f 2b f0 93 b5 15 8c b2 bf
       0.05059391135352673 -0.07245002444318575
