data/citylearn_challenge_2022_phase_1/models/params12.npy (npy, 1600 bytes, 1 tensors)

array f8 [184]
00000000: a205 603f a202 c9bf baa0 493b eec2 b7bf
00000010: 356d f27e 70cd b63f 3fda b646 6801 df3f
00000020: 1399 1f45 6abc e53f 5cdf 047f 5e8a a5bf
00000030: ae9a e120 6fcd abbf b897 cb00 4bf8 b6bf
00000040: 081e 16c3 1c05 803f 3d47 b4d4 baf9 c4bf
00000050: 4811 6778 eb37 bd3f 8a86 85a0 2853 d43f
00000060: 15ee 5720 444b db3f 5d8e 504b f8a7 db3f
00000070: b428 22d4 1732 df3f 799c f5ab 6c8d de3f
00000080: 4887 aa2a 0bea dc3f cadb e54d a3da ca3f
00000090: e6aa bec5 1dfb b83f 2c1e ff58 a629 a0bf
000000a0: 5bbf 8863 b73f 8dbf aefc a9a3 5f39 b2bf
000000b0: 4570 a4cf e9b9 913f e178 58a7 4f66 cc3f
000000c0: 9bf1 77de 20d2 c03f 1751 ab55 0015 bebf
000000d0: f784 7f34 0e96 adbf 0536 8ed6 7e70 c8bf
000000e0: 54e7 0016 f361 abbf a5dc 2727 a521 a23f
000000f0: 31a0 88ab 93a8 bb3f ec45 b086 e29a ae3f
00000100: dfa5 2a26 90e4 a43f ee82 677d 0ab5 8e3f
00000110: ce34 39f3 bea0 98bf 2fb6 f638 46c9 843f
00000120: c09f bd47 01e5 93bf 0c0b 30ae b368 95bf
00000130: 6bca c46d 0552 a13f 4a8e ca4d b35f ae3f
00000140: 7e46 f790 0b20 aebf fc36 54ff d5ce a4bf
00000150: 1f21 1dc9 0eb9 bf3f 94e1 8268 8724 90bf
00000160: 6b80 e44a 19df a7bf 61a2 d465 88ae a0bf
00000170: 9f96 21d2 6bc6 82bf 7e37 2206 646a 963f
00000180: 0195 a06e bf22 b2bf ac4e f114 4f7d a93f
00000190: 4112 d08a 590c b0bf 6057 026f b80b 80bf
000001a0: ca32 5b57 bd16 9d3f 4892 2c5a 91a1 693f
000001b0: 1a70 3d19 9e11 a03f 215b 6125 5240 603f
000001c0: dfa4 b58a efd7 a0bf 2283 2942 c93a b13f
000001d0: 44a4 18e0 6ce4 a23f 4bce 8e7a d289 773f
000001e0: 2a69 fd93 c5e3 77bf 1a93 3213 2e9e 813f
000001f0: 35de 28b9 3f7b a5bf 4a00 8f3e b86e b2bf
00000200: dc6d 29bb 8f6f b7bf 8126 92e4 36dd 8cbf
00000210: a808 a4e5 197f bbbf 4f89 a9f4 dedd d03f
00000220: 4390 cd6e b2eb aa3f c8aa 7306 a5a7 833f
00000230: 4dbd b5e9 0e6c 713f 356c c060 1e90 7dbf
00000240: 3b91 4414 611a abbf 690d ef3b ec3a 8a3f
00000250: 6908 7a7d 640c a43f d04d 86a0 2aa1 523f
00000260: 1fac a7aa 6d27 913f 63cc 0bcc 2c7c 79bf
00000270: 5067 322f 443a b23f 04cb 2e3c 13d0 823f
00000280: 3b82 4648 4cc6 743f 6e4d cc58 c5d7 803f
00000290: bab6 d861 fb08 81bf 4955 449d f6b1 b8bf
000002a0: 1826 91fa fd66 7fbf 35f6 223c c70d 91bf
000002b0: f86d 9ad6 0913 ae3f 28b0 95a1 ef17 723f
000002c0: 7239 b2fb 7a06 893f d567 3462 faab 9dbf
000002d0: 98d4 38f6 d587 a2bf edeb 960f 4a56 82bf
000002e0: f06b 4083 c282 953f 629b 9aeb 1959 ba3f
000002f0: 2e00 59e0 61d4 963f 9276 c7fe 9dd6 77bf
00000300: 6903 c968 030e c5bf cd79 640f b351 7abf
00000310: fa17 f67b 057b 743f f554 dca9 dda5 933f
00000320: 1ef2 076a 6c35 81bf 2fd1 a61e 8580 c23f
00000330: 29a0 8369 02ca 95bf 1f5e 18d1 c8d6 b7bf
00000340: 7a1a 0841 8137 a0bf a59e 07cc e101 afbf
00000350: bb54 623b d8a4 84bf 4587 6190 aab5 a03f
00000360: fb90 698c a9f7 ad3f 5b36 433f 804a b7bf
00000370: 0cc2 ba1c f102 813f 6602 46d6 7222 9fbf
00000380: b3f4 9e7f 5d58 b33f ea5c 859f d1da 6fbf
00000390: 594b 2cde e86e bcbf fd43 3d44 c2ff a13f
000003a0: da40 c9e6 c9c0 9c3f 8f9b 0c7a 0408 76bf
000003b0: 84a9 376b 37d3 9d3f a258 aec3 664a cfbf
000003c0: d8b4 0b83 178f c7bf f161 2d1a 174f d2bf
000003d0: 6ce8 8073 2e28 cf3f 70e3 e65a 70a7 d33f
000003e0: 9f4b 448b 8e53 8e3f f43b 6dea 908b 943f
000003f0: d707 ccac 078a 66bf 493a d0d1 a7c0 95bf
00000400: 6035 2923 5756 943f 1851 1327 3c2c 893f
00000410: 1184 4761 0c3d 72bf d23a ff90 85ba 883f
00000420: b2b7 b0c0 149b 983f 5aa8 03a3 694d 8abf
00000430: 2969 0213 2a99 943f b00d 43c6 f122 7a3f
00000440: 5424 0f6f 5648 5b3f 40c4 d2e3 dcf5 983f
00000450: 0893 3965 867b a03f a1b4 5134 5be3 76bf
00000460: cda5 02bc 42cf 94bf 8071 0298 6ca4 8fbf
00000470: aa31 1315 139d 86bf 4fbd d5b2 6dca ab3f
00000480: 118b 0822 7b6f 943f 224b 37fb 1e9e 993f
00000490: e29b 64ec d942 813f 166a d0b2 b32c 91bf
000004a0: 08c2 d537 49c6 97bf 6c75 33f9 e26e a1bf
000004b0: 46ef 603a 3010 8f3f 28be 406a 3c96 903f
000004c0: fa50 e7ba 4b14 ab3f 858f 1fc2 2050 82bf
000004d0: f720 06b2 7a8e 823f 18c1 53c4 9077 9d3f
000004e0: 2cd2 b733 f814 9a3f 7b33 9c44 62c2 89bf
000004f0: e4d6 b96f 5150 6f3f 4fb8 07bc be4b 85bf
00000500: c61e b73d 5dea 79bf f77b 2f41 8d91 73bf
00000510: 5835 753a 0507 863f faae e96f c173 943f
00000520: b24f 6984 948f 913f 5c25 0f0f a024 9b3f
00000530: cb65 8ae5 48ab 793f 785e 5c2a 0550 9f3f
00000540: 5d65 5fca f0ea 95bf b480 2300 772b 9bbf
00000550: 9ac3 9d35 9006 94bf be9e 0eff 57b6 6cbf
00000560: 0702 fe85 9fc7 a5bf f247 cd5a ccfa a03f
00000570: cdcc 61c3 197d 86bf a824 56d6 0135 b13f
00000580: d030 b708 c4d1 9e3f 9058 dd63 4115 713f
00000590: 3fe7 0961 9b13 743f f89b 0172 263e 79bf
000005a0: d130 9da6 38f7 873f 07e0 805f 8f22 5abf
000005b0: e22b 2b03 37a4 aa3f ec55 3401 af4f b2bf
-0.19539287657248133 -0.09281815478755365 0.08907225703517414 0.4844608965462704 0.6792498922411901 -0.04207129765057857 -0.0543017127645745 -0.08972615022102459
0.007822251037182162 -0.16387114892909863 0.1141345185233763 0.3175756042092891 0.4264688793043388 0.4321270690436217 0.48743243900447486 0.47738186638748165
0.4517848889027971 0.20979729941947617 0.09758173063043393 -0.0315677627218601 -0.014281685566942029 -0.07118795152381338 0.0173107655510736 0.22187228842898946
0.13141260969849786 -0.1175079545167289 -0.05778545752378677 -0.1909330890306792 -0.05348167079541946 0.03541294196104986 0.10804102838358244 0.059775427762484984
0.04080629793072509 0.014993745758091728 -0.024050696940595633 0.01014952527369947 -0.019428272250848755 -0.020907218462535446 0.033828897141934565 0.05932388615226765
-0.05883823532680042 -0.040640532892309594 0.12391750726704175 -0.015764346841679336 -0.04662398375717277 -0.03258157961892461 -0.009167520857043697 0.021890223383301592
-0.07084270907269642 0.049784156137915175 -0.06268844260200358 -0.007834854972582128 0.028407057244112 0.0031287993346203226 0.03138441141229027 0.001983795587004692
-0.03289745872718596 0.0673032557038025 0.03689899669218069 0.005746671850761563 -0.00583245448054929 0.00860248561941428 -0.041955939629073326 -0.07200194861707235
-0.09154604262715033 -0.014093808031492518 -0.10740815979446217 0.26354192631528844 0.05257947542739363 0.009597100505250991 0.004253443006162994 -0.007217520393193279
-0.052935632442571344 0.012807698802027105 0.039157047574023114 0.0011370579032686685 0.016751969853356138 -0.0062219381222688745 0.07120157387035175 0.00918593432820592
0.005071924188456973 0.008224050304795862 -0.008317912982501386 -0.09646550502323693 -0.00766658029994851 -0.016654122395939736 0.058739001700100546 0.004417358455025812
0.012219391637952912 -0.02897635673898676 -0.03619259482039999 -0.008953646279101302 0.02100662160965422 0.10292207719849736 0.022294549291700765 -0.005819909256812432
-0.16449015251603363 -0.0064255709205824465 0.005000134871243839 0.019187415592644325 -0.008402678476152888 0.14454711910878745 -0.021278417291711236 -0.09312110047209686
-0.03167346876948769 -0.060561233669259175 -0.01008004122949512 0.03263600361311928 0.058530138387853335 -0.09098054451461605 0.008306392373328662 -0.03040484841176507
0.07556709638352536 -0.003888520641492134 -0.11106734680315124 0.03515441020011421 0.028079180441921682 -0.005378739821742764 0.029126039427788367 -0.24445805124986913
-0.18405431650845716 -0.28607728535055715 0.24341374053784948 0.3070946586336083 0.014807809472164922 0.020063652332563423 -0.0027513646986116846 -0.021242735081665996
0.019860612412505474 0.012291402761925016 -0.004452751502385347 0.012074511992890367 0.02402908731544757 -0.012842965400029428 0.020115525636904472 0.006380981856810505
0.0016651958542175565 0.024375392346602576 0.032192420822672985 -0.005587917582585395 -0.02032188675426543 -0.015450333012545725 -0.011041783409745449 0.05427878196757751
0.019956516220314195 0.025017246325499738 0.008428289915697055 -0.01677208689589279 -0.02321733859338518 -0.03404912273411295 0.015167595655036014 0.016198104844248246
0.05288921982324442 -0.008941894458935238 0.009060820157870781 0.028776418669566345 0.025470617443675334 -0.012577789038482603 0.0038224783473265068 -0.010398378480172136
-0.006327022765112827 -0.004777480865384646 0.010755577894679888 0.019972822623841126 0.017149277288197325 0.026506901663912216 0.00626686549426254 0.03057869025278001
-0.021404039718480806 -0.026532992728676333 -0.01955628707168309 -0.0035049170187056713 -0.042538628679725625 0.03316343887730956 -0.010980798029981998 0.06721507532906179
0.030097067863423643 0.004170661382735599 0.004901511144106695 -0.0061627866526583405 0.011702005943924483 -0.0015951538207570352 0.052034110199734376 -0.07152837542920282
