data/citylearn_challenge_2022_phase_1/models/params10.npy (npy, 1600 bytes, 1 tensors)

array f8 [184]
00000000: 5870 7d8f adca f03f ba1f 33f9 8829 c83f
00000010: fd02 b6f3 216c d0bf 7bf5 9821 6b20 c23f
00000020: 1ccc d5a3 17d2 c03f 67f8 fdeb cf08 c7bf
00000030: fd9d 919a dca7 bbbf d91d 9837 b2cc c3bf
00000040: 4fb9 ad97 0b18 813f b33e a662 94ac d1bf
00000050: f0a9 5859 8fb1 c73f cf5b 35b9 ff01 d73f
00000060: 6398 ace7 7360 de3f 021a 5aee 9e8f de3f
00000070: efa0 6ca3 b238 e13f 6f94 475b ae17 e13f
00000080: cdf7 3233 45f1 e13f af03 8087 8397 d13f
00000090: f1a9 7e81 8094 bc3f 9b51 5425 fb6b c23f
000000a0: d438 3adf efda c93f cb57 7701 18cc bc3f
000000b0: faee 906a 771f c6bf 5c35 8b9c 32a0 b13f
000000c0: 0759 9299 3435 c63f a5b3 0980 6ef3 b7bf
000000d0: 3c87 3cbd 10ac b3bf 3403 9bc3 cd2e bebf
000000e0: e0d2 afd5 1c6d c5bf 2abb 52c6 ec1b b03f
000000f0: d65a 4b9f 66b5 953f 0403 e3b8 e076 c1bf
00000100: 5371 acf0 717a a43f 746c fc6e 57a7 a6bf
00000110: db70 d40a f4c7 85bf 70c5 a38c dea4 6ebf
00000120: 0171 e7b6 299f 943f fbc4 7051 dc82 b6bf
00000130: b0a0 be74 8e2d b1bf fb2f e323 bc1f a23f
00000140: f76b 1c0f b7ea b83f 2df7 66ad 7743 9bbf
00000150: 79d9 0e77 40b5 c5bf eafd db14 efa0 a93f
00000160: cbb7 8f99 8a8b a43f 2e69 31dd 14cd 9f3f
00000170: fc46 ba94 cd47 a23f f7ae 9a90 b5e0 7abf
00000180: 628b 3e5e 88ab 8b3f 3dd8 a1e6 fda8 b03f
00000190: dc2c 0fb2 fb4a a53f 9c7e 22c1 1a64 9e3f
000001a0: 8660 ebee 45b6 90bf 6972 8403 7c4f 883f
000001b0: 73c7 4060 93d3 abbf 1daf 0694 78af 793f
000001c0: bc93 c00f a0ee 843f 7703 08b0 af84 94bf
000001d0: 99d8 12c5 656a 733f 0a22 d0f6 ee01 983f
000001e0: ef8f 3f44 4d62 bd3f 1b28 a7de 5a4f 9dbf
000001f0: 0757 d55c 9f3b 6abf 9784 7637 cbe0 a23f
00000200: 84c9 d499 adc3 b43f 000a a79d c3f3 f83e
00000210: 140b b1ea a4a6 94bf e0a9 9422 c931 ba3f
00000220: 52a2 03d0 2ee8 84bf 9e4a 9cf2 45f4 823f
00000230: cc8f e18c fc77 8b3f 1c50 5d88 f39e a23f
00000240: 033b 1c8d 79bc a3bf aece ec3d 0b02 aebf
00000250: 386b 874e 0755 89bf 3787 8734 275b aa3f
00000260: 94d8 f529 a7bf 993f d6aa 158b 02d1 91bf
00000270: c7ed c25d aa13 b23f 88f7 47a4 7ceb a33f
00000280: 02e7 f816 3494 81bf edef 977a d51b a0bf
00000290: 87bc b636 4748 a4bf 9725 bf91 d676 ad3f
000002a0: a7fe 115a 8bd4 b03f 2225 6f4c 79a3 c23f
000002b0: 9b5e 65d7 7771 9d3f 3361 ed20 7369 91bf
000002c0: d4b7 96a1 260a 88bf d459 3ef9 7160 423f
000002d0: 4457 4007 207e 703f 4f58 d29b 2743 853f
000002e0: abbe 00e6 652d ac3f 3e7e 5604 9a50 a73f
000002f0: 0b0e a41b 3d21 b2bf 44af f592 5feb a6bf
00000300: f7ab c4fc e964 c03f 1361 7055 6bd8 953f
00000310: 5731 4010 f508 9bbf 579e eb82 5a54 a8bf
00000320: 31fe b719 8a92 acbf 3469 8aaa 94d6 94bf
00000330: 29b7 481e c6b3 bebf 8f11 6948 afa3 b23f
00000340: ae17 ad32 523c 8a3f d847 1372 312a 933f
00000350: b033 f06d e65b 2cbf ea77 97f9 829c a1bf
00000360: f73d 0de9 3542 82bf d1ab 16f0 20ae 9ebf
00000370: 2182 fc7d cf36 8ebf 9abf 53e8 951c 7cbf
00000380: 41ae 2d83 55fa a23f 0673 55f6 79a3 823f
00000390: 3b32 c44c ae29 91bf c53e 5f47 331b a63f
000003a0: 3af1 82af a3f1 963f 3abe 3385 6f3f 32bf
000003b0: 6513 529c d8d5 a4bf 72dc 1afd a909 d53f
000003c0: 6680 598e caaf c8bf 750d 15d4 2637 c6bf
000003d0: 8306 4db5 54a8 d0bf 6501 2fb6 cba4 c7bf
000003e0: 8909 6745 a92c 773f 7e64 1d8e 5c00 83bf
000003f0: b78f 1670 8e5f 903f 5508 6eba d4ba 9bbf
00000400: c586 cb5c 7d2d 87bf 7264 8fdf 4eef 7f3f
00000410: a33e 0a34 1f67 973f 2bf5 5eae 278e 85bf
00000420: f623 7537 1276 7c3f 1ce0 899e 248d 603f
00000430: 1637 0d99 0c3b 953f 9c18 ff60 a9f7 9dbf
00000440: ae63 5c09 6ba2 a63f 82c1 0ad5 c42b 6a3f
00000450: 8cd1 fc29 dfa1 b03f 575b c65e 1320 6ebf
00000460: 4eed 38ef aa29 773f fe2f bc92 ebe4 69bf
00000470: 4814 29fd 2d56 2d3f 6916 9a73 f6f0 72bf
00000480: 7995 1534 bef7 653f e3ee eddc 293b 72bf
00000490: c470 29cd 1c57 933f 2881 f447 ab04 833f
000004a0: 877b 8c08 fa59 823f c782 cd6e 4eec 83bf
000004b0: 150d 9257 08b0 97bf 6a8f 85aa 3016 b33f
000004c0: 94a9 2cec a5fb 66bf 6345 7076 da79 923f
000004d0: 1445 04e9 09ad 67bf 55c8 1bf6 27e9 983f
000004e0: 16d6 9f03 a113 8e3f 9f83 fe3b 0d28 7abf
000004f0: 8d41 0631 e059 8d3f c423 4e23 be65 7cbf
00000500: d6f5 66cd 2557 503f d8dd fd63 5092 823f
00000510: 49c5 6fb2 45a8 39bf 3043 2179 719f 48bf
00000520: 3b0c bd45 339f 703f 73dd 2f33 7f96 b33f
00000530: 1d28 7f1f 91c2 a63f 66f8 98ce de3e 73bf
00000540: 8326 d9a6 4b85 883f b8a3 8c40 0267 933f
00000550: 68f8 f8c8 7248 603f f247 70bf b2ec 68bf
00000560: 9a03 8cea 006c 5ebf ea93 605e 90fc 873f
00000570: d49e 26e1 3b12 95bf 7c06 09cb e272 793f
00000580: 7e3e c550 fc6a 9f3f 6ac7 5310 4085 a03f
00000590: d9b9 1a18 00ac 843f 0e00 d8ae 2e4a a2bf
000005a0: 6edd 3d8e 68ba 84bf 57d7 bd64 5996 b5bf
000005b0: cc8a e38d e793 8fbf 329b 86c2 93ba 9bbf
1.0494819264486264 0.18876754920915834 -0.2565998916616506 0.14161433353903505 0.13141150951159453 -0.17995642684030885 -0.10803011678364523 -0.1546843310791093
0.008346643988002582 -0.27615842469911484 0.18510619986166388 0.35949700438271476 0.4746370089000093 0.4775159194618085 0.5381711189156969 0.5341407568745477
0.5607019424421594 0.2748726676218735 0.11164096032613437 0.14392031977389483 0.20199392699982488 0.11248922382159703 -0.1728352804510605 0.06885067293042851
0.17349870203606363 -0.09355822206425886 -0.07684425945310819 -0.11790166879201253 -0.16739235338140812 0.06292610017656544 0.021199801895671687 -0.13644036319421826
0.0399966818133374 -0.044245464609240864 -0.010635286884785369 -0.0037407251994571664 0.020138408459261296 -0.08793427456182094 -0.06710138654910014 0.03539836824492678
0.09733146780892797 -0.026624555548315932 -0.16959386647586053 0.05005595330839781 0.040127116437232845 0.031055761337804792 0.03570406380198496 -0.006561955678687551
0.013510766388042664 0.0650786102358731 0.04158770130705999 0.029678743398675253 -0.016320316989407967 0.011870354516355168 -0.05434856939281376 0.0062708578192703065
0.01022076652595582 -0.02003740798864181 0.004740140474657783 0.023444875540038303 0.114781216776066 -0.02862302764859957 -0.0032022583533642987 0.03687129070318312
0.08111081128735093 2.379627572125266e-05 -0.020166947197377175 0.10232216924911297 -0.010208478663529839 0.009254976717362692 0.013412449883794773 0.036368952175195285
-0.03854732368028204 -0.05860934382363091 -0.012369210323347354 0.05147669330814469 0.025145160614066756 -0.01739887212662946 0.0706125716123359 0.03890599732765937
-0.008583456946428484 -0.031462355818774636 -0.039613938740665815 0.05754728821882365 0.06574316929799782 0.14561382515084015 0.028753159066893557 -0.017003821263046958
-0.011738111311242173 0.000560813571143732 0.0040265322786775005 0.010381993716048891 0.05503385956433012 0.045536816625141516 -0.0708196823580282 -0.044764506043832
0.12807965128135354 0.02133338650682599 -0.026401356808535805 -0.047518566590778626 -0.05580550731610535 -0.0203498105134738 -0.11993063201290667 0.07281013028938886
0.01281036584044756 0.018715641582112003 -0.000216361883730446 -0.034397213905080395 -0.008915349173235205 -0.029961123136370397 -0.014752980263041117 -0.006863198829918727
0.03706614710139578 0.00910086901665742 -0.016760562358330438 0.04317627187958587 0.022406156146403712 -0.00027843926109391885 -0.04069401653490593 0.3287148448684497
-0.19286472273506944 -0.17355809550836523 -0.26027410226024744 -0.1847166671341355 0.005657826628921455 -0.009278033339500388 0.01598951872951179 -0.02707989108922278
-0.011317233461741858 0.007796581362492382 0.02285431628348412 -0.010525045403364594 0.006948538931575312 0.0020204272480519713 0.020733067361383105 -0.029265066666788728
0.0442079018523097 0.0031946987513366562 0.06496996665084093 -0.0036774042438979903 0.005654971802467058 -0.003160915473818803 0.00022382079494512514 -0.0046243311895800355
0.0026816096221177724 -0.00445095398651649 0.018886995336615767 0.009286249287982232 0.008960679422271202 -0.009728062397415539 -0.023132448525314226 0.07455734408500594
-0.0028055420565539866 0.01804295871631235 -0.002890128475094964 0.02432691993357879 0.014685876772982314 -0.006385852524460583 0.014331580635172947 -0.0069329669248725
0.000997340122565906 0.009068134356978882 -0.00039149953448632376 -0.0007514289920981018 0.004058075220942088 0.0765151500671573 0.04445317754250786 -0.004698629703453338
0.011972991017631834 0.018947634877949787 0.0019876710792053227 -0.003042554013071624 -0.0018568047473197292 0.011712196235814393 -0.02057736932479666 0.006213079367229587
0.03068155520423809 0.03226661872203247 0.010093689666374072 -0.03572221645663386 -0.010121170845862362 -0.08432539662848391 -0.015418824212649972 -0.027078922984993876
