data/citylearn_challenge_2022_phase_1/models/params25.npy (npy, 1600 bytes, 1 tensors)

array f8 [184]
00000000: a61c 5baa 185b d33f 325d d571 f390 c33f
00000010: 790e 7c59 021c c0bf fedd 6170 12f5 e7bf
00000020: 623c 167b ca79 cd3f 639f abbd 2952 7b3f
00000030: 514f 9463 e617 74bf 3fca dacd a629 803f
00000040: 832b c1d6 d9f2 62bf c1f8 712a 5976 c43f
00000050: 7356 0714 0037 bf3f 311c 23e6 088e cdbf
00000060: 3cdc 3b22 2103 d5bf d95e a623 ccee d4bf
00000070: 035b 4922 ca15 d8bf 9dc3 b829 d181 d7bf
00000080: 58fc 181a 94ad d1bf 63f5 7f5c a0c1 bcbf
00000090: a4ec d0c0 88f2 7abf 2213 3c02 c396 a93f
000000a0: f188 4c07 8cf4 a3bf 6ce5 0f85 1a1f c73f
000000b0: 37ec deb2 02af d23f 2108 7489 34d6 91bf
000000c0: f07f f850 803f c7bf 2757 b762 850a c23f
000000d0: b289 3716 9dce c23f 9288 7f31 1960 b93f
000000e0: 229e d912 b1db a03f 35d4 54a6 198d a83f
000000f0: 84a8 4034 8c01 bc3f 1149 c2ef 7b2d b33f
00000100: f488 498a dde6 9dbf e864 91e8 8623 6fbf
00000110: 7df0 2bc9 36e8 8e3f 579a b49b ad25 a23f
00000120: be69 825b 3d9e 74bf 5b3e c799 9fc7 a5bf
00000130: a0f5 ec84 5859 813f 55b5 1adb fe7d a03f
00000140: ec11 4f9d 98ff 75bf 3ad6 3dca 766d 89bf
00000150: 3af4 5a8a 5e87 be3f a6b3 6c21 83bc acbf
00000160: e45c 4a8e bc38 b3bf e0c4 71e8 4c98 a1bf
00000170: a7ed f994 70d0 8ebf 7fe1 469c 3808 8cbf
00000180: 1989 fabb ae36 c0bf b4d7 cefb 505d ca3f
00000190: 76b3 afde a359 863f dfe8 05d3 ea09 7e3f
000001a0: 1cef 102d 96e4 9abf 091d 54d1 cd25 893f
000001b0: 156c 48b6 cf0c 8cbf 8fde 54bb 4891 613f
000001c0: f118 be14 50ff 92bf 16f7 b0a4 8750 633f
000001d0: 9c54 536f 957d a53f 9f8a 562e e189 6e3f
000001e0: 3c99 0ab1 3aa1 aa3f 38e5 ad92 b2a5 9a3f
000001f0: 30f3 10de be26 623f bc28 b276 69f9 93bf
00000200: bc67 1d68 6004 a9bf 0399 cebd 2063 b6bf
00000210: 3e5b b889 4d1f a13f 4823 a35f d05c a3bf
00000220: 3311 c510 a8ef ae3f 6825 cd9a 880b 943f
00000230: 301a 0373 9eed 75bf a8fb 78a7 4244 85bf
00000240: 901f a591 ce90 9dbf ae0d f215 8c54 6e3f
00000250: 6497 8ea5 18be b13f 23f2 449f a658 b23f
00000260: 9c65 003d 0e19 a3bf 0013 45a2 d365 9ebf
00000270: 8769 f46e cf4d c3bf 6039 c2a8 c503 90bf
00000280: ceec 0eab 7e26 8c3f f923 de88 eca4 833f
00000290: a8d4 ed3c 6b17 763f 86d2 117c 00f8 c13f
000002a0: a961 2aa2 188b 8d3f 33b0 864a 0a11 b4bf
000002b0: e3b7 b474 ec95 a3bf 6dab e90b 6faf a2bf
000002c0: d1d5 879f 7bea 7dbf dd87 1ef9 307a a63f
000002d0: 5d09 b445 8ebb 9b3f e808 d237 4476 c4bf
000002e0: 7ea9 ebd7 3ff2 b2bf 944e a919 1c0b 31bf
000002f0: 2a1c 1c6e 24b2 b13f e496 a630 7db8 a13f
00000300: f5eb 3a6c 6df2 bebf 6fb8 77ec 53cc 813f
00000310: 0c54 98d0 9d4e 8b3f 6b88 a0d1 e411 893f
00000320: dc6a e600 3d9a a43f 8c28 a61a 0e28 913f
00000330: 8cb6 50a8 a013 a03f 45e0 3b14 a8ef a53f
00000340: df66 4800 c94d b43f 4036 f796 20cf a03f
00000350: edd0 9044 6818 8ebf 76e5 7bd3 f09a 6b3f
00000360: dbe1 fc9b 7b48 aebf 965e 6bdc 6a31 b13f
00000370: e20e 63c0 60a4 b23f aed5 68aa d081 563f
00000380: ae98 a1a3 3036 b2bf 50aa 8158 b343 1d3f
00000390: 091d c327 2d9b ba3f a58c 88f6 d099 843f
000003a0: 7eb3 e8fa 8f53 84bf f245 e686 604f 743f
000003b0: e4c2 8550 7e6d ae3f 925b f28c 34f5 cebf
000003c0: 8de2 52d4 3353 d0bf f81c c512 d62b ce3f
000003d0: 2e23 9881 aa71 d43f 98b8 ec63 2185 cabf
000003e0: 3197 8bd8 ace9 913f 971e 7c35 679f a1bf
000003f0: f7b1 31e9 cdf8 6cbf 725e 7f11 57f6 8cbf
00000400: 75e3 e325 abbb b63f 4086 2fc2 0ebc 7bbf
00000410: 02b3 2f3e 2831 973f 8e19 087c b0c4 82bf
00000420: e5b5 2db8 8551 95bf c1a1 c2be 0694 813f
00000430: fe82 70ee b5b2 90bf 48b9 e137 959a 71bf
00000440: e9cc e0ab 4d54 8b3f 950c 6157 b424 a03f
00000450: fd78 5d0b e777 7bbf 4557 8e87 6e12 9bbf
00000460: 04bb d70c d8dc 89bf ab5c f90e 86ec 943f
00000470: 7c3f cd27 4084 5b3f 8262 0087 1ee3 8c3f
00000480: 544c a911 17aa 723f 4db2 975c 1616 69bf
00000490: 1e58 6a68 7171 61bf b94d 56df 49bd 7d3f
000004a0: 7449 5bb1 51b0 7b3f 2349 0d56 8a67 b13f
000004b0: a579 5e8d 9adb a2bf 1498 bfdc 4ac5 9a3f
000004c0: d591 68e2 dd4c 86bf 52fd 5055 e63c 903f
000004d0: d5e9 418e 256b 863f d501 0f03 8468 95bf
000004e0: f565 2f46 5ca6 96bf d141 41c1 55eb 8dbf
000004f0: 038c 6e8f 856f 8b3f 91e9 1910 33a3 43bf
00000500: ef4b b0d3 4f8b 97bf 2365 d664 3f15 833f
00000510: 05f7 947d f0c2 a1bf ec23 2f69 55a8 9e3f
00000520: 61bc 942a 3dae 893f 2638 1239 fea7 643f
00000530: aac2 51aa 0c27 83bf 2e92 ed89 f97e 96bf
00000540: d02b 9c88 0767 583f d78b d21a e53d 933f
00000550: a10a 48ef 5a89 b03f a535 4f77 49b0 a83f
00000560: cac0 b9de 07e0 793f d15f 321d dc16 623f
00000570: d6f0 b29d 69fa 80bf c9a9 fe13 c77a 903f
00000580: b48d 4000 c479 8e3f c4a6 8446 0366 983f
00000590: d534 ff09 bfda 793f c075 9bf6 68a1 a93f
000005a0: b2fd dcbd 3454 963f 16dc aff4 a814 8b3f
000005b0: 7bac 7620 e36e b3bf 005b f257 21ac a3bf
0.3024350799209493 0.15286105211519324 -0.1258547722755912 -0.7486660189596817 0.2302792645463994 0.006670153665915143 -0.004905605275116035 0.007891944081483191
-0.0023130659738276895 0.1598617036106074 0.12193298806172397 -0.23089705693402743 -0.32831600516459836 -0.3270750377791792 -0.37632993076606186 -0.3672984034956757
-0.2762193922862415 -0.1123295045690234 -0.006578954879894603 0.04997834589270257 -0.038975120440470586 0.1806367063252695 0.2919317957673146 -0.01741869057605794
-0.1816254039158589 0.14094607658506073 0.1469303472977806 0.09912259539081195 0.03292611460784324 0.0479515090504851 0.10939861560533087 0.07491278270234526
-0.029200994077094714 -0.0038011202746416235 0.015091350569029988 0.03544371152593289 -0.005033721616337803 -0.04253863098312812 0.008471194798057635 0.032211269613393746
-0.00537070860895426 -0.012415817305490785 0.1192530715733974 -0.05612573416724524 -0.0750844809903018 -0.0343650850053423 -0.015046004816432324 -0.013687555569831698
-0.12666877916951405 0.20597278876601666 0.010913162453982866 0.007333676607567534 -0.02626261377393667 0.012279136610699586 -0.013696310758907907 0.002144472173906404
-0.018552066103006252 0.002357735565538098 0.041973752822437066 0.0037278554979861124 0.05201133166456137 0.026022710993378356 0.0022157409553344096 -0.01950611865007866
-0.04886151572163963 -0.08745007165871148 0.033441947042027284 -0.037817489313573704 0.06042218403539081 0.019575247238468846 -0.0053535642075020345 -0.010384102569444512
-0.028872707023111455 0.003702424626284637 0.06930688898009191 0.07166520489131094 -0.037300534197309804 -0.029685313014186754 -0.15081208150588685 -0.01563938944360055
0.013745297999653874 0.00959191124617752 0.005393427751973302 0.1403809171494183 0.014425461243534015 -0.07838501281247616 -0.03825320171959825 -0.03649470348758297
-0.007303698447221633 0.043900995645586006 0.027082655910825582 -0.1598592064438613 -0.07400893231866765 -0.00026006160775191825 0.06912448585727363 0.034610664547740005
-0.12088664905870401 0.008690505651397921 0.01333354275542755 0.012241161010084952 0.04023924480425986 0.01675436055806094 0.031399746462153905 0.042844059438664796
0.07931190735726144 0.03283025591700239 -0.014694990723093737 0.003369779933447499 -0.0591467502512761 0.06716030007680227 0.07282070824572487 0.0013737237692458093
-0.07113937373069021 0.00011163503779846565 0.10393030377155212 0.010059006236650634 -0.009925007671961469 0.004958512361910904 0.05942911847058044 -0.24185807115710795
-0.25507827505820374 0.2357127753877888 0.3194376245087821 -0.20718781832824074 0.01749296256720995 -0.03441927459612975 -0.0035366079042005133 -0.014141731473429096
0.0888010947709413 -0.006771142626321558 0.02264845733218391 -0.009164217744012128 -0.020818795553557385 0.008583119102994698 -0.01630672710246283 -0.004297812351167281
0.013344389732174071 0.03153003279342063 -0.006706144826095659 -0.02643749906891137 -0.012628257648399373 0.02043351618189308 0.0016794802206341044 0.014105070586127203
0.004556741822471972 -0.003062289881873326 -0.0021292891500008923 0.007260597766975457 0.006759947884079732 0.06798615074993512 -0.03683169341751417 0.026143235896505315
-0.010888799163759547 0.01585731406907815 0.010946553615430435 -0.020906508146937803 -0.022118989738236967 -0.014609022102519827 0.013396304549877064 -0.000599288876585379
-0.02299236993355785 0.009317870392623611 -0.03469039471609218 0.02993901686184934 0.012539365636795976 0.002521511582535235 -0.00935182471059311 -0.021968745273072958
0.0014894078798899264 0.018790797960388374 0.0645958742316375 0.04821996289647793 0.00631716798999111 0.0022081660368477936 -0.008290124058810393 0.016093359561333096
0.014880687005706196 0.02382664792927504 0.006312128301897609 0.050059585669923745 0.021805595482190028 0.013222999541524099 -0.07591075460975276 -0.0384226245743573
