data/citylearn_challenge_2022_phase_1/models/params6.npy (npy, 1600 bytes, 1 tensors)

array f8 [184]
000000 91 d5 a5 5f 8c 5c f0 3f 64 c6 16 73 35 29 c8 3f
       1.022594808220081 0.18875759238794665
000010 10 7f 4c 48 fa 38 cf bf dd e6 5b 27 0d 70 c0 3f
       -0.2439263203641464 0.12841953679872278
000020 be 6a b3 55 4f bb bf 3f ea 9b c9 a7 e6 c6 c5 bf
       0.12395187227540824 -0.17013247673750637
000030 fd be d1 77 75 9b b7 bf 48 d2 ec 10 4e 9a c2 bf
       -0.09221586394573573 -0.1453340132371912
000040 b0 1c 35 05 96 7f 78 bf fe e8 58 17 e5 6e d2 bf
       -0.00598105050750701 -0.2880184867859866
000050 15 47 ea 5e ac e9 c7 3f c1 a8 4c 48 fc 3c d7 3f
       0.18681864389923733 0.3630972581910435
000060 5d c3 77 50 4f 30 de 3f 21 1d 63 27 d2 67 de 3f
       0.47169859750925075 0.4750867256775156
000070 c7 6f d9 92 93 12 e1 3f ad b5 97 52 e8 eb e0 3f
       0.5335176342155074 0.5287973034989385
000080 3f 51 3e 30 80 2d e1 3f a1 2c 1e 81 50 5c d0 3f
       0.5368042890791357 0.25563442811171383
000090 22 db 84 a9 31 48 b7 3f 72 cf db 6f c0 05 c2 3f
       0.09094534290930459 0.1408005281624543
0000a0 ee 36 21 0c 38 f1 ca 3f 67 8a 75 42 42 d0 b6 3f
       0.21048641769669224 0.08911527750528024
0000b0 9e 62 13 a6 57 dd c4 bf 14 5d ad 96 f6 27 b2 3f
       -0.16300483330885113 0.07092229059832206
0000c0 74 a0 c1 a9 7b 05 c7 3f 53 a1 6b fc fc 1b b9 bf
       0.17985482968220234 -0.09808331644638217
0000d0 df f0 09 97 f4 ba b3 bf 4b 32 41 a8 bf af bb bf
       -0.07707146346541859 -0.10815046174793357
0000e0 83 f5 5e 89 68 bf c3 bf e2 5e a0 ec a5 aa b0 3f
       -0.1542788191563141 0.06510388400090109
0000f0 7b f8 0a ec e3 b3 93 3f 10 22 a5 a3 27 be c1 bf
       0.019240914613640286 -0.1386155652092076
000100 66 65 5a 84 88 ee 9f 3f 01 b8 01 0b 7c a0 a2 bf
       0.031183369711106045 -0.03638064989432622
000110 9c ee aa 6d 9d de 84 bf dc 4b b2 60 e0 52 7e bf
       -0.010190229329388338 -0.007403255916091003
000120 8d 73 8c d9 59 08 9b 3f 7d e8 d0 88 f2 a6 b5 bf
       0.026399043944468615 -0.08457866516337904
000130 c4 52 6c 6e cd fd b1 bf 2e 97 63 ee c5 7f a3 3f
       -0.07027896829488173 0.03808420691511426
000140 ee a2 d1 6e e2 2b b8 3f 56 8a 76 0f f5 b9 97 bf
       0.09441962438144078 -0.023170308178700992
000150 cd dd f1 68 e8 53 c5 bf fa 56 88 05 cc 2a a4 3f
       -0.1666231644082771 0.03938901488815634
000160 c7 10 23 26 b8 82 a3 3f 66 97 83 a1 36 ce 9e 3f
       0.038106684356110025 0.030083516700777045
000170 c9 ca 4c 95 6c 36 a6 3f bc 8e d6 29 a2 67 89 bf
       0.04338397333630934 -0.012404696370885808
000180 d9 dc c7 1c 35 7e 3b bf ae 5e 74 27 1c 0b af 3f
       -0.0004195098561292194 0.060631637397987034
000190 8f 5f 27 45 0d 87 a6 3f 75 95 f2 c7 70 49 99 3f
       0.04399911374247189 0.02469421596892603
0001a0 59 44 b0 af f9 d1 8d bf 28 a5 aa 9f 5f 35 81 3f
       -0.014560652422036012 0.00840258317960492
0001b0 1e bf bd 47 7e 1b a6 bf 1e 8d 7b 73 99 fd 71 3f
       -0.04317850709673919 0.004392241876959772
0001c0 d0 f1 61 54 03 38 90 3f 7d 7f 71 ac 70 7c 8d bf
       0.015838672662072117 -0.014397506964257673
0001d0 ea 77 48 d8 e2 15 85 3f 68 e8 94 c7 74 79 9c 3f
       0.01029565069717005 0.027807068521021355
0001e0 6e 80 88 ec f9 ce bd 3f c3 20 55 d2 5a 1b a3 bf
       0.11643945717560353 -0.03731807534728795
0001f0 80 99 a0 dc 6a 43 12 bf 0e a9 ee 1c 9d b2 9d 3f
       -6.966914875814433e-05 0.029001669779668275
000200 d5 cb 50 6f 96 02 b5 3f 45 64 76 5c 92 a4 58 bf
       0.08207073419252649 -0.0015040807064450473
000210 82 09 bb a0 b9 2c a3 bf ab c0 2e 06 17 39 b7 3f
       -0.03745060050052286 0.09071487332289745
000220 90 e6 ea be db 8e 63 bf 20 63 7f 08 08 26 8c 3f
       -0.0023874561223607496 0.013744414100004543
000230 b5 bd 91 dd 9b 64 8c 3f 21 20 27 48 fd e7 99 3f
       0.013863771151789142 0.025299031761989114
000240 5a 3e 5b de 4c 80 a6 bf 61 f8 12 6a f3 ce b0 bf
       -0.04394760336219568 -0.06565781917285697
000250 bb b2 b6 02 45 9c 85 bf 02 df a9 cb d5 12 ae 3f
       -0.010551966805757975 0.058737450705789854
000260 26 1b 9e 20 fa 23 98 3f 33 7d e5 c8 bf 4a 80 bf
       0.02357474159318964 -0.007955072706578114
000270 bc 50 62 9f 91 fc b1 3f e7 d9 d1 55 3b 80 9e 3f
       0.07026014462673208 0.02978604041387625
000280 91 20 9f 51 ca 98 7d bf d4 c1 52 dd 4f 84 9b bf
       -0.007225790317484508 -0.02687191761350667
000290 e5 bb 05 f9 45 e2 a4 bf 8f 48 bc 8c 6b 73 ae 3f
       -0.04078882851432989 0.05947433560335568
0002a0 1d b0 06 14 86 00 b2 3f a8 06 c8 ea 31 50 c4 3f
       0.07032049168509542 0.1586973568337744
0002b0 b9 a9 54 1a 80 e7 9a 3f 17 64 5f 32 6a 39 98 bf
       0.026273728949641504 -0.023656520199299615
0002c0 04 c6 63 1c 34 19 58 bf 7c f9 c3 5a 54 ea 61 bf
       -0.0014708527465326924 -0.0021869323301181836
0002d0 f2 c8 16 85 bd 67 7e 3f 5c 1b 6e d5 33 75 5c 3f
       0.0074231532211561525 0.0017369276226603869
0002e0 d4 79 72 57 6f 20 aa 3f 3e 94 32 f2 22 66 a6 3f
       0.05102870886297564 0.04374798971665726
0002f0 5f 36 97 4b c6 d8 b2 bf 65 86 0f 83 bc e9 a7 bf
       -0.07362021775699067 -0.04670514201985724
000300 0c 72 cb 22 a9 37 c0 3f ef bf 3f 82 5b 6a 8f 3f
       0.12669862936935805 0.01533957949865791
000310 d8 48 a3 a4 34 ca 9b bf 3e ca 4c df d5 99 a8 bf
       -0.027138540791221327 -0.04804867125348665
000320 05 7b ea e9 f4 3b a4 bf 69 6c 6f 20 c0 29 96 bf
       -0.03951993327540574 -0.02164364049881976
000330 2d 3d 7f fe 3f 07 be bf fb 78 dd 2d 03 63 b0 3f
       -0.117298125870765 0.06401080960992893
000340 a6 b5 02 37 dd e2 82 3f f8 91 84 d7 57 ae 8b 3f
       0.009221771470346262 0.013516126885016341
000350 4a 4e 10 16 f2 ac 65 bf 57 24 60 a6 ca 42 9e bf
       -0.002645943474371558 -0.029551664738424268
000360 d9 89 d0 e7 ea aa 81 bf e2 b9 d7 76 12 27 88 bf
       -0.00862678070013072 -0.011793274165907645
000370 52 28 f4 0e bf 5b 95 bf 91 84 cc 74 57 1f 91 bf
       -0.02085779694338214 -0.016721121314848878
000380 0b c5 70 ea 78 60 a1 3f f0 09 d5 56 58 d8 58 bf
       0.03393915044615355 -0.0015164244353661448
000390 a6 2e d3 7e 80 10 a2 bf 77 87 18 4c 8e a6 a4 3f
       -0.03528214977413073 0.04033322028068558
0003a0 94 35 9a 6b 17 a6 92 3f 18 d2 bf a4 8a 3f 91 3f
       0.01821171373608406 0.01684395437765049
0003b0 96 54 58 50 26 4f a5 bf 75 24 b0 b1 c3 89 d5 3f
       -0.04161948900961325 0.33653347351407287
0003c0 b1 24 8e 95 5b d3 c9 bf dd 98 5d ae 7b ea c6 bf
       -0.20176262667181313 -0.1790308572191809
0003d0 1a 50 4a ca fe db d0 bf 66 a1 8f 5e 94 5d c6 bf
       -0.2634274459353506 -0.1747308217739018
0003e0 4b 21 95 42 65 b2 73 3f cf c8 dc 99 7c e0 8b bf
       0.004808803126543924 -0.01361176819373036
0003f0 fc 4f 3a 7b 62 46 91 3f 3f 64 4f 68 55 b8 97 bf
       0.016870058795191753 -0.02316411446722477
000400 05 07 5c ca 36 c2 90 bf 33 df f9 18 b9 62 8d 3f
       -0.016365867711107835 0.01434845550032513
000410 15 d8 f2 ae 8c 43 96 3f 0f d6 ca 3b 71 bf 7d bf
       0.02174205606271336 -0.00726265174733022
000420 a7 eb 06 91 11 0b 88 3f de a3 0b a5 64 27 85 bf
       0.011739861715673273 -0.010329042708194732
000430 45 fe bd 5b 2a 62 92 3f 13 73 b6 49 6b 79 97 bf
       0.017952596520897996 -0.02292411458403183
000440 2e bd cc 94 6a c0 9c 3f 7b 32 45 52 e2 fa 85 3f
       0.028077760059372618 0.010732429633798937
000450 df 45 ca c4 03 9e b2 3f 44 8a 3c 22 1b be fb 3e
       0.07272361330458164 2.6457406547506523e-05
000460 e2 b5 a1 7e d4 0b 67 bf c8 1d f2 c2 a1 bf 71 bf
       -0.002813258198378619 -0.0043331450280059206
000470 c3 c4 43 89 e8 71 69 bf e0 62 47 0f 82 fb 4c 3f
       -0.0031060735437838673 0.0008844742829366668
000480 88 ed 06 3c d8 e4 7c bf fe 86 71 7d 45 fe 71 bf
       -0.0070541807803538095 -0.0043928827718404655
000490 45 3b ec 4e b7 12 92 3f 60 82 7a fc 41 2c 86 3f
       0.017649521057190105 0.010826602475675517
0004a0 1e 19 c7 58 ec d6 6e 3f 4d 5a 73 05 77 a2 84 bf
       0.003764592757053666 -0.0100755022562399
0004b0 d4 8c 68 ad 85 23 a0 bf 88 e9 84 fb 0f ce b4 3f
       -0.031521012704865875 0.08126926317792116
0004c0 1e fa b4 77 9f 3c 72 3f 6f 0b 68 b3 83 cc 9e 3f
       0.004452345772107095 0.030077035737132215
0004d0 98 30 52 19 71 96 40 3f 16 ab ef f5 87 64 a2 3f
       0.0005062153092168118 0.03592324139738971
0004e0 ba 4c 2d 6b 85 27 92 3f b2 5d 8f 25 7b 8e 52 bf
       0.017728886286317837 -0.0011326029400516688
0004f0 04 1e e9 3f 3c bc 8e 3f a4 cc 25 22 96 e6 7e bf
       0.015007467937848247 -0.00754412313323197
000500 23 05 5c dc 31 88 6a bf 1c af c4 b6 05 92 7b 3f
       -0.00323877085145398 0.0067310546112755686
000510 be 4c 78 15 23 f8 7a 3f 3f b2 5d 03 d2 0b 53 bf
       0.006584298178057666 -0.001162486163106227
000520 0a 38 a9 bc 8d 2b 8c 3f 6c 92 17 b7 19 83 b3 3f
       0.013754947013833192 0.07621918411275325
000530 a4 67 15 5e 75 26 a5 3f d7 b0 68 77 5a 70 86 bf
       0.04130903981668091 -0.010956484574386511
000540 19 07 a0 2e 71 3b 90 3f 14 c3 da bb ca 66 85 3f
       0.015851753683825274 0.010449966295114112
000550 b0 b0 00 15 72 cc 89 3f 7c f0 65 42 fe 48 81 bf
       0.012596980348540704 -0.008440004731476096
000560 08 cc 3f 20 e6 fa 70 3f f1 b1 e2 b2 51 a3 8d 3f
       0.0041455258651579355 0.014471662780430857
000570 40 1a 16 7f 37 35 6c bf c3 2f 1a 6f 1d c6 80 bf
       -0.0034433444895427823 -0.008190374329636435
000580 bf 84 ff 71 2a 00 a4 3f 0f 32 2a 30 c7 94 a6 3f
       0.03906376496866803 0.04410383665990391
000590 94 9f 2e f8 cf bf 8f 3f a6 4f 6e 9b 3a ac a9 bf
       0.015502571832101165 -0.05014212748861206
0005a0 06 e7 59 ce ff 3f 92 bf f0 d5 bf bc 8a 7f b1 bf
       -0.0178222627350584 -0.06835238559855106
0005b0 c9 ef 46 25 9d ae 93 bf 53 86 d8 8f 76 8a a2 bf
       -0.019220786476338767 -0.036212639865209305
