data/citylearn_challenge_2022_phase_1/models/params19.npy (npy, 1600 bytes, 1 tensors)

array f8 [184]
000000 c4 db d8 49 f2 c0 bb bf 67 7e 26 6f 3e 39 95 3f
       -0.10841287901790425 0.020726180585937472
000010 de 5e 45 50 7c 9a 88 3f f9 8c dd 01 45 61 d2 bf
       0.012013407897640101 -0.28718686277552724
000020 90 14 a9 31 99 0c c9 bf 2f 3d f8 6f bd 83 a7 3f
       -0.19569697308375966 0.045926971357511774
000030 1b 53 cd 51 42 b6 9c bf c9 63 ad 1f ab 42 a7 bf
       -0.028039013140488494 -0.04543051492391432
000040 70 22 03 a0 50 33 ac 3f 11 4f ce 3c 7b 86 cb bf
       0.05507900193476167 -0.2150415465263156
000050 e2 72 4b 28 dd 83 c5 bf 53 0b fd e1 11 3f c3 3f
       -0.1680866667510577 0.1503622392138718
000060 a0 1a b6 03 96 eb bf bf ed 0e 76 6a 8a 90 c1 3f
       -0.12468850699051837 0.13722353170680127
000070 db 4d 54 99 23 73 c0 bf b0 f3 f2 34 0f 71 b4 bf
       -0.12851376520903454 -0.07985014956189107
000080 07 87 bf 71 c0 09 a2 3f c2 81 3b e2 e1 8e 99 bf
       0.035230649838707655 -0.024959115441449027
000090 22 43 c7 5f 41 a8 a8 bf b7 8e ec 1c 87 b2 c1 bf
       -0.04815868658227475 -0.13826073562915095
0000a0 6b 62 19 56 6e eb c4 bf 76 e1 70 aa 26 5e c7 bf
       -0.16343478397427033 -0.18256076166450058
0000b0 fb 9e 8a 2e 1e 9b bc 3f 59 af 2d af 09 12 89 bf
       0.11174191128031545 -0.012241435678980105
0000c0 14 f6 f1 1f d2 10 bd 3f 40 a4 84 fd 60 23 b6 bf
       0.11353791503821525 -0.08647733868987562
0000d0 04 7e 72 7a dc 8a ae bf c3 9c bf 67 41 90 c0 bf
       -0.0596531772109721 -0.12940232816547423
0000e0 e3 f9 68 7e b9 22 c4 bf ec 6a 9d f2 16 c5 69 bf
       -0.15730971023908955 -0.0031457374761151204
0000f0 d8 a6 1e a7 f1 ff a2 bf 3f 9b 17 d3 b0 05 bf bf
       -0.037108947420461724 -0.1211805835115287
000100 f9 be 8b fe a7 2c 7c 3f 74 e4 50 c4 fb 87 91 3f
       0.006878524997531826 0.01712029824941337
000110 37 80 6f 40 5e 6d 5b bf 7c 42 27 1d 9b 43 31 3f
       -0.00167402462260925 0.00026342904052704236
000120 18 10 a4 a6 1a 4b 7f bf 8c a2 67 08 ff 57 b3 bf
       -0.007639984231222051 -0.07556146578975581
000130 3b 1b 26 fb f9 17 a5 bf c8 f4 7b 76 60 64 9c 3f
       -0.041198551090067835 0.02772665713472547
000140 b7 d8 73 de 1d f7 a9 3f 2f 89 cb f8 05 3b b2 3f
       0.05071347561345035 0.0712131245050258
000150 ec 15 5a 21 d9 de cc bf be 03 0a ef b8 c2 77 bf
       -0.2255507862902698 -0.005800936124274734
000160 76 ca 79 43 f5 45 8e 3f c3 ad f7 c8 91 25 a1 3f
       0.014781871911712968 0.03348975733009809
000170 32 2d b2 33 28 b9 96 3f f6 94 ab b7 94 81 95 3f
       0.02219069304969174 0.021002124510137464
000180 de 99 c0 d1 fd 3e c1 3f 95 8e aa 3a 55 e9 b8 3f
       0.13473484746755465 0.09731037790566639
000190 6f 1a b4 c0 00 cb b3 3f 9c 6c 5b 46 a4 45 7c 3f
       0.07731632904697404 0.006902352999271912
0001a0 f0 47 17 fd 96 bf 8d bf 32 04 77 21 90 8b 68 bf
       -0.014525584791872576 -0.002996236329380974
0001b0 2c 5b e3 3e 90 9f ad bf fb 6c 93 3d 8b 56 9a 3f
       -0.057857997586032134 0.025720763810437735
0001c0 dc 76 b5 97 ea b3 b0 3f e0 de cb 21 fc 15 a8 3f
       0.06524530605153295 0.04704273140481319
0001d0 f0 2f 40 a7 f1 b3 b8 bf f6 1a 3f d2 6d 7e 9a bf
       -0.09649572690267383 -0.02587291331999616
0001e0 c3 2d 45 89 71 c1 c6 3f d5 f5 ed da ba 17 89 bf
       0.17777842714927602 -0.012252292448233707
0001f0 57 51 85 bf 34 d4 ac bf 83 2d a8 69 ca ec a0 bf
       -0.056306503657341515 -0.033056569478584506
000200 e9 6c 95 02 d5 95 92 bf c5 0c 59 11 ae 0d c1 3f
       -0.018149688990303146 0.1332299790102295
000210 3c 6f c0 d5 ee 8e 8a bf d5 d7 97 f1 70 75 b6 bf
       -0.012967935465034601 -0.08772951029081295
000220 0c ae 54 3e ed 42 a0 bf 1c 6e 38 86 f6 50 af bf
       -0.031760610445726284 -0.06116457355912194
000230 3a b7 bc 13 04 ff 7a bf 01 67 7a 77 69 f1 67 3f
       -0.006590858389058424 0.0029227313896854627
000240 b0 18 04 e9 38 2f b1 3f 93 d7 86 06 54 48 b2 bf
       0.06712680519931058 -0.07141614112228316
000250 33 d7 51 ba af 98 ae bf 27 d3 5e 70 9d 02 a6 bf
       -0.05975865506563451 -0.042988700835314746
000260 9b ba af a2 3b 6b 8f 3f 4d 38 c5 05 c7 92 b8 3f
       0.015341249372764756 0.095989645870959
000270 93 2c ff 24 00 4a a6 bf 2d 93 50 0f ff 47 ad 3f
       -0.04353332950230384 0.057189913386798664
000280 35 02 dc 92 fd 5d 9a 3f 11 6b 9f d6 43 52 90 3f
       0.02574917038782783 0.015938816046268182
000290 4a bf 57 d4 96 07 80 bf 18 ef 5e 8b a7 96 54 3f
       -0.007826975207506987 0.001256621949763342
0002a0 99 83 c9 94 5e 8e ca bf e9 2c a3 2a c9 cc cc 3f
       -0.20746977105139022 0.22499956685928815
0002b0 79 00 20 d4 7c 70 99 bf 96 c3 a4 4f fb 2e 81 bf
       -0.024843168685038528 -0.008390391700773308
0002c0 43 88 be 7d c6 18 69 bf d2 18 fc 92 7a 3d 7f 3f
       -0.0030635716229463774 0.00762699013262687
0002d0 65 3f 68 ad db cb 88 3f b4 6a 57 e2 8e 3f aa bf
       0.012107578496425917 -0.0512661601348631
0002e0 cf 8d 90 ef 3d 81 a4 bf 24 27 be f5 56 c5 79 bf
       -0.04004853772519434 -0.0062917134163258705
0002f0 e7 ce 14 28 5f ab a9 3f da 0c c8 20 08 22 77 3f
       0.050135587351545934 0.005647689581113025
000300 88 cd 95 00 85 df a0 3f 92 93 16 b7 00 fd a5 3f
       0.032955318757468766 0.042945883130676724
000310 e2 22 ac 62 e0 bf 92 3f a5 81 fc bd 29 ce 4b 3f
       0.01831007578133182 0.0008485511607184039
000320 50 88 c1 f6 4a 1a 95 bf 57 5b 26 7b 1f 00 8c bf
       -0.02060811167792337 -0.013672109552130314
000330 11 98 3d ec f2 61 c2 3f a7 78 ca d3 8b 51 c4 bf
       0.14361416373429894 -0.15873859254219733
000340 e6 a1 4d a7 4a 57 82 bf f5 62 46 eb 85 33 9b bf
       -0.00895555804318433 -0.02656373260979002
000350 ea 9d 91 e1 b3 66 93 3f 68 5f 51 5e bd 3b 81 3f
       0.018946467058780593 0.008414725724079822
000360 ec c5 3c de b0 70 7e 3f ea dd 24 f2 44 62 bb bf
       0.007431689158509763 -0.1069682208225157
000370 2a 66 7e c3 d0 60 b5 bf ae 4e 0f 37 3d fb b6 bf
       -0.08350853703304809 -0.08977110475762615
000380 39 64 64 d9 a2 27 be bf 84 28 11 1b 62 30 bd bf
       -0.11779229934144632 -0.11401951943222072
000390 0c 5d 98 4b 4d 78 8a bf 82 05 e7 e3 d5 e2 85 bf
       -0.012924770230752468 -0.010686560647516389
0003a0 e2 9f 21 07 be 00 61 3f 4f a4 72 d9 e3 ce 83 3f
       0.002075549266965724 0.009671955178719353
0003b0 ce 12 25 c8 02 37 a4 3f 32 3b 3c 6b 82 b0 d1 3f
       0.03948219960378695 0.27639828178591863
0003c0 9c d0 67 57 ad f8 d2 bf 7f c9 56 27 06 ae cf 3f
       -0.2964280465669249 0.24749829216814231
0003d0 02 c3 46 a6 64 e4 d4 bf 00 08 60 52 2b ae d3 3f
       -0.3264400123398873 0.30750544590421214
0003e0 ad 9d 01 6a b0 b5 9d 3f f2 d8 10 1e 3c 26 8c bf
       0.029013401479827717 -0.013744802157912937
0003f0 fc 52 47 9c be a0 80 3f 5e b7 ab af 4d e0 b2 3f
       0.008119095939869585 0.07373509920918539
000400 ff 88 e8 87 75 9d 9b bf 15 a7 22 97 7f fb 7a bf
       -0.026967846317469398 -0.006587503814594849
000410 54 1d 97 56 76 17 30 3f df c5 e7 ef 15 72 a7 3f
       0.00024553908459919627 0.045792279753992686
000420 54 e4 c3 01 9b 15 95 3f f2 81 39 00 5e 1e 91 bf
       0.020590230925311495 -0.016717404140196686
000430 56 f8 ba af bc c5 93 bf 07 6b e8 b6 07 0a 82 bf
       -0.0193089945084853 -0.008808193463712323
000440 52 da 48 56 26 f3 a6 3f 16 2c 28 62 a9 58 97 bf
       0.044823835404191784 -0.022799154869101633
000450 1d c2 97 6b 36 b1 92 3f d2 a7 24 c8 2c 8f 80 3f
       0.018254137341445643 0.008085584504971797
000460 8a 24 44 73 5e be 8f bf 07 23 de 0d f1 7d 96 3f
       -0.01549981869949792 0.0219648041452585
000470 5e 64 f9 86 ae be a6 3f 30 b3 c3 3f a1 7a 98 3f
       0.04442353627809646 0.023905295864938114
000480 82 59 f0 ad a5 78 91 bf be 33 c9 9b 54 db 9b 3f
       -0.017061794988046504 0.027203866966647665
000490 ae 6f dc be a8 20 88 bf 45 99 e7 39 27 a4 95 bf
       -0.01178104240857877 -0.021134007367345182
0004a0 94 c9 09 82 d8 cc 68 bf db 49 55 f1 08 51 ba 3f
       -0.0030273655577783363 0.10279899494097526
0004b0 9e e6 9c e6 f3 21 96 3f 7c 56 16 c0 d1 8c ab 3f
       0.021613894415372863 0.05380874128165389
0004c0 1b d5 cd ab a7 63 ab 3f 82 73 1b 21 44 3b 9c bf
       0.053494682047054286 -0.027569832344727548
0004d0 ec 4b 9e d1 8c ce 70 3f 85 6a 36 58 e2 0d 87 bf
       0.004103231500169873 -0.011256950680764941
0004e0 90 d3 8d d3 be e8 57 bf 3b 30 2a 89 52 c3 58 bf
       -0.0014592994250197423 -0.001511412240378553
0004f0 12 7f 90 bb 72 a8 7d bf b8 ba 02 b5 1d 01 a2 bf
       -0.00724072282267209 -0.03516476473429492
000500 c9 d0 ce a7 3e ec a9 3f f1 d4 1e 92 7a 47 a7 3f
       0.05063052938877061 0.045467214905707716
000510 e2 dd 49 64 c6 fe 65 bf dc 6d 17 9d ce 66 9e 3f
       -0.0026849627341183216 0.029689052904229615
000520 ad 6c e7 bb e8 39 77 bf b9 04 e7 33 d9 bd 90 3f
       -0.005670460812747508 0.01634921435630041
000530 8e 70 bc d3 ed f1 88 3f 2a 62 c4 d5 19 b4 84 3f
       0.01218019297044062 0.010109140239863274
000540 7b b7 cd 43 8a 3f a0 3f a3 1b ca 2e bd 82 80 bf
       0.03173477246933395 -0.008061864843751659
000550 cf 76 92 67 61 35 81 3f 2f 0e 8f 04 b7 b8 93 3f
       0.008402596448202541 0.01925931897473115
000560 22 96 4b a0 b0 09 75 3f c9 6c 33 0f 6c fb 7c 3f
       0.005136194177543215 0.007075712305972101
000570 2d 6a ed 10 27 3b 69 bf 1d 41 39 ac 81 22 79 3f
       -0.0030799639711578592 0.006136423620390266
000580 e3 12 5e 1c e2 79 79 bf 18 79 36 c2 6d 3c 62 bf
       -0.00621975254569371 -0.0022260802958974472
000590 4d 3d 94 df 2d ee 51 3f c2 d3 b0 4a d8 6e 4f 3f
       0.001094384000967913 0.000959258662425293
0005a0 bf 5c 03 a1 cc 46 b1 bf 7a 18 ef 0d 00 6d a1 bf
       -0.06748656207070079 -0.03403473062603353
0005b0 61 3d 03 ed 85 97 81 bf 49 35 ae 81 8b d2 8f 3f
       -0.008589788718750215 0.0155383013677929
