data/citylearn_challenge_2022_phase_1/models/params18.npy (npy, 1600 bytes, 1 tensors)

array f8 [184]
0	0xbfba2e58295f9ddf	-0.10226965913863449
1	0x3f91595a17e7297d	0.01694241305248444
2	0x3f798a53cffda2f6	0.006235434906422857
3	0xbfd20527cf3dd898	-0.2815646671146026
4	0xbfc9137d39813061	-0.1959072619232556
5	0x3fab731140271d88	0.05361226947894254
6	0xbfa4fb6785a78d81	-0.040980563225981655
7	0xbfa65ac2f581151d	-0.043661205738809473
8	0x3fa913e7deef12ac	0.04897999378548454
9	0xbfcac1054b9c5939	-0.20901552383356561
10	0xbfc540ed48d89bee	-0.16604391152324588
11	0x3fc3492ff9c8d9da	0.15067100235474024
12	0xbfbd802b72ed9780	-0.1152369647585072
13	0x3fc2469eadb6cf3f	0.14278014642843037
14	0xbfc0de6d18745c43	-0.13178790754384026
15	0xbfb3aa6d05eccfb9	-0.07681924242643746
16	0x3fa7820611809fd5	0.04591387714054888
17	0xbfa19dfdef72c02a	-0.034408507804414803
18	0xbfa8c19ff1a3026d	-0.04835223984401158
19	0xbfc1925c0deae2fc	-0.13727904014174175
20	0xbfc43b4df7ecbfba	-0.15805983167365217
21	0xbfc5d5f574923be2	-0.17059200469927221
22	0x3fbad45e2da4dbae	0.10480297674517544
23	0xbf88c5b01b75442a	-0.012095809781984174
24	0x3fbc1e4a0a3995ef	0.10983717679626868
25	0xbfb76ea4e928ccaa	-0.09153204624526504
26	0xbfae2274cfc448ff	-0.05885663067069124
27	0xbfbfb63b659709c0	-0.1238743899366801
28	0xbfc59c205fbb97e4	-0.16882710146381819
29	0xbf75e014a0d26dfe	-0.005340653017948947
30	0xbfa45b10657ad309	-0.03975726355330351
31	0xbfbfae0850c8baa8	-0.12374927494304677
32	0x3f1ddb66c096abd6	0.00011389555597555943
33	0x3f9060b123585b08	0.01599385050038918
34	0x3f633e2a0ab04315	0.002348978150174106
35	0x3f61400a78971524	0.002105732394485431
36	0xbf76a9e67296e554	-0.005533123193737072
37	0xbfb3a673eb2d406c	-0.07675861827488156
38	0xbfa2dbdc783f9cef	-0.036833657912035515
39	0x3f910381ee07117e	0.01661494269662133
40	0x3fa70a93c8710c0e	0.04500257322117572
41	0x3fb3d3b52d47f9f7	0.07744915347573299
42	0xbfcd490a958b7137	-0.22879154493319628
43	0xbf71fa2a8730167b	-0.0043889676335361295
44	0x3f94587ec08ec9fd	0.019868832114022784
45	0x3fa09205a8186043	0.03236406018203344
46	0x3f974ed1622d7600	0.022761603944095654
47	0x3f8f56082c3212a2	0.015300811623327807
48	0x3fc09a3959db5e97	0.12970654380363975
49	0x3fb9171e4bbf35a9	0.09800900792398316
50	0x3fb3b2805cc8d9aa	0.0769424654507477
51	0x3f7c5f1c6b949b18	0.006926642433689144
52	0xbf7f0e8e1d02b7d3	-0.007582240228812115
53	0xbf67f327b241c8c2	-0.0029235625570943344
54	0xbfb03521062f95da	-0.06331068421385258
55	0x3f988fc46b373d44	0.023985928577358054
56	0x3fb22dce10f25250	0.07101142801031668
57	0x3fa5b240506b5f67	0.042375573937248494
58	0xbfb64d13d1c7e08a	-0.08711360808945492
59	0xbf9db7bc4a31c02f	-0.02902120783659273
60	0x3fc7e1e5023d39d2	0.1865812550481239
61	0xbf89b4d5da55c498	-0.01255194733195912
62	0xbfae32bcd00b05fa	-0.058980846782571164
63	0xbfa1f6b157079882	-0.03508524119733726
64	0xbf90eca9061f0a41	-0.016527787207232917
65	0x3fc07f7479d34a92	0.12888961742881527
66	0xbf882f1b13855bea	-0.01180859711955225
67	0xbfb6642b64b10339	-0.08746596535003172
68	0xbfa053c1956780ff	-0.03188900898726565
69	0xbfaca1234d0d927e	-0.05591688457096654
70	0xbf7215f6ceabd196	-0.004415477839519252
71	0xbf640ec9489f7490	-0.0024484568902907802
72	0x3faf45a3dab15c67	0.06107818646040002
73	0xbfb2f68f282f970b	-0.07407469493008649
74	0xbfb00f5c3f824a72	-0.06273438025008618
75	0xbfa2dcc91d8d3e70	-0.03684071050394955
76	0x3f89b9f26d3b4051	0.012561696966628373
77	0x3fb959101ef0766a	0.09901524310449764
78	0xbfa68456a37c6bd5	-0.04397841211012802
79	0x3faddd23bffe6c19	0.058327786623714135
80	0x3f9c347c07390df2	0.02754396242222685
81	0x3f94ce3712a9f6d6	0.020317898286967694
82	0xbf860be3bc664de9	-0.010764865099907222
83	0x3f5515bd1d7c2582	0.0012869211986433486
84	0xbfca9802c66cdf0c	-0.2077640026925497
85	0x3fcbb56275d8ec60	0.21647291902795285
86	0xbf9a348640db80c5	-0.02559098978861198
87	0xbf80431c1866bd31	-0.007940501684827158
88	0xbf4aecdaf57066d3	-0.0008216923841956831
89	0x3f77d5d042c1365b	0.005819142836185866
90	0x3f8f9d38113c29b7	0.015436590219469843
91	0xbfab956f25120fa3	-0.05387446715852142
92	0xbfa554e4c783636e	-0.041663312296526964
93	0xbf74e72bf347a5fc	-0.005103274994760817
94	0x3fa5867f7c3c61ed	0.042041763225089436
95	0x3f84e516a805e7a5	0.010202576639802017
96	0x3f9a6b78599eae44	0.025800590963326778
97	0x3fa692364b58e7d0	0.04408425969855012
98	0x3f970afbe15a293f	0.022502837781339876
99	0xbf431fdb025a6e1e	-0.0005836314564535182
100	0xbf94da7992cf5eea	-0.02036466558987985
101	0xbf91c86f5e68625c	-0.017366161477271866
102	0x3fc12d1da0ce9b12	0.1341893229666416
103	0xbfc4af6181eafb83	-0.1616021999706981
104	0xbf7cad6d173ff9b8	-0.007001329551711448
105	0xbf9cdcfbdbae6d20	-0.028186736377034838
106	0x3f922f055d366ba7	0.017757495702976602
107	0x3f8d485fb32a39f4	0.014298198371105443
108	0x3f85483577b17915	0.010391633715866303
109	0xbfbb27150033541f	-0.10606509451766087
110	0xbfb63c8a46a6c021	-0.08686126923453276
111	0xbfb67284f4f59a0c	-0.08768492680028589
112	0xbfbdf14428540cb1	-0.11696268066957562
113	0xbfbedbd3d1f90d63	-0.12054180027285137
114	0xbf84ab520d2f0e15	-0.010092392947519216
115	0xbf866eab64325985	-0.010953272814998591
116	0x3f6680bb52be232c	0.00274693094792546
117	0x3f8178060428910d	0.008529707910448292
118	0x3fa48ef3812e4c64	0.0401531310264083
119	0x3fd23c09e599dd53	0.28491446897483746
120	0xbfd2bc7b4352e683	-0.292753997560432
121	0x3fd014d484d8a74e	0.25127137158653035
122	0xbfd5a3eecc692567	-0.3381306644629007
123	0x3fd39781106bc9f9	0.30612207988374923
124	0x3f962ffcf48ed6e2	0.021667435099252404
125	0xbf8eb63ec5c28de7	-0.014996042642741748
126	0x3f8d807810434244	0.014405191417979364
127	0x3fb24427b2f03424	0.07135246389971478
128	0xbf995384bac78b9e	-0.02473266019832076
129	0xbf7cb3784a2102be	-0.007007093316190703
130	0xbf4dd1bb2c8e6bb8	-0.0009100116668493341
131	0x3fa962c6c28e963e	0.049581729173308706
132	0x3f94531d8e074b18	0.01984831027386766
133	0xbf87f47228e54be1	-0.0116967123728155
134	0xbf90bc8927e93e46	-0.01634420686815321
135	0xbf7837300008fc90	-0.005912005901847497
136	0x3fa5999c35e0a9d4	0.04218757779775087
137	0xbf8e4016a22f56fa	-0.014770676445475573
138	0x3f922af259a2b543	0.01774195358364251
139	0x3f716fd16d44bc00	0.004257028649859329
140	0xbf8dca205f66f7d1	-0.01454568186897723
141	0x3f92fe4780e9dffe	0.01854812359167112
142	0x3fa6ccf21eca4458	0.044532362230832845
143	0x3f991d659bd0a76b	0.024526202807613567
144	0xbf7451f94d74560b	-0.004960988844023638
145	0x3f9a53f688306660	0.02571091848594731
146	0xbf71bc35b7fa491d	-0.004329881514097769
147	0xbf94d3c4e7a388c5	-0.020339085233793925
148	0xbf736d8b4f330d94	-0.0047431413433431
149	0x3fb8a645b9f463ae	0.09628711500080442
150	0x3f94550c244b025e	0.019855680194043372
151	0x3fa906fb14080925	0.04888138408206747
152	0x3fae553e22dc54e5	0.05924410033746045
153	0xbf98bd812bed4f2e	-0.024160402589884437
154	0x3f6554edc06cb318	0.00260397373076272
155	0xbf8f158debcba649	-0.01517783046570566
156	0xbf7a84e9057e06b8	-0.006474409332328505
157	0xbf632f2aee66b3fb	-0.002341827249628723
158	0xbf74930e199a8364	-0.005023055151156839
159	0xbf9d367e36f76b44	-0.028528186898124433
160	0x3fac5420a6349b51	0.05532934216380759
161	0x3fa599b7c430ac1a	0.04218839902781486
162	0xbf6821fca91c42b8	-0.0029458937432383613
163	0x3fa0e0d610aa7ff1	0.032965364012170435
164	0xbf3a6dd6634fa25c	-0.00040327533798615255
165	0x3f855b1293065da6	0.010427613365023469
166	0x3f79ede5595a0864	0.006330390829704855
167	0x3f6758de10a40fbc	0.0028499924857232333
168	0x3fa1ede59f635d27	0.03501813479095466
169	0x3f406c270a7c6a56	0.0005011740331356078
170	0x3f7c164b16697040	0.006857198057868941
171	0x3f90ce428eef9db2	0.016411819433327764
172	0x3f834f6fd41cdcad	0.009428857479731734
173	0x3f80fe757962b06c	0.008297841803447358
174	0xbf7a6e1af0d96544	-0.00645266078716961
175	0x3f6275ea7679b5cf	0.002253492293496896
176	0xbf7aa04a7c746a0a	-0.0065005216231619565
177	0xbf71b112b994d667	-0.004319260734794029
178	0x3f6ca6ae6d9c7760	0.003497448616044105
179	0x3f45a86429f27094	0.0006609429436994657
180	0xbfb18489757efc13	-0.06842860334926142
181	0xbfa0232401741b52	-0.03151810186141425
182	0xbf8a0b036e414ff0	-0.012716318895549222
183	0x3f8a1f1c5befba88	0.012754651599576464
