data/citylearn_challenge_2022_phase_1/models/params13.npy (npy, 1600 bytes, 1 tensors)

array f8 [184]
-0.19810036411275955 -0.09813278617904138 0.09471997599388596 0.4823202906782277 0.68550710354355 -0.04165786438695793 -0.05327422881567544 -0.08459974471001336
0.00791785099002807 -0.16066510443575507 0.11973857145547571 0.31623876137524193 0.42286093205488456 0.43073129799037074 0.48512276869151505 0.47576162908248065
0.4551706419778274 0.21166625542296807 0.09478085134414908 -0.029543321441523458 -0.009118209881835863 -0.0736232579984272 0.01631219650290893 0.2234505256139649
0.1374568550776663 -0.1170392265741298 -0.0566444248106347 -0.19305887370879407 -0.051102047944022296 0.03807634312642137 0.10873587456907101 0.058970773834197715
0.03926055604484156 0.015157435654342574 -0.022050140693484883 0.009302104385924825 -0.02153248517692308 -0.020930139102555444 0.035300045906059056 0.05826572442045936
-0.06049216714837341 -0.04136132429615326 0.1247462369785748 -0.011546445428304861 -0.047081813604353324 -0.03244033198850758 -0.009020371917452127 0.02664144534838403
-0.07358550653023196 0.05070937751325842 -0.06116143509194402 -0.012261210981123524 0.030872547748027227 0.006390062453471565 0.0312050867507271 0.0016550898454161368
-0.030391990382117214 0.06456550097391885 0.0387932418426087 0.0015842565624146028 -0.00585242686235542 0.006181625257505301 -0.04238216033441486 -0.0691871348084233
-0.09336454795843858 -0.017334389258110768 -0.10393701022878862 0.2632211441766451 0.05278045862089704 0.01194111836762423 0.0016711334069288142 -0.006768429320889915
-0.052328028177636134 0.013324741376943993 0.038877221464828825 0.0010766007494664805 0.01548715197500603 -0.004445764460421359 0.07087906615213539 0.00887631244557352
0.010975603787211258 0.007930921417674168 -0.012670642607570615 -0.09724427395183095 -0.004919659611310813 -0.019860028399120558 0.057094587179842046 0.0024724593620371283
0.012333560866178367 -0.022530253629010583 -0.036095266447809846 -0.006614556935050664 0.01982857055412157 0.10065591269798412 0.018858155131377053 -0.006786937048643722
-0.1647897182837827 -0.007533923464090667 0.003226760779323297 0.021377414182882568 -0.004347809379731545 0.14383923225512607 -0.022000679879855413 -0.09801671307341193
-0.030678214880535726 -0.06002151048965409 -0.010229646377900893 0.03027603161249927 0.05919356563652584 -0.0924203705139687 0.010051734253463753 -0.031714899949796115
0.07777409632435961 -0.006219038858868447 -0.10954349538594255 0.03427471022557302 0.028717833965283178 -0.00126640669765994 0.026770435092446712 -0.24315372471128602
-0.18182610036780855 -0.2866168848578529 0.2428363421009964 0.3046987652153664 0.011867426812115998 0.021994675397254988 -0.0001846195875832201 -0.020138270802093655
0.018031718401439325 0.008171268963983992 -0.004478566078837654 0.009753130719804451 0.022278975009560272 -0.010631090761301377 0.018973712299474355 0.007967615960558753
0.006131968450503376 0.023128122931812496 0.028462531906499753 -0.005555723929975524 -0.01905078647371813 -0.01691641683305167 -0.0046322444649643055 0.05220060588044413
0.01880925083498997 0.02484715993129581 0.008585284403792564 -0.017538248060964753 -0.018741665261077227 -0.032972768230066514 0.015850735509525624 0.016736638177627827
0.05355741014926583 -0.009470961557389232 0.007643124519137666 0.031940733040570296 0.02470432111191005 -0.01625106456139981 0.003269706922510911 -0.01138500313869685
-0.0006698915199731888 -0.0064338050825380666 0.00686352756752559 0.02118531999204866 0.018003696022888847 0.025427409152489006 0.007820584581804409 0.026524539494663473
-0.019246438643814204 -0.024648843359398105 -0.018454007758192878 0.00017456507146173595 -0.04177875864630536 0.028335446341343606 -0.012136996645728424 0.06856496672704411
0.025075280585398693 0.00478778249399034 0.0019504034913154506 -0.008780907807568853 0.008557567438402667 -0.0018281876829852309 0.05533546340842447 -0.07223797150182575
00000000: bc51 984c 5a5b c9bf 75e9 4df3 3a1f b9bf
00000010: f2f0 2b7f 913f b83f be40 aaec 55de de3f
00000020: c0a5 dc97 acef e53f 4c8d 53fa 2d54 a5bf
00000030: ce44 f77c c246 abbf 748a c730 54a8 b5bf
00000040: c444 74f8 3b37 803f a37a 9494 ac90 c4bf
00000050: 3f95 78e0 2fa7 be3f bb63 7580 413d d43f
00000060: bba2 7b4c 2710 db3f 8fdd 8e01 1a91 db3f
00000070: 4acd 845e 400c df3f c075 66e7 e072 de3f
00000080: d438 590b 8421 dd3f daad 5a3e e117 cb3f
00000090: 8366 cfd0 8e43 b83f f550 a0bd 9a40 9ebf
000000a0: fca4 ec69 91ac 82bf ea05 544d f9d8 b2bf
000000b0: be0f 06fa 24b4 903f 4e9b e4dd 069a cc3f
000000c0: 12b5 95ac 2f98 c13f 602a 7c62 48f6 bdbf
000000d0: d0f3 1f80 7f00 adbf 2514 6436 27b6 c8bf
000000e0: 013d 5b31 0c2a aabf ce60 f510 be7e a33f
000000f0: 1316 2d41 1dd6 bb3f 544c 13d2 6a31 ae3f
00000100: 5e82 78a8 f519 a43f beba 6993 dc0a 8f3f
00000110: 6255 9ae4 4f94 96bf 40e2 f850 fb0c 833f
00000120: e1c3 8b9e 9c0c 96bf 56ea c8db b56e 95bf
00000130: 1f7a 6dfd d812 a23f 992c ba49 01d5 ad3f
00000140: 0803 224f d4f8 aebf 42ab 57be 4f2d a5bf
00000150: 513e 1f90 5eef bf3f c537 ffab a9a5 87bf
00000160: 9989 5583 1b1b a8bf 3d8e ece9 049c a0bf
00000170: 58d2 10d3 4579 82bf 703a f521 e547 9b3f
00000180: dec6 01f0 7fd6 b2bf 8e38 0a5c 94f6 a93f
00000190: 7c1e fe36 8d50 afbf 78e1 62e1 671c 89bf
000001a0: 511a b09b 0d9d 9f3f bde8 1c54 772c 7a3f
000001b0: a4bb 40ec 39f4 9f3f 3923 8330 f31d 5b3f
000001c0: b293 01f3 131f 9fbf a501 225b 5d87 b03f
000001d0: 4226 0a32 b5dc a33f ac56 f087 daf4 593f
000001e0: f3e4 9ddf b6f8 77bf ece4 1265 e751 793f
000001f0: 6ce9 2351 1db3 a5bf f75d 4e81 3fb6 b1bf
00000200: 6d5a 1630 bde6 b7bf b2c0 d62b 1bc0 91bf
00000210: 7ed3 c6ab 9d9b babf 5aae 767f 9dd8 d03f
00000220: 790d 4a4f 0a06 ab3f bcd1 eec6 9574 883f
00000230: fbeb 1ed5 3d61 5b3f 5c93 4169 36b9 7bbf
00000240: 5dcd 5f43 bdca aabf 9976 8883 004a 8b3f
00000250: 6b67 8015 b7e7 a33f 27b0 a040 97a3 513f
00000260: b339 ed59 bab7 8f3f a062 69cf b835 72bf
00000270: 5b2d 1867 2125 b23f 8072 4d7d be2d 823f
00000280: 6a35 8f9a 607a 863f 09af ed40 163e 803f
00000290: e057 f3dc 10f3 89bf 45ac 5830 00e5 b8bf
000002a0: 0e61 3512 a326 74bf b42d e3f1 2f56 94bf
000002b0: 1e9d 6e71 803b ad3f 366e 3883 1f41 643f
000002c0: 1df8 8184 5642 893f b55b 07ba 2b12 97bf
000002d0: 6614 de29 147b a2bf 1acb 6a9b dd17 7bbf
000002e0: dfbb 39d8 f04d 943f e7d6 2ffd 95c4 b93f
000002f0: 2d69 355e 8d4f 933f e17a 9f8a 9ecc 7bbf
00000300: a679 5f59 d417 c5bf 90ac 382e e4db 7ebf
00000310: 435c 9d00 026f 6a3f ac73 27fb f5e3 953f
00000320: efe4 8531 02cf 71bf 2071 35ef 5269 c23f
00000330: 9a83 4ba2 5887 96bf ad99 1c91 9f17 b9bf
00000340: 2d3d 7226 1c6a 9fbf 8f1b 38b1 23bb aebf
00000350: 344f 24e5 47f3 84bf 446d 8316 ae00 9f3f
00000360: 99c3 1579 9e4e ae3f 8a79 d784 dca8 b7bf
00000370: 4efb 17ef 0096 843f 4b1b 2974 ef3c a0bf
00000380: 7067 30d0 00e9 b33f 93aa 2e88 2279 79bf
00000390: 0812 2ce2 0a0b bcbf 4c57 ff6e 748c a13f
000003a0: 467a c536 3568 9d3f 3a83 64d6 b1bf 54bf
000003b0: 4412 e37c b569 9b3f 3f8d c447 a91f cfbf
000003c0: 28c9 51e1 1346 c7bf 3b89 bc58 ee57 d2bf
000003d0: 6d51 cde1 4215 cf3f 39d2 ee3f 2f80 d33f
000003e0: 1f9e 5d10 f34d 883f 25c3 11ae c585 963f
000003f0: b6a2 862e ce32 28bf c8d0 f879 209f 94bf
00000400: f7a8 4c23 e876 923f 34af bc27 19bc 803f
00000410: 671f 77ed 1d58 72bf 8827 cd0b 73f9 833f
00000420: 0fc5 37b4 4cd0 963f 67f1 1fd9 c0c5 85bf
00000430: ed64 3d47 d86d 933f cf4d d24f 5351 803f
00000440: a4be 47bf d51d 793f 72a4 700e e6ae 973f
00000450: 4991 cc2e 4825 9d3f 1e8b 5b49 99c1 76bf
00000460: f785 78a3 0c82 93bf dffb 4084 8952 91bf
00000470: 4ade bea7 42f9 72bf 4a00 2dae 09ba aa3f
00000480: c14e cb74 bb42 933f bbad 36ad 8871 993f
00000490: f6de ed5d 2995 813f 0c67 67e7 8bf5 91bf
000004a0: 7ec2 79dd 0331 93bf a9d7 6982 cee1 a0bf
000004b0: f919 86da 2c3b 903f e0b9 78c6 6823 913f
000004c0: 4d5f 197a e06b ab3f 388d 34f1 8265 83bf
000004d0: b24e 959d 654e 7f3f 9c97 a327 895a a03f
000004e0: cb6d fbec 164c 993f 84fd 437b 1ea4 90bf
000004f0: bd0d 9789 12c9 6a3f 881b 2a41 0551 87bf
00000500: 448f c715 75f3 45bf d784 b166 555a 7abf
00000510: 60e3 0027 ee1c 7c3f c4a6 15c2 9ab1 953f
00000520: 7971 8096 8f6f 923f a884 ed8a a409 9a3f
00000530: e498 1d18 3d04 803f 1b25 afb6 3f29 9b3f
00000540: b19a 28a2 56b5 93bf c28c 73e0 8b3d 99bf
00000550: 6cce 347f 9be5 92bf 4c5f c08b 6ee1 263f
00000560: d751 1b84 0664 a5bf f01e 6a9d f703 9d3f
00000570: bf0d 521d 48db 88bf a575 be41 798d b13f
00000580: 0c91 3598 55ad 993f e179 b693 5a9c 733f
00000590: 8399 63cd 95f4 5f3f e2ce e67e b9fb 81bf
000005a0: 1202 4042 a186 813f 77be cc93 f9f3 5dbf
000005b0: 45df 4b0b ee54 ac3f 6f35 210d 307e b2bf
