data/citylearn_challenge_2022_phase_1/models/params15.npy (npy, 1600 bytes, 1 tensors)

array f8 [184]
0	0xbfcac65af0e3843b	-0.20917832147736867
1	0xbfb7da5f5fab1d4c	-0.09317585073141749
2	0x3fba20f0296d41c1	0.10206509601017101
3	0x3fdec15a15a2c708	0.4805512629783242
4	0x3fe66de477f456aa	0.7009146063671399
5	0xbfa7535a36bc5068	-0.04555780332717135
6	0xbfac8adb60114921	-0.05574689433764691
7	0xbfb4007a26a2560a	-0.07813228076187087
8	0x3f841e0a738eafae	0.009822923327952395
9	0xbfc4ed868f156258	-0.16349870668888644
10	0x3fc1b7153c5d5df0	0.13839974830146629
11	0x3fd48c29392a48f8	0.321054750275962
12	0x3fdb3b230f30a7ac	0.4254844330158629
13	0x3fdb808b17edfcb3	0.4297206624687064
14	0x3fdf022410ec2c63	0.4845056691417026
15	0x3fde71e2380e78f9	0.47570090746184196
16	0x3fdd925a52ee522d	0.462057667720077
17	0x3fccba5254846444	0.22443608404936033
18	0x3fbab667832a517f	0.1043457694270895
19	0xbf9deec8fb02f710	-0.029231205292254592
20	0xbf8583224c7a1a63	-0.01050402446641136
21	0xbfb50a1199b23ddc	-0.08218488695478449
22	0x3f8a60b249821771	0.012879746311465575
23	0x3fcd58f5d67eab16	0.22927735303286373
24	0x3fc101699520a24a	0.13285560399642043
25	0xbfbfd06bd03fe2cf	-0.1242740043088688
26	0xbfaff9f6654048fa	-0.06245393739676959
27	0xbfc921aa865677a2	-0.19633990821324426
28	0xbfab55ddefb546ee	-0.053389487754101114
29	0x3fa70c08ebe8dde0	0.045013693616450245
30	0x3fbbfc51da58212c	0.10931884365721051
31	0x3fac60dfe1c30926	0.05542659407503185
32	0x3fa6846955617a39	0.04397896926160567
33	0x3f813d10d9d89c0b	0.008417255066047976
34	0xbf962c2edf6ac45b	-0.02165292013768681
35	0x3f7a420974734c69	0.006410633977071625
36	0xbf95fa9a3ec469a2	-0.02146378524876414
37	0xbf97ca8ebff2dbcf	-0.02323363348542867
38	0x3fa873c9ea6fcace	0.047758397929916194
39	0x3fab2811829e047c	0.053040072626580476
40	0xbfb0cf7446567cea	-0.06566549985153683
41	0xbfa585936532a653	-0.042034727195027564
42	0x3fc094008b944bb8	0.12951666655916738
43	0xbf7a090ca8719d66	-0.006356286473511252
44	0xbfa760ca75ec503f	-0.04566033067217789
45	0xbfa455a487af4222	-0.03971590191179454
46	0xbf8207a5b8dd8386	-0.008803648666516183
47	0x3f9ca6c4633a640e	0.027979916149522714
48	0xbfb194e85152516a	-0.06867839799298783
49	0x3fab45ae331a9607	0.053265994776023055
50	0xbfb01eb21bad73d1	-0.06296837974282644
51	0xbf8a3a8e4e975577	-0.01280699899045133
52	0x3fa18c308439d6ac	0.03427268613897402
53	0x3f7cbf74f3ce0149	0.0070185249759336455
54	0x3fa035520bcea4fc	0.031656803075131607
55	0x3f3114d87d911e40	0.00026064191257943806
56	0xbf9cb91a7c3eacd3	-0.028049863656332285
57	0x3fb021a776876097	0.06301352161188088
58	0x3fa1eac218f4a1a3	0.034994187876068915
59	0xbf32a3a9258b6984	-0.00028441314274876167
60	0xbf817da3fa1a0d15	-0.008540421552658143
61	0x3f625ac8cb91b4d0	0.002240554979428745
62	0xbfa361f560908f42	-0.037856739080125226
63	0xbfb181fa995f7e46	-0.06838957066019544
64	0xbfb66dd5465473d1	-0.08761342017210373
65	0xbf95f5d3bcc7222b	-0.021445568463407987
66	0xbfba728d2905b913	-0.10331041575929971
67	0x3fd0f15187edefea	0.26472891115531516
68	0x3fa7ff0821519d51	0.04686761290286746
69	0x3f938752d9783820	0.01907090618447438
70	0x3f625e8728d21326	0.0022423400719752294
71	0xbf636ee3161b77d1	-0.002372211006202975
72	0xbfad65a86a65e164	-0.05741621302417135
73	0x3f8e02864866af3f	0.014653252682215288
74	0x3fa239221cbf914d	0.03559214211398629
75	0x3f40faef352e6b7e	0.0005181949621716334
76	0x3f91557d8f84db9c	0.016927682766631244
77	0xbf6b71ad51089223	-0.003350103863583935
78	0x3fb1bcf9e625310e	0.0692897974851727
79	0x3f7fab57bc55c5c9	0.007731764523997106
80	0x3f7e490582077c22	0.007393857493723595
81	0x3f7e8eea8d7651e2	0.00746051427940528
82	0xbf8d927f939ef281	-0.014439579670459725
83	0xbfba5ed65c0f046b	-0.10300960299993427
84	0xbf60df24bc420e5d	-0.002059528111262128
85	0xbf946845144a18ff	-0.019929007876748447
86	0x3faccfea1425438d	0.056273760756659554
87	0x3f6c06b9ef4868bf	0.0034211761033136885
88	0x3f850a96bc63b79e	0.010274102806274329
89	0xbf94448229bbab61	-0.01979258899420289
90	0xbfa409cdd0bb0d76	-0.039137298326319334
91	0xbf756c9a156321c9	-0.005230523957103058
92	0x3f941f30e15947e3	0.01965023398799549
93	0x3fba05f3c075603f	0.10165332268422932
94	0x3f8ddddacb73e654	0.014583310445675547
95	0xbf823d232bb384db	-0.008905672808796108
96	0xbfc589c69ed4f622	-0.16826708560431408
97	0xbf7c4090b33b7c8b	-0.00689751170622722
98	0x3f7561e1e897cab5	0.005220301108681259
99	0x3f96072c7fe846bf	0.021511740977138368
100	0x3f6745441d22d8e4	0.002840645823279352
101	0x3fc23dd83c8bc8f9	0.14251234966611273
102	0xbf9887cbce38a8f5	-0.023955521070242864
103	0xbfbb627899c285fd	-0.10697129968550452
104	0xbf9f7b8cf5472dc4	-0.030744745703300116
105	0xbfac904ef3a89fb6	-0.0557884857592507
106	0xbf75d1a956b3424f	-0.005326901892843751
107	0x3f9b4c75129077e0	0.026658849008633356
108	0x3facb504953d69fc	0.05606855699325661
109	0xbfb7b5dd9b5cf9d1	-0.09261879962011867
110	0x3f8db3c58d1d701f	0.014503043526637836
111	0xbf9e5c3b28418729	-0.02964870866015371
112	0x3fb4631a9bef0c7b	0.079637206144115
113	0xbf7e377f318a8036	-0.007377144670186955
114	0xbfbd412bab500f11	-0.11427567417564101
115	0x3fa1b2ff01fb6cc6	0.03456875704952149
116	0x3fa0e90d5b4de8fe	0.033028046985196
117	0xbf75be9a83030d0c	-0.005308726846297473
118	0x3f9b247c8966a1a8	0.026506372343335777
119	0xbfcef7677b9fba72	-0.24192517792058116
120	0xbfc74b9f9d399ab5	-0.18199534585001734
121	0xbfd24feed335216d	-0.2861287176679273
122	0x3fce6811e7164e1f	0.23755096229125258
123	0x3fd387189ebbaece	0.3051206159714014
124	0x3f8288884ac762bf	0.009049477369374668
125	0x3f9baceaae89c701	0.027026812460866804
126	0xbf5dbf0270b5db94	-0.0018155597525415278
127	0xbf91ef8ab4c0de42	-0.01751534202796124
128	0x3f800512b2e9de55	0.007822176060684397
129	0x3f9201df065f1f76	0.01758526302708626
130	0xbf6e648327acffca	-0.003710037386014141
131	0x3f79639d0fa69b39	0.00619851448065028
132	0x3f972ce4f0f905ce	0.022632195670899517
133	0xbf7aa635312bdb42	-0.006506164342446054
134	0x3f934d5db63aacfb	0.01884981560457975
135	0xbf5e0c53af08ed07	-0.0018339936469960476
136	0x3f62d03bc783522a	0.002296559101617986
137	0x3f9359143b0d6e6d	0.01889449701717043
138	0x3f9984338edcf05f	0.024918370814006937
139	0xbf814f80aaf40e82	-0.008452420441705803
140	0xbf9a61868f8bac30	-0.025762655745818985
141	0xbf7bde5ab6ef2790	-0.006803850511411982
142	0xbf5e713f76843390	-0.0018580550914208717
143	0x3fabf639fab2eb1e	0.054612933972256736
144	0x3f907a8024779e7e	0.016092302537713092
145	0x3f9b68218b3712be	0.026764415857331463
146	0x3f824a579d2f5dbe	0.00893085907402635
147	0xbf8cb005775995a5	-0.014007609085818393
148	0xbf8d77110079b9ea	-0.014387257411013505
149	0xbf9ba3e66b6ae107	-0.02699241667389265
150	0x3f94dd8c334ed826	0.020376387244788095
151	0x3f94be40b201dbf1	0.02025700651617152
152	0x3fabdccbc623c04a	0.054418914734811155
153	0xbf7dd45becc2b5c3	-0.007282599526815261
154	0x3f7500f2bf5ca895	0.005127857429935064
155	0x3fa032f3eac687af	0.031638739022369015
156	0x3f9aea893c338d8c	0.026285309123421238
157	0xbf86d62a938ebeaa	-0.011150677326298226
158	0x3f7dc06254cf0c29	0.007263549906329416
159	0xbf7b82a543e4b6a7	-0.0067163901970112355
160	0x3f61f3c7e7d1e5ec	0.002191439095039929
161	0xbf82c74b0df7dbb5	-0.009169184078002471
162	0x3f7baab2f612bbed	0.006754588191298244
163	0x3f92816a8c69e54a	0.018071808643502586
164	0x3f93ce3dc43aa115	0.019341435529583857
165	0x3f98f788bd7b9e37	0.024381767811887136
166	0x3f7c6310c229730a	0.006930413687396672
167	0x3f95fa7d87802f80	0.021463357348735723
168	0xbf8864860123b29e	-0.01191048327424343
169	0xbf912991ac5018b2	-0.016760135786193238
170	0xbf906bca2686aa49	-0.016036184884493463
171	0x3f589692259f69ce	0.0015007426468317433
172	0xbfa311368c828d22	-0.0372407003899531
173	0x3f9cdcbec6636562	0.028185826166781232
174	0xbf7e1ec868bb0b1b	-0.007353575561583249
175	0x3fb1dd69a65e287e	0.06978473960603712
176	0x3f99fcd42e030c15	0.02537852793535585
177	0x3f7b0d5e686326c1	0.006604546337436624
178	0xbf5deeb4279fb796	-0.001826930935290493
179	0xbf88c64f0f4f7cc5	-0.012096994070758158
180	0x3f5fce23d515c8d4	0.0019412374425340955
181	0xbf7003d610a4c65b	-0.003909908477270098
182	0x3fa9ed2bf3fd766e	0.05063760140795358
183	0xbfb2ace8bed7bedd	-0.07295088443037963
