data/citylearn_challenge_2022_phase_1/models/params20.npy (npy, 1600 bytes, 1 tensors)

array f8 [184]
-0.11116095160700451 0.023839229987958097 0.010859346161142697 -0.2965749547657934 -0.19648966320601205 0.04083556825431434 -0.024925407304371473 -0.051349708991787396
0.06008011385893959 -0.2141130973721856 -0.17569680761543108 0.15718708008052829 -0.13574523600801153 0.12769756657717274 -0.12653386220171509 -0.08256058955907691
0.03327184038214633 -0.025170548042322362 -0.04783189535151213 -0.13847502333693468 -0.1703692539562842 -0.1803330617323237 0.1165320950819568 -0.0064039393356326345
0.11567610819978766 -0.08854002060697343 -0.059528003327523095 -0.13078378098290164 -0.14598576502661967 -0.004116888755092574 -0.028900933828285225 -0.12232665268558857
0.009905886563064483 0.010452780129034342 0.0002737715400574262 0.003450139976048894 -0.00749729975840663 -0.07741555106822375 -0.03990766774776966 0.029975958173630145
0.045378653084945375 0.07284708488270704 -0.22685652516901872 -0.0027605352668235196 0.01287215790661514 0.03585245391618457 0.022629385882046594 0.022539220583796437
0.13220454812298538 0.10327405201913005 0.0824610567732646 0.0027843215302689375 -0.01090329787134083 -0.008400446932166761 -0.056117313706042775 0.02428035027694722
0.06738922792044554 0.04629842535414368 -0.1032716144239681 -0.023703850690357197 0.17364724668218884 -0.015633130842052097 -0.05240951674337397 -0.03278285856524228
-0.014056348920712216 0.1308021956571978 -0.018476172760726384 -0.09030894728892042 -0.03586609327853001 -0.0640575953959 -0.009412182403858832 0.012239663343876396
0.06437923486179703 -0.06563127411239268 -0.05764348141337771 -0.046458436906170464 0.02097829449281642 0.09614019800588644 -0.04371587185391713 0.05659438975894377
0.02175197355797041 0.01681797982437146 -0.005402171450232432 -0.0011771242317411288 -0.20614756958179994 0.22315243508432694 -0.02820453699719393 -0.011878665426239084
0.0030734870870372747 0.01130532899167236 0.013294002109851594 -0.05045799230332037 -0.042636227534920725 -0.010004643462873232 0.05175159601669344 0.003568185889075327
0.03956316276103879 0.051012780392240165 0.013690285837909273 -0.0024164343864458843 -0.0187340809905804 -0.0145778894240216 0.14246257770302598 -0.16087928258433282
-0.008526298276865447 -0.02596239238437506 0.02275689456479728 0.004966609062550734 0.01077582235192825 -0.11076223475601386 -0.0858741985322323 -0.0859492989642939
-0.12216037048330987 -0.11125444820285278 -0.006139390397973725 -0.01118306225425255 0.00304526919324556 0.008303108860070798 0.037458417492283264 0.2741022856484489
-0.2944188098738932 0.25009961678442677 -0.329479900333279 0.3111701121772106 0.028422738131613164 -0.008578740130257593 0.00736467042652242 0.07311696306698336
-0.03147541187937969 -0.004722018107239325 0.005305577636734729 0.0341855238097481 0.01604005769556263 -0.01386135724671137 -0.02199795408663053 -0.012096959290756366
0.0464836151673771 -0.023498360489186923 0.02324217722667668 0.01181097134822266 -0.016468454247081665 0.02656542507643101 0.04180440700168523 0.026965683060672485
-0.01256983725615403 0.027487150466969562 -0.0120082345463593 -0.023406460723446064 0.0014587757616803042 0.1031912752838852 0.021863014197716392 0.056524572553730515
0.05364072987164881 -0.0319224065664468 0.002105305658896794 -0.006232635524333702 -0.000790167464979183 -0.0024153350290863572 -0.003290085493704585 -0.036420455461069645
0.048502247331631096 0.05123767704233831 -0.007849907476038715 0.02530197167672559 -0.003813745656786113 0.019249499947267813 0.006477509335838196 0.01103382140553468
0.028664347436047843 -0.0084498591688966 0.008597937883789252 0.02026932216840135 0.004828927959789102 0.006165310801023141 -0.005605172737792818 0.010642500531731849
-0.00647190554507097 -0.0005926206242158893 0.007497632127178995 0.0022268907909198956 -0.07404896562655149 -0.03150863941185609 -0.0072558846456347685 0.015233957783876317
00000000: f48b be4b 0b75 bcbf e9f1 a3a4 4f69 983f
00000010: bdc4 f1c4 6c3d 863f 6308 e284 15fb d2bf
00000020: 7166 bcc2 9226 c9bf 11eb 544c 66e8 a43f
00000030: 4dd6 d8c4 0b86 99bf a4c4 8e51 824a aabf
00000040: 2a05 5418 d2c2 ae3f 2eed 6dd7 0e68 cbbf
00000050: 0925 5ca5 3b7d c6bf 5c59 26cc b41e c43f
00000060: c600 9f92 1960 c1bf 9226 1dd4 6458 c03f
00000070: 8e18 fff7 4232 c0bf 343f 18d8 b022 b5bf
00000080: 9b5a a3b4 0109 a13f 8a1c a8e2 4ec6 99bf
00000090: d31a 7b14 6c7d a8bf 9ec1 45b0 8cb9 c1bf
000000a0: 773a fee2 a8ce c5bf 8d91 435d 2715 c7bf
000000b0: beb5 4f21 0cd5 bd3f 659a 3160 043b 7abf
000000c0: 8e8a a50d f39c bd3f d9e4 e40c 8faa b6bf
000000d0: d5cc f956 747a aebf e39a 15df 85bd c0bf
000000e0: 8945 3c5b a9af c2bf b4c0 07e9 dedc 70bf
000000f0: 2d23 77d6 3498 9dbf 8cb8 b6ac cc50 bfbf
00000100: ce27 9c96 8949 843f 65ac 7366 4468 853f
00000110: 58b4 a5cf 1ff1 313f b4db a3cb 7743 6c3f
00000120: 02a5 5414 7db5 7ebf e132 0a6c 81d1 b3bf
00000130: 2030 ac1f c76e a4bf 9388 1680 04b2 9e3f
00000140: e06b dfed de3b a73f 251f 2e47 1ba6 b23f
00000150: f218 3e76 a209 cdbf 0843 1816 439d 66bf
00000160: 1023 e7c9 b75c 8a3f d74b 1aba 405b a23f
00000170: 0df6 2a61 282c 973f c391 237d 8514 973f
00000180: 0e0c 4921 14ec c03f b593 f213 2b70 ba3f
00000190: bce6 08f6 2a1c b53f aced 3f3d 25cf 663f
000001a0: 0b28 35de 7754 86bf ed75 c3e6 4034 81bf
000001b0: efb1 3696 68bb acbf 28e9 7fb9 f2dc 983f
000001c0: 7f60 05a2 6b40 b13f 4633 815d 6db4 a73f
000001d0: 445a 8e2e 0270 babf a374 047e d245 98bf
000001e0: 522d c5ae 123a c63f 0285 cda6 2102 90bf
000001f0: d9eb d290 6bd5 aabf 9a70 d032 eac8 a0bf
00000200: 9b32 5337 93c9 8cbf 36dc 4b58 20be c03f
00000210: 10de 0cf7 6aeb 92bf bc60 24b7 7c1e b7bf
00000220: e748 5563 0a5d a2bf 9429 491d 1466 b0bf
00000230: e354 debc b146 83bf 073f 35ce 1b11 893f
00000240: 2cde 4554 287b b03f 6954 e80f 36cd b0bf
00000250: 3fff fe46 7283 adbf a043 4576 66c9 a7bf
00000260: 240b 1783 557b 953f be28 44de a49c b83f
00000270: b17e db3f ed61 a6bf f9b0 4d9a f0f9 ac3f
00000280: 1b42 383c 2646 963f f564 5285 bb38 913f
00000290: 5052 4c5b 9620 76bf 84b8 0885 3749 53bf
000002a0: bd79 c026 0b63 cabf 8ddf 5a4d 4290 cc3f
000002b0: fdcf 0170 a6e1 9cbf 91e2 347c d753 88bf
000002c0: 348a c0d0 912d 693f 416a 5192 3f27 873f
000002d0: 1daf 5bc2 e239 8b3f 1f77 8745 a1d5 a9bf
000002e0: 154c c665 6ad4 a5bf 4775 d983 507d 84bf
000002f0: 21a4 d068 2f7f aa3f 9c58 6336 073b 6d3f
00000300: 93b6 5e74 9f41 a43f 38e7 ecde 581e aa3f
00000310: e4dd 920f a709 8c3f e0f5 3455 a1cb 63bf
00000320: a55c b3e4 062f 93bf fc27 9132 03db 8dbf
00000330: a1b5 11b8 363c c23f 10de a63c b197 c4bf
00000340: 7766 0a62 3c76 81bf 8803 dea8 e295 9abf
00000350: ad44 a857 954d 973f 6a46 eef7 dd57 743f
00000360: 5d59 b664 a211 863f 37b1 e8ef e95a bcbf
00000370: 5622 44fa d9fb b5bf d66f 2af4 c500 b6bf
00000380: c1d2 17ec e645 bfbf dfd6 90e8 2b7b bcbf
00000390: 7874 a00f 9e25 79bf 6c8c 3535 25e7 86bf
000003a0: 1ccf f572 64f2 683f c1b3 1268 3801 813f
000003b0: ecb4 2dec bf2d a33f af9c 2750 e48a d13f
000003c0: 4914 effd c1d7 d2bf 2133 b5d2 a101 d03f
000003d0: beba 27dd 3216 d5bf 24cd d20b 36ea d33f
000003e0: 8fc3 f3aa d91a 9d3f 3518 6702 bb91 81bf
000003f0: e230 0baa 6a2a 7e3f 09d1 2715 cbb7 b23f
00000400: 68d5 4c91 8b1d a0bf c2a7 7715 6557 73bf
00000410: c387 fa26 4dbb 753f d8dc 84d5 c380 a13f
00000420: 48e0 e90c ce6c 903f 5321 6ce0 5763 8cbf
00000430: a221 86b5 a186 96bf 375b 4764 4ac6 88bf
00000440: 2131 e34d b3cc a73f f421 3e47 f40f 98bf
00000450: 083f 4e1c cccc 973f 9799 65bd 5930 883f
00000460: 43a7 a041 1bdd 90bf 6264 a17f f733 9b3f
00000470: 4544 cd21 6367 a53f e086 705b e49c 9b3f
00000480: 8925 73ff 36be 89bf 3872 4371 9725 9c3f
00000490: a144 46f5 c597 88bf 760b 4afd dcf7 97bf
000004a0: 1e42 128c 8ce6 573f 7baa 9350 be6a ba3f
000004b0: da7b e20b 4263 963f 2aca 13ed c9f0 ac3f
000004c0: e089 1039 cc76 ab3f 69cd 6c38 2258 a0bf
000004d0: 3259 7f5e 253f 613f 601d eb5b 6487 79bf
000004e0: 4e44 d1b5 67e4 49bf 7390 ae1e 53c9 63bf
000004f0: 1692 1633 cff3 6abf 20b0 38b2 b3a5 a2bf
00000500: aeca 245c 49d5 a83f 9490 7026 d33b aa3f
00000510: 6af6 16bf 9c13 80bf 0ee0 8093 c2e8 993f
00000520: 9287 e01b 013e 6fbf ed93 f312 24b6 933f
00000530: cf81 1c2c 2988 7a3f 4b83 b170 e698 863f
00000540: e02e 32cb 2f5a 9d3f f32b 4ae6 284e 81bf
00000550: f9f9 30b0 cb9b 813f 372e 4d2f 7bc1 943f
00000560: 2bb1 977a 7fc7 733f 1d3f 2904 cc40 793f
00000570: ff56 8e19 73f5 76bf ee02 da3d bccb 853f
00000580: abc6 8aea 4882 7abf 00b6 9719 436b 43bf
00000590: 62ec 894c d6b5 7e3f 43eb cce3 203e 623f
000005a0: bf2d ab7d dff4 b2bf 4d79 a17f e621 a0bf
000005b0: 0cd4 1ab4 58b8 7dbf a05d c333 fb32 8f3f
