data/citylearn_challenge_2022_phase_1/models/params2.npy (npy, 1600 bytes, 1 tensors)

array f8 [184]
000000 03 3e ba 43 82 37 a3 bf a6 3a 0b c1 22 a2 a1 bf
       -0.037532873885648875 -0.034440122666287196
000010 49 4a 55 2c c7 08 a8 3f c1 f9 d0 5e c7 8a a0 3f
       0.046941970979464794 0.032308798145539004
000020 b2 bc dd 3f e3 cf 92 3f de 22 3b 8b 76 7a c4 3f
       0.018371153615075193 0.15998727606190405
000030 d2 3a 9f 58 df cc b1 3f 3d fb f3 ad 02 3c ca 3f
       0.06953235543845018 0.2049563741092814
000040 e3 ed 79 5c cd df b1 3f 55 f2 69 dd 9a 8d b6 3f
       0.06982120044442967 0.08809821992503804
000050 85 ac 7b 1f 7d b8 a2 3f 92 55 bd 3f 43 2f c8 bf
       0.03656378754916382 -0.188942342875333
000060 3b 67 cc 71 8d d1 c5 3f 63 7a 99 cb c0 e3 9a bf
       0.17045753532948446 -0.026259434153298133
000070 b1 21 60 9e 53 9d a2 bf e0 0c 7a 54 e3 a0 ab 3f
       -0.03635655697150087 0.05396185308657109
000080 93 a0 e1 3a 83 e3 47 bf d9 2c e4 45 0c d7 b1 bf
       -0.000729025914336228 -0.06968762117701334
000090 70 1d 89 2f e7 e3 b0 bf 49 34 21 f0 0b 99 c3 bf
       -0.06597752485787622 -0.15310811257441717
0000a0 30 24 41 18 53 51 9b bf ee 98 16 c7 10 23 5a bf
       -0.026677416186690006 -0.0015952743382086593
0000b0 48 0f 26 52 8f 8d c6 bf 07 cc ea 2a 15 40 b6 3f
       -0.1761950636974865 0.08691532418997393
0000c0 b7 0f b7 5a 34 17 91 bf e8 3a af 8b 69 f9 c1 3f
       -0.016690080677804277 0.14042395897418847
0000d0 97 70 4b bd a4 24 c8 bf 7e 12 fe 0a ca 1b c0 3f
       -0.18861827128319383 0.12584806000463183
0000e0 af 25 68 79 fa bf b8 bf f4 fc a4 37 c1 30 c1 3f
       -0.09667935813936056 0.1343003770543657
0000f0 5e 6a 22 80 02 25 69 bf 9d 25 30 fd bb 64 b7 bf
       -0.003069405444944536 -0.09138083392476522
000100 60 00 dd 0f 8c 2b a0 bf 43 c7 90 06 c1 15 a9 bf
       -0.031582238136707685 -0.048994094897706585
000110 98 2d c4 40 ca 0d 69 bf f7 47 a0 f3 96 17 59 bf
       -0.0030583334211137896 -0.00153150311826211
000120 a6 ca 85 9b 84 02 af 3f e4 bd 1e 98 90 36 b6 bf
       0.06056608580083393 -0.08677009309643996
000130 ee bc 14 40 66 25 af bf cb e2 60 73 04 06 6b 3f
       -0.060832209894550945 0.0032987677505186045
000140 54 e0 1b c2 48 c5 b0 3f dc 51 06 3e db 9a a6 3f
       0.06551031817423453 0.044150210687039254
000150 ac dc 29 54 ba 3a a7 bf 72 f8 c0 fa d5 f4 a8 3f
       -0.04536993291270028 0.048742949351876855
000160 64 3d 40 d2 80 63 a2 3f 2a 79 b2 31 cc ed 90 3f
       0.03591539923228984 0.016532125981592184
000170 bb 8d 43 4c 98 98 87 bf dc 1f aa 9b 49 95 ad 3f
       -0.011521520450009306 0.05777959847642908
000180 07 c9 9e 8a 3a 74 c7 3f 83 a6 6d 60 67 b7 bc 3f
       0.1832345177513803 0.11217352012831765
000190 4b 7f bd d1 4c 05 99 3f b0 91 d3 33 e7 df 67 bf
       0.024434280683066672 -0.002914382521895763
0001a0 7b 56 7e 63 ba 41 67 bf 24 f7 da 32 94 39 a2 3f
       -0.0028389587786915005 0.03559554215233465
0001b0 e0 f3 bf cd ec 9f a4 bf bd 13 86 cf ff 92 85 bf
       -0.040282631030983174 -0.010534285088178547
0001c0 34 87 d4 87 f6 4f 71 bf c9 bb 13 e8 08 12 ac 3f
       -0.004226649293998897 0.05482509453747004
0001d0 e2 07 31 6f 33 ab 7c bf d4 fc 7d 19 9f e9 80 bf
       -0.0069992074159603585 -0.008258097615679118
0001e0 f4 e0 70 15 b3 d0 c1 3f cc d7 35 ad 63 48 b0 bf
       0.13918150469704182 -0.063604574001004
0001f0 f8 b5 27 df 77 6d af bf 97 d7 29 2a 04 3c 98 bf
       -0.06138205145894554 -0.023666443894817837
000200 ea 17 48 5b 57 0e 67 3f e6 c7 1f 95 66 a7 4a bf
       0.002814455622003988 -0.0008134127513115235
000210 09 75 09 9d 64 50 93 3f c9 18 cb 47 1f 4c ad 3f
       0.01886136253812246 0.05722139121421461
000220 d9 60 3c 5a 2f 1d 92 3f 2d 84 71 92 63 43 a0 3f
       0.017689456827697157 0.03176413691176836
000230 8e 70 48 55 66 c6 65 3f 4c a0 bb 4b 6b 6d 80 bf
       0.0026580809301446967 -0.008021200417218342
000240 db 07 68 ef e5 3a 94 bf 41 d4 fd 19 f8 03 a4 bf
       -0.01975592874260444 -0.03909278218535706
000250 2e a7 4d 1a ee 9c a9 3f 00 8c 9b 73 06 46 ad 3f
       0.050025406561714156 0.057174874889618366
000260 b5 35 5a c8 55 b4 80 3f 61 03 32 b6 40 0b 92 bf
       0.008156461884278746 -0.017621050949404252
000270 8d 3f 0c 99 4d 0c ca bf 94 bb 69 45 61 94 ad bf
       -0.2035004613212518 -0.05777267429663549
000280 f9 b0 6a e0 50 14 75 bf bd 90 f7 a1 37 63 9b 3f
       -0.005146327900245711 0.026745671520885795
000290 b0 5b d3 6f 2a 56 9e 3f eb f5 65 ef 60 b5 9d 3f
       0.029625571322721533 0.029012217151366853
0002a0 ac 79 97 7f 24 a4 c7 bf 89 1d e6 19 dd c9 cd 3f
       -0.18469673376143925 0.23272289051622533
0002b0 d5 02 fc 0f 3a 29 72 3f 74 dd a4 bc fd cf 6a 3f
       0.004433848196413866 0.0032730060385365804
0002c0 0f 55 d1 a3 6a cc 8b bf 44 7c ae 9d ab da 9d 3f
       -0.013573487400359711 0.02915447378074655
0002d0 ca 35 e3 21 8d 74 9a bf a7 12 44 b3 d4 a0 8e bf
       -0.02583523291905524 -0.014955198021661188
0002e0 f8 11 b1 7b 34 6d a1 3f 51 19 52 13 cb c3 93 3f
       0.034036293124277195 0.01930157952713191
0002f0 dc 2d 7e d8 39 8c 62 3f 12 33 0a fd 99 c5 96 bf
       0.002264130573115015 -0.02223816496784809
000300 cf ea 53 ec 47 1c b1 3f cb 47 d6 d1 bf 15 a2 3f
       0.06683778304788322 0.035322183956978025
000310 73 93 af d1 c1 d1 6f 3f 18 e5 f3 1b 03 1a 5f bf
       0.0038841996697435654 -0.0018982916224657472
000320 81 ad 3d ea a4 7a 99 bf 19 fe 57 e7 4d 12 a0 3f
       -0.02488191299145859 0.03138965081234008
000330 6f fc b0 55 b3 94 c3 3f 99 fa 69 74 14 dd c9 bf
       0.1529754799284748 -0.20205932316089983
000340 cf 63 18 11 d5 83 83 bf 45 44 49 19 72 fc 93 bf
       -0.009528793892103508 -0.019517691415164035
000350 1e 20 a6 f4 b1 fa 84 3f 51 ab 98 ea a1 e2 9f 3f
       0.01024378803118969 0.03113797182428907
000360 18 27 4a b7 67 f8 75 bf a1 11 49 ab 77 89 c9 bf
       -0.005363850727585072 -0.19950767386957316
000370 e5 3a 39 a7 a6 4a c3 bf 86 50 5d 5e ea df 8b bf
       -0.15071566739285128 -0.013610678677345566
000380 db d5 c2 74 56 e7 a8 bf eb b9 8b fa 10 88 88 bf
       -0.04863996672922229 -0.0119782759151947
000390 b4 16 af bb 75 b7 a0 bf 9b 78 f2 b3 5a d2 7b bf
       -0.03264968792022441 -0.006792406376147887
0003a0 ca 1a f8 59 26 50 6f bf 7f 5d 6b ee 6a 1a 90 3f
       -0.0038223980952837066 0.01572577552982812
0003b0 e5 e3 02 26 30 cb a3 3f e8 f4 2e 68 12 77 cd 3f
       0.038659577026414906 0.23019628607827447
0003c0 36 63 84 ed 6e 1f d2 bf 60 11 be c0 ea ac ce 3f
       -0.28316853709252443 0.2396520081639535
0003d0 32 d9 4b 83 21 c4 d4 bf 09 2f ab 85 98 02 d7 3f
       -0.32447088071730257 0.35953343442518865
0003e0 b2 02 c4 a3 31 5f 71 bf 71 55 f4 9b 0c b2 98 3f
       -0.004241174607387309 0.024116704004958082
0003f0 25 b9 07 fa a9 12 8a bf 92 a3 df 26 5b fe 93 bf
       -0.012730911200347148 -0.019524978873878114
000400 21 65 c9 b0 77 62 72 3f c6 85 03 da 86 e3 90 3f
       0.004488437215138392 0.016492945724967865
000410 33 1b 65 55 2c b9 89 bf 33 62 49 de 98 72 aa 3f
       -0.012560221057936615 0.05165555680713787
000420 61 29 ca a7 c8 d7 ae 3f cb b2 86 83 ee e5 a1 bf
       0.0602400498219875 -0.034957364612045426
000430 3d 74 d9 9d 03 a0 80 bf de dc 76 c3 75 21 97 bf
       -0.008117702727014836 -0.022588577323145446
000440 f4 96 af c6 be 50 82 3f 67 52 ec dc 9c c0 82 3f
       0.00894307178345908 0.009156442157782508
000450 b2 ea e6 73 6e d4 a9 3f be e8 e0 8e d3 ab 85 3f
       0.05044884838885845 0.010581639097030023
000460 ea dd 11 22 81 51 80 bf 0e a5 db 44 37 57 5c 3f
       -0.007967957355716277 0.0017297782646273382
000470 6e f7 52 9c b7 7f a7 3f 4b 0b 95 13 55 5d 3f 3f
       0.04589628012898471 0.0004785855013162323
000480 3a 68 b3 8a ad 41 89 3f 18 3d f2 f8 99 14 8d bf
       0.012332301898300913 -0.014199450406776878
000490 e5 fa 2e f3 6f 80 82 bf ff f3 77 28 87 95 8c bf
       -0.009034037217018074 -0.013957076952459955
0004a0 c7 dd fe 33 e2 17 a8 3f c6 81 16 6d 09 45 a0 bf
       0.047057217452159565 -0.031776709143062784
0004b0 53 dc bf 4a ed df b6 3f d4 22 fe 25 50 90 ae 3f
       0.08935435366571313 0.05969477142122562
0004c0 20 cf 54 15 1e 1b a4 3f af f5 a9 e2 a1 ce a1 3f
       0.039269390205303845 0.034779604834493376
0004d0 f3 e7 91 4d 3f 76 8a bf ae 22 4c 10 c0 bd 94 3f
       -0.012920851282832024 0.02025508975478612
0004e0 35 f5 6e 4f b9 a8 93 3f 98 9a 52 9e 55 84 5f bf
       0.019198317979079966 -0.0019236408345847718
0004f0 c2 9c 99 a7 6d 3e 6e 3f c4 76 43 85 c8 a5 80 bf
       0.0036918775265807066 -0.008128706519012659
000500 ae 1f 64 1d 44 9d 9a 3f cb 05 bf 3e 15 08 96 3f
       0.025990547460451978 0.021515209154818565
000510 ce 13 89 3b 67 87 37 bf e5 e9 43 32 11 5f 58 bf
       -0.0003590228111856581 -0.0014875095303624683
000520 c0 85 c9 d7 de af 05 bf fc 23 f8 75 1c 64 70 bf
       -4.1364658476049625e-05 -0.004001723456448222
000530 26 cd 46 61 3f 8e 60 3f 60 e2 ba c2 2e 5d 89 3f
       0.0020209539308894296 0.012384763066948412
000540 cb ca 2f 4b c8 a3 92 bf 84 a7 45 9c 6f 65 7e bf
       -0.018202905262976892 -0.007420955637238328
000550 b6 08 42 92 1e 37 7c 3f d2 13 75 31 55 07 5b 3f
       0.006888503474444521 0.001649697491147285
000560 a2 86 0b a5 2e c0 82 3f f4 41 69 b4 c7 45 90 3f
       0.009155620967649828 0.01589118994371748
000570 ec 2a 69 38 fa c8 91 3f 3c e8 73 72 e9 23 8f 3f
       0.01736823052696483 0.015205215268441312
000580 75 af 0b 7d ea a8 98 3f d9 a0 6a a1 b2 4d 4f bf
       0.024081863290958922 -0.0009553072184944846
000590 ed 04 68 35 a5 37 24 bf 92 f6 53 04 46 0d a0 bf
       -0.00015424625117080957 -0.0313512687953167
0005a0 c3 b2 80 c3 73 eb 9e bf fa 8c d2 66 03 74 9d 3f
       -0.03019505387071565 0.02876286807135118
0005b0 0e e1 3a 25 b8 2f 52 3f 39 e9 82 79 1d 9a a1 bf
       0.0011100099845134412 -0.034378930170947126
