data/citylearn_challenge_2022_phase_1/models/params22.npy (npy, 1600 bytes, 1 tensors)

array f8 [184]
00000000: 16bd f1d1 6b2c bdbf 689d 2b04 75c7 9a3f
00000010: 93fc b783 1aa4 973f 13e9 b38f d7f6 d3bf
00000020: b25c 91f3 6419 c9bf 0987 fff1 0793 9a3f
00000030: 50be ddd6 5082 803f 8e01 5d3b e1e7 a7bf
00000040: 4e4a dea0 822c b33f 199d c328 452c cdbf
00000050: e17e ead1 975b c8bf d101 3839 6c6f c33f
00000060: cc95 a7ef 666b c2bf ff7a 6bf2 a29b ba3f
00000070: f6f7 52e4 3a76 c0bf 0fc1 e825 851e b6bf
00000080: 8823 a44d 8f9f 953f 5bd7 0d2b 08b7 87bf
00000090: a7b5 c874 ed9b a1bf 5d3d fd83 6d41 c1bf
000000a0: 2633 3476 9a55 c8bf 1c45 7cfc 3eab c9bf
000000b0: e641 12f8 8da5 be3f 10cc 89f5 8308 1fbf
000000c0: cab1 993e 92c7 bd3f 33d4 a996 1450 b6bf
000000d0: 1808 d63e 7007 afbf 0c3d bb91 e6cf c2bf
000000e0: a7f2 4c25 2aae bfbf 81be 42c2 b8df 7dbf
000000f0: 9db8 af2e 7d5d 92bf d429 2810 6e2a bcbf
00000100: 7d8e 61fd 24bd 8e3f c8b0 c3ac 13a0 21bf
00000110: 642f f8e9 9ea4 7f3f 3831 8b84 a253 823f
00000120: 8f34 47bb 1e59 8bbf 08f2 14a9 20d9 b2bf
00000130: 4c85 175a 6bb4 a6bf a70c 9683 bb7d a13f
00000140: 9814 53d8 1194 a53f 6fbe e649 866e b03f
00000150: be92 9b24 4bd7 cbbf e02e ef52 7912 57bf
00000160: ab85 e918 e558 873f db6d 3eea c3f9 a13f
00000170: d111 0de9 45b8 963f bbcb dbb4 12e7 9f3f
00000180: 2a94 ac50 ac87 c13f 096e d514 9222 be3f
00000190: 49c0 dd62 52a8 b53f 4daf 2d13 c52a 77bf
000001a0: b5a7 78bb e9ad 8ebf fcaf f2db a19d 80bf
000001b0: a2e8 3846 56e4 a7bf 590e 98c8 1460 9b3f
000001c0: f7ab 1e02 eece b13f 0241 87b4 d7dd a63f
000001d0: 250e 8b51 8b46 bcbf b9d3 e62e 9b49 94bf
000001e0: af6d 5824 fc1c c53f 9241 995c e3fb 90bf
000001f0: b1a6 65b8 77ec a9bf 792c 751c 7b30 9fbf
00000200: 13b7 2105 a717 92bf f3f0 288c 23bc c13f
00000210: 74e9 30b6 5358 97bf 187e 9b4c 60b8 b4bf
00000220: 21d3 94ae 3b85 a0bf 30e0 3025 7124 b0bf
00000230: 8823 b4ea 9a35 7abf 2db9 016c 910e 8c3f
00000240: 575a 3720 8536 af3f 363a 96a2 3438 adbf
00000250: 452a e929 d9d3 aabf f07f f447 07ba aebf
00000260: 0eb0 4084 499e 9d3f 8905 dcd9 e55e ba3f
00000270: b1bc 1383 69e5 aabf ef00 3d5d c6a3 aa3f
00000280: c63b 8f56 934f 9b3f 2c75 2c8e 39b8 8f3f
00000290: b89a 47a2 2560 57bf 55e1 dd38 c004 76bf
000002a0: 3032 b2d7 cd13 cabf b89f 9566 60a0 cc3f
000002b0: e9a1 0f1d ff0f 94bf f0fc e2a6 f692 83bf
000002c0: d9d7 b326 52e2 723f 43f1 1b78 a4e8 8c3f
000002d0: 7e30 89be 6713 723f 66f6 9e1a f189 a9bf
000002e0: 5e93 bd9f 24f4 a7bf 8607 3245 19ee 87bf
000002f0: f8cb 2c5b e752 ae3f 80b0 1080 594d 4c3f
00000300: ae7d 12a1 dd33 a93f 0381 8c5c ad4f aa3f
00000310: 8ef1 11c9 b3cb 863f b0ef 4bf4 29a3 6cbf
00000320: 593f 4d44 60bd 94bf 4cc6 b4aa 27c6 8bbf
00000330: 3fa8 37bf c6ce c33f 27d7 b8b1 2a76 c4bf
00000340: c98e e0dd c468 72bf 045a 5d96 4512 9abf
00000350: 0d91 06e1 d802 923f 8ea4 f53c 3022 803f
00000360: 2a06 a550 4c6b 843f 0e0e af51 cc34 babf
00000370: dfca fc96 06e0 b6bf 600f 72c1 b6a0 b6bf
00000380: 2b51 9478 823d c1bf f4e6 acd5 5cf3 bbbf
00000390: ad36 7277 8240 563f 3e60 09aa 79fc 86bf
000003a0: 4152 e287 1343 703f 7bbf e729 2311 7c3f
000003b0: 422b 839d cc0a a33f bd7c 883a d0cb d03f
000003c0: 87ea afec b9ae d2bf 1c48 d18c 87b1 cf3f
000003d0: b142 1fd1 4d83 d4bf 4799 2cba 4f43 d43f
000003e0: aab2 79f6 ef0f a13f c588 a0c1 c470 7ebf
000003f0: 6474 63c3 fabd 5fbf 7855 0567 817a b03f
00000400: e97d ec8b ad1f 96bf f9ac d0f2 842a 7d3f
00000410: 5266 9ac5 d479 703f b2d0 43c7 e153 893f
00000420: 45ce 7bee 593e 893f ea5a 3dba 0eb8 91bf
00000430: 63ce 5911 bcd6 8fbf c0ee fa97 1dba 91bf
00000440: a85a 7bfb 7556 a83f 0d23 87dc 597c 9ebf
00000450: a468 fb08 afcc 9f3f cccd a548 2144 903f
00000460: 0b76 9e3f 5b71 8ebf 055a 55a9 12f8 9d3f
00000470: e9ad 80e8 befc a63f b003 f94a 0998 9f3f
00000480: 47c9 e787 2e84 72bf a16c 3a2e f502 a03f
00000490: 6127 e826 4e53 87bf f63d ef4c 0135 98bf
000004a0: 4797 6a0a c607 663f 59dc 4667 0c8e b83f
000004b0: 48a6 8a07 e7e0 9b3f f832 db7e bc24 ae3f
000004c0: 955a ee4d 67ac a63f bf8f 2d15 914b a0bf
000004d0: 1cff 038d 6049 723f 5245 cfda e6aa 843f
000004e0: cdb7 bdd8 0cff 7dbf f39f a7dc 1a7f 6a3f
000004f0: 8efd 6ea7 8b0e 90bf acb7 feea 216a a1bf
00000500: cb83 f7d2 6038 a43f 1a10 1e0f 9a08 a93f
00000510: dca8 bcf3 2bbc 8cbf 7671 9374 8f4c 993f
00000520: c0a1 d2d1 177b 52bf f97d d320 56d0 973f
00000530: 1284 fcbc 0d15 813f 821e 1db5 2ec2 8d3f
00000540: 74b0 9575 fb6f 9c3f 6734 4a06 0d2c 8abf
00000550: 00df 6781 43a2 7b3f e863 4d88 b84f 9a3f
00000560: 3e48 f6d8 e1e9 72bf b693 d239 8b7d 7ebf
00000570: 3254 06f5 8ca8 6ebf baad 81ef 9e07 853f
00000580: ea34 c7cc 833c 8abf 0b5e 8598 c2f6 603f
00000590: 404b 2d80 9128 573f e481 209c ddea 583f
000005a0: f5d1 3d9c ff9c b3bf 7fdb f05c 575a a0bf
000005b0: e012 f714 bcb4 48bf 577d 8986 0731 9a3f
-0.11395906329720548 0.02615149343446657 0.023086942948790833 -0.3119410422656454 -0.196087473802185 0.025951503892321735 0.008061057622142404 -0.046690977570054235
0.07489792277764559 -0.22791351786074968 -0.19029519796185126 0.15183785241971617 -0.14390265180479245 0.10393732469990978 -0.12860809467923645 -0.0864031999160526
0.021116484750595826 -0.011579574407487738 -0.034392757898199115 -0.134809197852955 -0.1901124074141986 -0.2005385144080173 0.11971366220883048 -0.00011838250555644436
0.11632646587685894 -0.08715943029695054 -0.060603625936906436 -0.14696962466994312 -0.12375129137667305 -0.007293435777839031 -0.01793475720835912 -0.11002242941336898
0.015009201986863058 -0.00013447036906855656 0.007725353963461721 0.008948583288110087 -0.013353576746249622 -0.07362560394262385 -0.04434524035219542 0.034162387669334486
0.04214530721359572 0.06418647102577223 -0.21750773704038368 -0.0014082131199186151 0.01140002233768452 0.035108682960721636 0.02218732104235405 0.031154911316615613
0.13695291461149967 0.11771500595698837 0.08459963716245612 -0.005656022857561127 -0.014980150254888839 -0.008113159680156905 -0.04666394812780196 0.0267337081368296
0.06956374694588861 0.0446612747069839 -0.11045141926575093 -0.019812035310412066 0.16494704985312356 -0.016585876967214093 -0.05063223005238394 -0.03045837746803357
-0.017668351829732986 0.13855404227968612 -0.02279787826066966 -0.08093835706994701 -0.03226648813362077 -0.06305606039029565 -0.006398778098863363 0.01369966135845554
0.06096282976402694 -0.0570694397421118 -0.05239752422911129 -0.06001303437574268 0.028924130150855425 0.10301052635988674 -0.0525315258508895 0.05203075302279269
0.026670744093106234 0.015488099719329705 -0.0014267318266491368 -0.005375624530522612 -0.2037293723300464 0.22364430436141247 -0.019592271946665383 -0.009557654350258876
0.004610367682507965 0.014115605273666737 0.0044130375395746695 -0.049880537509562825 -0.046784538745476154 -0.011684606002976283 0.05922625530219955 0.0008637129795992099
0.04922382918561695 0.05138913874384523 0.011130718778297657 -0.0034957713527301246 -0.020253662270362714 -0.013561544320143025 0.1547478135756268 -0.15985616376718179
-0.0044944467645426445 -0.025460326483278464 0.0175889861435659 0.007877709255540457 0.009970279894903806 -0.10236813539727782 -0.08935586153237861 -0.08838979933540037
-0.13468962562240824 -0.10918216911968753 0.0013581537330397506 -0.011223745824438077 0.003970218937088322 0.006852280958341224 0.03719176695593386 0.2624397822964502
-0.2919144450567405 0.24760527015547573 -0.320514158459484 0.31660836392474717 0.03332471736653038 -0.0074317632479809536 -0.0019373844966630522 0.06436928525120844
-0.021605216660757796 0.0071206277180337835 0.004022437229332336 0.012367023366529704 0.012325956907694233 -0.017303686253707186 -0.015546292571548997 -0.01731153717149314
0.0475346440777476 -0.02977123650069573 0.031054243968221443 0.015884895381032924 -0.014864647749898393 0.0292666354992779 0.04489704692999991 0.030853409958811973
-0.004520589600803432 0.0312725657397206 -0.011389360964148389 -0.02363969833441889 0.002689253614636042 0.09591748734861606 0.02722512229471466 0.058874025807744645
0.04428408457095149 -0.0318265283920307 0.004464509155013532 0.010091594269314417 -0.007323312933165083 0.0032344364783405354 -0.015680486769040373 -0.034012851653968695
0.03949263167647351 0.048893751473798555 -0.014030784011613333 0.02470611714385159 -0.0011279804814795374 0.023255677941845552 0.008340937929064682 0.014530529882576863
0.027770928432275757 -0.01277933288045059 0.006746543591809262 0.025694735831482435 -0.0046175787132530215 -0.007443946696331352 -0.0037424805706885106 0.010268441852722233
-0.01281073540385554 0.002070789403813005 0.0014134808449923347 0.0015208400877854073 -0.07661435665597323 -0.031939249129599105 -0.000753967129576507 0.025577657305232062
