data/citylearn_challenge_2022_phase_1/models/params29.npy (npy, 1600 bytes, 1 tensors)

array f8 [184]
0	0x3fd51e2f82c7daca	0.32996738215971944
1	0x3fc1ef2007ef58a3	0.1401100195641379
2	0xbfc4974cf7e560bf	-0.16086732963845482
3	0xbfe946e9bbcd9691	-0.7899063747433549
4	0x3fcce17d3fd38a83	0.2256313859607709
5	0xbf9240c933f7dc74	-0.01782526378334777
6	0xbf9cbcd20da220b9	-0.0280640431233514
7	0xbf7e4544f727bdb0	-0.0073902791941544005
8	0xbf8691a8c87e7191	-0.011020010584439162
9	0x3fc475e5dfe2f7f4	0.15984795982325262
10	0x3fbade302071308a	0.10495281974835016
11	0xbfcf3aff1f91599d	-0.24398793259997556
12	0xbfd5be12d1131124	-0.3397261659377071
13	0xbfd5768d50d6da37	-0.3353608407445878
14	0xbfd897037dceaadf	-0.384217141016661
15	0xbfd82da4d51793e8	-0.37778588113570644
16	0xbfd3dfac9e2f472b	-0.3105269951603186
17	0xbfc144f782a7b88a	-0.13491720084806885
18	0xbf857d4a53e0df98	-0.01049287861324881
19	0x3fa8eef8d516c581	0.04869821168120848
20	0xbfaf532622aedab3	-0.06118125127197995
21	0x3fc82994b1e913b5	0.18876894652399093
22	0x3fd37f58052886d9	0.30464745048275926
23	0xbf91dcab9b0869c0	-0.017443353021102004
24	0xbfc628a19e35140b	-0.17311496949164992
25	0x3fc5702c0491983f	0.16748571608622062
26	0x3fc3937b763ea7f9	0.1529383017889925
27	0x3fbc38daf369c349	0.11024254267409818
28	0x3f915fc171378b39	0.016966841254439678
29	0x3fa849ba1dba97fb	0.04743749249364267
30	0x3fbb95b38e774a43	0.1077530119721724
31	0x3fb3d39b4c16f1b0	0.07744761092812413
32	0xbf98df80688eb001	-0.024290090924907307
33	0xbf7d4574bc9c13d0	-0.007146316531138688
34	0x3f95f9c83065f300	0.021460655168527687
35	0x3fa2346da00683c7	0.03555624559817932
36	0xbf8204d2ab85b29a	-0.008798261508411277
37	0xbfa26a3751867f70	-0.03596661443884741
38	0x3f83fee3d85db701	0.009763507881611401
39	0x3f9c3f4bf0055d08	0.02758520748588203
40	0x3f644ef19c4ed4d1	0.002479049583110717
41	0xbf6f6137b6e99ec4	-0.0038305366681930814
42	0x3fbbfd7f77a71bd6	0.10933682128153008
43	0xbfa99d896a2fb948	-0.05003003522129973
44	0xbfb3168ab5a9f816	-0.07456271109728649
45	0xbfa3ccd512bc26ea	-0.038672121560081
46	0xbf90cdf383fed727	-0.016410641604770817
47	0xbf87bae7a54e5aee	-0.011586961490860994
48	0xbfc0c49b1f00fcd0	-0.13099993718967662
49	0x3fc9e5bd221ac8c8	0.20232357182755423
50	0xbf50b6d14496f8c6	-0.0010201495773425758
51	0x3f79084760e3ec5f	0.006111410925082244
52	0xbf9766b4622627a4	-0.02285272454313482
53	0x3f9046c202a71c17	0.01589491978827703
54	0xbf7ee0fe6bf28202	-0.007538789591450714
55	0xbf73a453e86ddc91	-0.0047953870442746386
56	0xbf971258d444d86c	-0.022530925708644053
57	0x3f78b0c16aa8133e	0.006027942212772084
58	0x3fa752618ff6d32f	0.04555039293646811
59	0x3f771210dff01958	0.005632463376065232
60	0x3fab3c14dab57046	0.05319276017937162
61	0x3f90b20e73e1a698	0.01630423147472601
62	0x3f52883b20371f34	0.0011311128044883658
63	0xbf85ff24c8bed94b	-0.010740554214731765
64	0xbfa8723286cbb022	-0.0477462567849616
65	0xbfb661f0bdceb01d	-0.08743195184678183
66	0x3fa5b30e6f4cd533	0.04238171681064742
67	0xbfa2f9c54ef0b68f	-0.03706184948565038
68	0x3faeed55fcce8363	0.06040447913188165
69	0x3f938f77e59f8929	0.01910197581299503
70	0xbf874d0615982270	-0.011377379926686276
71	0xbf6bebb98400f1a9	-0.003408300719483577
72	0xbf9cba2c845a955e	-0.028053947046506315
73	0xbf76534dd8e0cf44	-0.005450538721607338
74	0x3fb13409e16480f2	0.06720029595135538
75	0x3fb0f703781ab970	0.06626912767635473
76	0xbf9193314f9908a8	-0.017163057788146446
77	0xbf9451cff7bf2a75	-0.01984333943964108
78	0xbfc4e0bdd9a04857	-0.16310856939577675
79	0xbf973b69abe8d697	-0.022687579267048532
80	0x3f9062b994f3b8de	0.016001605717001925
81	0x3f8ea6f5d2ead125	0.014966888903793116
82	0x3f7fcafaad701193	0.007761935433340378
83	0x3fc39914afeef0b6	0.15310915556427113
84	0x3f75eb50403e9558	0.005351365547459373
85	0xbfb3e1c5a9888aca	-0.07766375912664639
86	0xbfa35625ec9fd84c	-0.037766633162320845
87	0xbfa4bb446bcc2c0e	-0.040491235884552265
88	0xbf86308d3976ef36	-0.01083479243867878
89	0x3fa6e520e4ed83aa	0.04471686167267504
90	0x3f9f9ea9b38ebd6a	0.03087868841583711
91	0xbfc2096238d0950d	-0.14091136716994193
92	0xbfb3033dcb527e44	-0.07426820959016661
93	0x3f83f2754d8735ec	0.00973979609343708
94	0x3fb2bfcaf0426598	0.07323902478892419
95	0x3f9eaa52e8c3c1c4	0.029946608979061443
96	0xbfbd765da2cc43f3	-0.1150873682456817
97	0x3f8de2e5df2c6a40	0.014592929719175918
98	0x3f7ecc4fc38fe11b	0.007519065454282515
99	0x3f8adced5a399874	0.013116697612712815
100	0x3fa472eab74bcd75	0.03993924605847613
101	0x3f97b6904efa031b	0.023157362766599392
102	0x3fa27222cdd8c106	0.03602703821923296
103	0x3fa2f32d790e2835	0.03701154806829302
104	0x3fb62afa10b5e5b5	0.08659327419254377
105	0x3f99b9bf65607eee	0.02512263351684301
106	0xbf8edfc20a31c476	-0.015075221954449197
107	0xbf69d28a85ccc984	-0.0031521516342760143
108	0xbfa7d50d4a495630	-0.04654733211343076
109	0x3fb2b6f57a1b0cfb	0.07310423117728597
110	0x3fb1633e7848f2ef	0.0679205936111875
111	0xbf926e26ac352e10	-0.01799831796715351
112	0xbfafc116eba8be79	-0.06202003122996031
113	0x3f93c4cf19544b4e	0.019305454178787422
114	0x3fbb3249650a0212	0.10623606411719091
115	0x3f91f5d86c297f26	0.017539388276758626
116	0x3f59d7e2dcebf707	0.0015773501833673002
117	0x3f81930a6e11f0a4	0.008581239208290299
118	0x3fb06ea7a04bdb0e	0.06418845809444582
119	0xbfcefddbebf9b7d1	-0.2421221639846736
120	0xbfd04ec80ab91fb1	-0.2548084358900225
121	0x3fcded387e965e6c	0.23380190068268136
122	0x3fd36fbbbe98caa5	0.3036946641251837
123	0xbfc9e3badb6d38e0	-0.20226226534072733
124	0x3f864112f4dc0495	0.010866306397931328
125	0xbfa0b82270a52e5f	-0.03265483498634291
126	0xbf6cc9dea2945754	-0.0035142277089431993
127	0xbf9dc3414072d05b	-0.02906515079367043
128	0x3fb7d60b0275d1e5	0.09310978708328539
129	0xbf87d594678ea756	-0.011637839708629787
130	0x3f991a051c2aed2b	0.024513320774287067
131	0xbf8fae6a5cb1ed1b	-0.015469389871432917
132	0xbf99753b7617abd7	-0.02486126812247477
133	0x3f903ae9a25636c2	0.015849733861208255
134	0xbf6d39700706b734	-0.003567427447896865
135	0xbf704f95daabcb8a	-0.003982148521333504
136	0x3f98ed6288286346	0.024343051491175126
137	0x3fa4dd0a7cef611a	0.04074890875898714
138	0xbf86f753ad4fed86	-0.011213926054543643
139	0xbf9202a38591f506	-0.017588191058611556
140	0xbf8a6fef6281bd33	-0.01290881175392986
141	0x3f88419005ed9d0f	0.01184380071727145
142	0xbf52c70c60d41b69	-0.0011460896378722946
143	0x3f93ba1758cfad4e	0.019264569087608145
144	0x3f2c7abd846dd5b4	0.0002172809929238802
145	0xbf7390de66aa633f	-0.00477682948498953
146	0xbf85e58a34fe09a9	-0.010691718809316368
147	0x3f70cacd946ed116	0.0040996580564079035
148	0x3f94b70159c9f74e	0.02022935972717415
149	0x3fb3ea86de1c4518	0.07779734537713912
150	0xbfa3f8bc0706813f	-0.03900706849822421
151	0x3f9b680af6337db1	0.026764079358029217
152	0xbf90153bd3b28934	-0.01570600013349939
153	0x3f90f92367f1202e	0.01657538720999712
154	0x3f7ef288b5c6e8ae	0.007555517219254222
155	0xbf88bc220a70dde9	-0.012077585166578824
156	0xbf9236c5aba44a35	-0.017787064171964146
157	0xbf95568559e4c924	-0.0208378635517842
158	0x3f90143e3a87f84d	0.015702221224266833
159	0x3f7b2c5080360482	0.006634058433861447
160	0xbf88ceb0a060cbf0	-0.01211297978816181
161	0x3f79ddd70011b59b	0.006315078587346613
162	0xbfa44f2652dc2a88	-0.03966636430239584
163	0x3f9629ec3be2c2bd	0.02164429774774378
164	0x3f767fe5f0c9896f	0.00549306698357764
165	0xbf54047b4b0bea64	-0.0012217716250108252
166	0xbf802ed0fb2eefea	-0.007901795068271118
167	0xbf87f16dde51dd07	-0.011690958354150028
168	0x3f70febe62b6fd0f	0.00414919251801328
169	0x3f92ce574928c1c2	0.0183652532961689
170	0x3fa990295fbaf309	0.049927990852188193
171	0x3faf4d7bf91ec1d5	0.06113803306596181
172	0x3f8cc529336da8af	0.014047929651230666
173	0x3f63ed39905dc462	0.002432453565170565
174	0xbf91d3218f2efa94	-0.01740696369574353
175	0x3f67e40d1b74382c	0.0029163604737112627
176	0x3f8a29a085d66979	0.012774709782026094
177	0x3f929d51cf4026e0	0.01817825152833208
178	0x3f75b49f070effbe	0.005299206925826581
179	0x3fa5b11d8b36f79a	0.04236690830610641
180	0x3f8fa16275207628	0.015444535445619925
181	0x3f9a53117a9e3b76	0.025707505330099654
182	0xbfb466f3ee25fb7c	-0.07969593586129337
183	0xbfa437696e1ff9ca	-0.03948525876329574
