data/citylearn_challenge_2022_phase_1/models/params3.npy (npy, 1600 bytes, 1 tensors)

array f8 [184]
0	0xbfa4b8604bee7966	-0.04046917845629387
1	0xbfa5523bcba30c26	-0.0416430173950391
2	0x3fa9e5a4a114b911	0.05058016268081834
3	0x3fa08c508e98c19b	0.032320516020607225
4	0x3f917be7b648ef2d	0.017074223042285275
5	0x3fc4c77ddd1173e0	0.1623380021509595
6	0x3fb19869c8b8ac25	0.06873189115928875
7	0x3fca65b55db30f9c	0.20622889590424343
8	0x3fb18a302b9e4dcb	0.06851483406926843
9	0x3fb66a1546ccd983	0.08755619982262001
10	0x3fa2d8fa9aa1238b	0.036811667800583946
11	0xbfc874ba7ac32ea5	-0.19106226915606786
12	0x3fc606b2ea712597	0.17207943389284416
13	0xbf9dec4fdcc49ff0	-0.02922177109681451
14	0xbfa0f87e1695631c	-0.03314584756544134
15	0x3fac75e49911cb52	0.05558695190929676
16	0xbf714b5df2d98222	-0.004222266184655628
17	0xbfb2a8e57a2c7a8c	-0.07288965447194523
18	0xbfb1019b18a6583b	-0.06643075324822771
19	0xbfc3d7cd6191ffb2	-0.15502326263594807
20	0xbf98aeffcf82d4b5	-0.02410506919905649
21	0x3f130719898dec60	7.258504264300155e-05
22	0xbfc6b6be34930466	-0.17745187346557428
23	0x3fb5ffc0b61dadf3	0.08593372770490486
24	0xbf932007ab943371	-0.018676872107835366
25	0x3fc1cca5578122cb	0.13905779621770473
26	0xbfc7abda6844c373	-0.18493204203835098
27	0x3fc08512a88b21c0	0.12906106214201252
28	0xbfb93ac9c0710360	-0.09855328510549333
29	0x3fc136ae8f346503	0.1344812583200011
30	0xbf71b0475f8b5cc1	-0.004318503190652468
31	0xbfb6ec3e61a3a0a8	-0.08954229244011691
32	0xbfa19f29711121ee	-0.03441743378840899
33	0xbfa7778fed66777d	-0.04583406231834795
34	0x3f2bbab41986aa5c	0.00021155785067368787
35	0xbf66d184e77d137c	-0.0027854533945252374
36	0x3faf82dbc203dba2	0.06154524558399223
37	0xbfb61a430afe940d	-0.08633822458666902
38	0xbfae2723bbd6f4d0	-0.05889236133541831
39	0x3f72deab435328ad	0.00460688495258858
40	0x3fb1e577ae161768	0.0699076461806648
41	0x3fa46c03f904c398	0.03988659300592373
42	0xbfa6b8e55e4148e2	-0.04437939429830508
43	0x3fa87965675492f8	0.0478011788020804
44	0x3fa37aeee39b60cc	0.03804728058247661
45	0x3f90e45e71c70b71	0.01649615830843793
46	0xbf87c664fe18b7df	-0.011608876232539643
47	0x3fadda63b783ffda	0.05830680480175916
48	0x3fc774b969ce06a8	0.18324964205026117
49	0x3fbd2f540713b677	0.11400342152384178
50	0x3f9909395fabeefd	0.024449249710399624
51	0xbf643ad777c99893	-0.0024694641454515247
52	0xbf6362009c7714ff	-0.0023660671174378085
53	0x3fa142f9b8621478	0.03371410728235785
54	0xbfa530980bdc9fac	-0.04138636727139952
55	0xbf863e236d1155ec	-0.01086070705984362
56	0xbf774f49c98891c7	-0.005690849524885916
57	0x3fac9f48eddb4be9	0.05590274718783645
58	0xbf84a121596d1ca8	-0.010072956601688013
59	0xbf83a42b7327e120	-0.009590472652221183
60	0x3fc1e8f81009b33a	0.13992214949703358
61	0xbfb024ed35cd9d4b	-0.06306345523409111
62	0xbfad6fd2e84ef30b	-0.057493773324926854
63	0xbf98999d774e2b2b	-0.024023495108433195
64	0xbf2b697af593eb44	-0.0002091372105395788
65	0x3f2f1c5fbc31c1e0	0.00023735684053206776
66	0x3f94ffbdcbae45e0	0.02050682597798026
67	0x3faf75c02d14a08c	0.061445241454124305
68	0x3f8e7945c0a2ed53	0.014879746381089609
69	0x3f9f317a4adfb59c	0.030462179965913813
70	0x3f67f9bd7cf194fc	0.0029267025889106995
71	0xbf80f0e8605b0ae7	-0.008271995010891554
72	0xbf946a0145c6a0e3	-0.01993562687280893
73	0xbfa39c93147a670b	-0.038303943872234646
74	0x3fa9e0aaebba0872	0.05054220321200455
75	0x3fad33e6762847ec	0.05703659241056855
76	0x3f8052ea11f69198	0.007970646546547042
77	0xbf94006a371bfe86	-0.01953283273087305
78	0xbfca1699aa3fc78c	-0.2038147050184843
79	0xbfad5ba71aa17d43	-0.057339879990417696
80	0xbf7ad81fa9d6abb3	-0.0065537678578192924
81	0x3f9aa456e7fbf27c	0.026017530354681004
82	0x3fa0c2329d7d56a8	0.03273161098938476
83	0x3f9dd4a5a830d46e	0.02913149680189913
84	0xbfc76a10b6d4118c	-0.18292435576598753
85	0x3fcdfd552fb47168	0.2342936022695412
86	0x3f60b1867a992b92	0.002037775663472138
87	0x3f74cb988af75048	0.005076976652578287
88	0xbf88969187388de0	-0.012005936564555009
89	0x3f9bbdc053189a04	0.02709103114298196
90	0xbf994e0471fbb98b	-0.024711675126064796
91	0xbf8c237f047fe532	-0.01373957855683958
92	0x3fa0f1c88010c3ab	0.03309465945529352
93	0x3f91ab83e028cf69	0.017255840832333478
94	0x3f75dfebb7c640b9	0.005340500615048587
95	0xbf98971a12cc80cb	-0.024013907811536932
96	0x3fb087c4cbc970cd	0.06457166648164332
97	0x3fa1fe0b18d5d717	0.03514132192769475
98	0x3f736d2b07c35793	0.004742782675938434
99	0xbf655934f4b4b1c0	-0.002606013707597138
100	0xbf9983f8216418dd	-0.02491748527338521
101	0x3f9f9eb13217becf	0.030878800089282173
102	0x3fc38d8764a4e0e5	0.15275661863575532
103	0xbfc99ac5bc71693e	-0.2000357790119071
104	0xbf8874f48d0f509f	-0.0119418244884531
105	0xbf93248742a59fde	-0.018694032137687937
106	0x3f81b527236bcc44	0.008646302956071612
107	0x3fa0ffe9ae2e9c38	0.03320245982404696
108	0xbf70104b3267f58a	-0.003921788919340039
109	0xbfc9f08057c77898	-0.20265201841443026
110	0xbfc2fcd1422cc822	-0.14834037524411864
111	0xbf89bc0e7d857a99	-0.012565720754250708
112	0xbfaa4eedc052864e	-0.05138342831311303
113	0xbf826ae1c652039b	-0.008992923607594785
114	0xbfa035f79bcb5475	-0.03166173722062463
115	0xbf7d91577e44d455	-0.007218686838588691
116	0xbf408a6c38e9ad29	-0.0005047825269008144
117	0x3f8e3c1cc3653a54	0.014763092720980676
118	0x3fa2f64877e71795	0.03703524078041124
119	0x3fcd0e4d85a67e9f	0.22699898744484856
120	0xbfd2347e5c578da8	-0.2844539548661609
121	0x3fce5f1e952a6b7e	0.23727781566125467
122	0xbfd4da5082c68705	-0.32582485934300137
123	0x3fd70fadbd8aa708	0.3603319502823159
124	0xbf7dc18d243fba55	-0.007264663061489947
125	0x3f99d2e2994e2722	0.025218525511753083
126	0xbf884db59cecf90b	-0.011866968966952848
127	0xbf91f5a59d58913b	-0.017538631180415747
128	0x3f81b16599a028d1	0.008639138937742182
129	0x3f90cabc0b84ae2f	0.016398370936412995
130	0xbf8f8216694b99ae	-0.015384841049535716
131	0x3fa9f390f26b4370	0.05068638762680322
132	0x3faf7fc4b0a62010	0.061521669925298395
133	0xbfa1037e7eafd6c4	-0.03322978302450744
134	0xbf78b1141a1eec3d	-0.006028250239917429
135	0xbf958b296954206d	-0.021038672498463407
136	0x3f864cde73ee2230	0.01088880339899942
137	0x3f8cf6a78b775421	0.01414233106963009
138	0x3fab8449113a6a58	0.053743632653284024
139	0x3f873ad22a0f946c	0.011342660816760573
140	0xbf7f34b48031f365	-0.007618622857191369
141	0x3f495d5a47b98338	0.0007740679570354741
142	0x3fa8f11bd49b0acc	0.048714513495288964
143	0xbf58b84836265cb2	-0.0015087800207760735
144	0x3f8979f3100aee65	0.012439631392559389
145	0xbf88350d221dc40b	-0.011819937328001037
146	0xbf826afd11976e03	-0.008993126963949832
147	0xbf89cd335ae1cafd	-0.01259842034435143
148	0x3fa8129f51bcf4f4	0.04701707718639084
149	0xbfa10cd502900a2d	-0.03330102592737592
150	0x3fb7978f16c0e6e7	0.09215635591035785
151	0x3faf977940d62476	0.06170252720318896
152	0x3fa3d8952100f5c8	0.03876176860692798
153	0x3fa1a8953dd0bada	0.03448931102353976
154	0xbf8d9853d492aaf2	-0.014450697827063295
155	0x3f98ef38adb228b5	0.024350057221945238
156	0x3f954cfcd579626b	0.02080149701063975
157	0xbf72690c3276010c	-0.004494712491009755
158	0x3f7b17b895162bfd	0.006614419007187952
159	0xbf8838d70b4a9aea	-0.011827163726889595
160	0x3f9705b10b01ed58	0.022482649132581883
161	0x3f946e9b498b07c6	0.019953180659974888
162	0x3f6037ec79720a79	0.0019797915115884993
163	0xbf62d6fc2cd5d925	-0.002299778489653142
164	0xbf6b790717e5afb5	-0.0033536089460337267
165	0xbf57408f7837c42a	-0.0014192009992906132
166	0xbf42d14a07848659	-0.0005742656203759452
167	0x3f8e302d633dd17c	0.014740328398809004
168	0xbf91bc96e1bbb72c	-0.01732097389952185
169	0xbf81a167f6b5a02f	-0.008608638969875041
170	0x3f77dd62162dcc2f	0.005826361800120457
171	0x3f0cf3f9eba1dd40	5.522352644587525e-05
172	0x3f87610cc434d588	0.011415576684707288
173	0x3f9323e21277a6b0	0.018691570641670097
174	0x3f8d66d8e23bbb99	0.014356321720212327
175	0x3f937e20f0fdb218	0.01903583022014929
176	0x3f9a6ef48196128d	0.025813885125460834
177	0xbf50f9ce95eb17c5	-0.0010361211240463724
178	0x3f360c198123d2d7	0.00033641455333048353
179	0xbfa07db360c66dbc	-0.032209020198219446
180	0xbf9fbf6d8ab2478e	-0.031003676977497778
181	0x3f9ef677e3ffeadc	0.03023707703685373
182	0xbf616406b72f83a6	-0.0021228915370418875
183	0xbfa1b382b4fd5a36	-0.034572681992973406
